model/optimizer_update.pt (torch, 9203 bytes, 10 tensors)

input_layer.weight f4 [20, 3]
4.965118 -0.014414553 -0.012794757 3.876332 -0.035688538 0.03960299 1.6967099 3.0436282
0.0114233615 -0.288627 -0.083812095 0.111381344 0.98766714 0.4585277 -0.016729493 0.5564427
0.030015852 0.017673817 -5.4944263 1.0471432 -1.0111538 -2.8754158 -0.680901 1.1638292
-0.64802164 -2.9817255 -0.91038203 -2.5902152 0.13666219 -0.34049612 0.37514913 -0.87496877
0.7327896 6.2888923 -1.1273742 2.0573552 0.8669798 0.64808357 1.4946399 -0.11518837
-0.007998773 -0.031899508 0.5951577 1.0701381 1.2137477 0.106802516 -0.038722016 0.26900065
0.80207974 -0.2917177 -0.078999296 -3.4504545 -0.542426 0.46076784 0.6478425 0.7748272
1.2997618 1.7090383 1.673879 -1.6347167
00000000: 3fe2 9e40 042b 6cbc 1aa1 51bc d315 7840
00000010: 252e 12bd bf36 223d ca2d d93f ceca 4240
00000020: 0d29 3b3c ebc6 93be ada5 abbd e71b e43d
00000030: c1d7 7c3f 25c4 ea3e 4a0c 89bc 0773 0e3f
00000040: cee3 f53c aec8 903c 57d2 afc0 ca08 863f
00000050: 7d6d 81bf d006 38c0 874f 2ebf 5bf8 943f
00000060: bfe4 25bf 97d4 3ec0 cc0e 69bf 16c6 25c0
00000070: 2cf1 0b3e 8255 aebe 8c13 c03e f4fd 5fbf
00000080: 1998 3b3f 9b3e c940 cc4d 90bf b5ab 0340
00000090: 63f2 5d3f cee8 253f 5c50 bf3f e1e7 ebbd
000000a0: 490d 03bc 0fa9 02bd 415c 183f 49fa 883f
000000b0: 165c 9b3f 47bb da3d fa9a 1ebd 74ba 893e
000000c0: 1955 4d3f 065c 95be 62ca a1bd 3fd4 5cc0
000000d0: 6edc 0abf c3e9 eb3e 02d9 253f 135b 463f
000000e0: 985e a63f c4c1 da3f ab41 d63f 663e d1bf

input_layer.bias f4 [20]
1.6084092 0.045052644 0.5100978 0.2521522 1.3174933 1.0230995 2.082675 0.058190133
-0.9124852 -1.3479509 0.82276505 -1.1146194 0.43043846 2.5342016 -0.7056365 0.46952948
-0.4374465 -1.1168932 0.8639406 0.020050474
00000000: 5ae0 cd3f 1f89 383d c595 023f 181a 813e
00000010: 9fa3 a83f edf4 823f 8c4a 0540 c758 6e3d
00000020: a198 69bf a889 acbf bba0 523f d9ab 8ebf
00000030: 6e62 dc3e 5c30 2240 98a4 34bf 2b66 f03e
00000040: fdf8 dfbe 5bf6 8ebf 362b 5d3f e440 a43c

hidden_layers.0.weight f4 [20, 20]
0.8609692 0.34253064 0.0074775997 0.5358631 1.1318985 0.9787528 -0.085372865 0.08686159
-1.4084668 -0.734732 -0.2440222 0.63629705 1.5394565 -0.4004723 0.29752675 -0.1229276
-0.29615143 -0.58523476 1.2849491 0.546635 -0.9865043 -1.0165763 0.4779195 0.25142184
-0.22333342 -1.4767839 0.8749547 0.9585535 0.31041506 1.347908 -0.4295895 -0.7837857
-0.14473672 0.76767963 -1.0747921 0.36948523 0.3060712 0.062123977 -0.76389354 0.3913143
1.49522 1.2535381 -0.17181502 -0.38909844 -0.024794266 -0.23155844 -3.125502 -5.15935
-0.9095441 0.09452284 1.9182647 1.2534386 0.19152753 -2.8925407 -0.53076667 -0.36510673
0.08693601 -3.751763 -0.29709318 -0.5437569 -0.49275848 -0.837709 -1.9329906 0.10226469
-1.0342938 -0.16628882 0.38420457 0.67604625 1.1478679 0.59250563 0.07098854 -0.8977629
-1.0462172 0.7538254 -0.7386398 0.37292877 0.52145857 0.61167234 -0.32936665 -0.87362504
0.50904727 -0.28960517 -1.9882201 0.6581 -0.46420813 0.0035518878 0.44968048 -2.2510724
0.8269689 0.27881828 -0.23663694 -0.8526171 -0.36153054 -0.8324353 0.25844646 0.67026913
2.0857425 -0.19208097 -0.1141568 -0.13927102 1.6310353 1.4956686 -0.5740677 -1.1431725
0.57462597 0.15627715 -1.1913873 0.37454954 -0.11409096 -2.1591182 0.45479396 1.0080867
0.7010147 -1.1780192 -0.023916878 -0.7260745 0.25477132 -0.12963915 0.7340683 -0.37971365
0.46821344 0.31088775 0.5124967 -0.27488142 0.65707076 -0.17181468 1.9863527 -0.45133838
-0.5246927 0.03608447 -1.178717 0.2511648 0.38611943 2.1725495 0.26871642 -0.23333009
0.6167213 -1.2273271 0.45058554 -0.49031848 0.55128413 0.86209095 0.30520073 -0.7881251
1.1989719 0.60789424 -1.4338771 0.13179986 -1.4477273 -2.1531253 1.6788691 -0.061278805
0.5541147 -0.41333055 1.1274772 -0.24698628 -0.0067184037 -0.76971984 1.461579 -0.60579115
-1.6992639 -0.6492198 2.4698615 2.957272 -1.5136751 -1.4092555 2.0568955 0.00012658129
0.63064677 0.009121743 -0.8960276 0.17094906 -0.7059415 1.9757369 -0.4712539 2.8911364
-1.8310575 1.2278942 -1.3847113 -0.18873277 -1.0797395 -1.7843993 -0.0038056003 0.10289199
-1.6464169 -0.7572188 0.91440105 -0.7600993 1.249463 1.9269166 -0.7977286 -0.902596
-1.7012053 1.190392 -1.7443167 0.14208186 0.4502488 0.9875887 -1.0983218 0.37924296
1.2322006 0.2014602 -0.20195277 -0.697409 0.7642934 0.64042 -0.6048636 -0.5644137
-0.8329457 -1.1988913 0.48607835 -0.057472676 0.8644174 -0.04942835 1.119736 -0.6958528
0.0719146 -0.61112124 1.0244353 0.38755056 -0.08269416 -1.0446707 -1.5240822 -0.32420206
-0.8387415 0.26461282 0.07993928 0.23254605 1.04719 0.36407113 -0.88840276 -0.72425294
-1.3543289 -0.2618469 -0.31068665 0.09840112 0.17355329 1.181745 -0.85425 -0.3056166
0.41234258 -0.5808416 0.48098686 1.7686112 0.25551328 -0.7490347 -0.27314222 -2.2904649
-0.6868774 -0.5626517 -1.4798865 0.05173799 0.23012498 0.6647757 1.4350344 0.3726533
00000000: 7a68 5c3f 2d60 af3e a706 f53b 532e 093f
00000010: 0de2 903f 8b8f 7a3f f8d7 aebd 7de4 b13d
00000020: a448 b4bf 6517 3cbf f5e0 79be 5de4 223f
00000030: e90c c53f b50a cdbe 6d55 983e 77c1 fbbd
00000040: 29a1 97be f2d1 15bf 3679 a43f 45f0 0b3f
00000050: 8c8b 7cbf 2c1f 82bf ddb1 f43e 5dba 803e
00000060: 84b1 64be 4107 bdbf 08fd 5f3f c363 753f
00000070: b9ee 9e3e 4088 ac3f 28f3 dbbe 2ea6 48bf
00000080: dd35 14be a786 443f ca92 89bf 2b2d bd3e
00000090: 5db5 9c3e b675 7e3d 878e 43bf 595a c83e
000000a0: 5e63 bf3f f073 a03f 47f0 2fbe e937 c7be
000000b0: 581d cbbc a81d 6dbe 3a08 48c0 6519 a5c0
000000c0: e2d7 68bf 3195 c13d b389 f53f ad70 a03f
000000d0: cb1f 443e 631f 39c0 53e0 07bf 45ef babe
000000e0: 820b b23d e31c 70c0 991c 98be a733 0bbf
000000f0: d74a fcbe 1974 56bf 3c6c f7bf 2670 d13d
00000100: bd63 84bf 9e47 2abe 76b6 c43e 5e11 2d3f
00000110: 56ed 923f 73ae 173f 7162 913d cad3 65bf
00000120: 72ea 85bf b4fa 403f 7f17 3dbf 85f0 be3e
00000130: 4f7e 053f 8f96 1c3f bfa2 a8be e4a5 5fbf
00000140: ec50 023f 2147 94be ff7d febf 3e79 283f
00000150: b0ac edbe cac6 683b 853c e63e 9211 10c0
00000160: 3cb4 533f 45c1 8e3e f450 72be 1d45 5abf
00000170: 881a b9be 7b1a 55bf 1853 843e c296 2b3f
00000180: ce7c 0540 e0b0 44be 0acb e9bd 109d 0ebe
00000190: c4c5 d03f 1272 bf3f 1af6 12bf 7a53 92bf
000001a0: b01a 133f 1e07 203e 617f 98bf f5c4 bf3e
000001b0: 85a8 e9bd fe2e 0ac0 c1da e83e fc08 813f
000001c0: b375 333f 55c9 96bf 54ed c3bc 05e0 39bf
000001d0: 6371 823e 20c0 04be e6eb 3b3f d469 c2be
000001e0: acb9 ef3e ae2c 9f3e fc32 033f 42bd 8cbe
000001f0: ca35 283f 30f0 2fbe ce40 fe3f d315 e7be
00000200: 4352 06bf 4fcd 133d 33e0 96bf ac98 803e
00000210: 72b1 c53e 0d0b 0b40 3395 893e 15ee 6ebe
00000220: 72e1 1d3f 0e19 9dbf 26b3 e63e 060b fbbe
00000230: f520 0d3f feb1 5c3f 4543 9c3e 91c2 49bf
00000240: e977 993f f59e 1b3f 4989 b7bf 8bf6 063e
00000250: 214f b9bf cecc 09c0 2fe5 d63f 7cff 7abd
00000260: 76da 0d3f 10a0 d3be 2c51 903f f9e9 7cbe
00000270: 0e26 dcbb 5c0c 45bf 0515 bb3f 2115 1bbf
00000280: 7b81 d9bf 4533 26bf 3612 1e40 f243 3d40
00000290: 1bc0 c1bf 7c62 b4bf 2da4 0340 e8ba 0439
000002a0: 1172 213f 5d73 153c 1162 65bf 450d 2f3e
000002b0: 95b8 34bf f2e4 fc3f 3148 f1be 6108 3940
000002c0: 1860 eabf a32b 9d3f 383e b1bf 2a43 41be
000002d0: e734 8abf 3267 e4bf 6167 79bb 09b9 d23d
000002e0: cabd d2bf 17d9 41bf 3016 6a3f de95 42bf
000002f0: 67ee 9f3f 34a5 f63f f137 4cbf 8810 67bf
00000300: 18c1 d9bf c45e 983f c545 dfbf e87d 113e
00000310: 0387 e63e 9dd2 7c3f cf95 8cbf 222c c23e
00000320: c0b8 9d3f 954b 4e3e b5cc 4ebe 6589 32bf
00000330: bba8 433f 91f2 233f 57d8 1abf 6b7d 10bf
00000340: ee3b 55bf 4575 99bf 43df f83e 7868 6bbd
00000350: 754a 5d3f 6275 4abd 8253 8f3f 6923 32bf
00000360: f647 933d 7172 1cbf b220 833f 076d c63e
00000370: 8e5b a9bd c5b7 85bf 2015 c3bf d0fd a5be
00000380: c3b7 56bf 557b 873e 35b7 a33d 8d20 6e3e
00000390: 520a 863f 8867 ba3e 5d6e 63bf a468 39bf
000003a0: a65a adbf cc10 86be 5212 9fbe 8786 c93d
000003b0: f4b7 313e 6c43 973f 21b0 5abf c779 9cbe
000003c0: 911e d33e 09b2 14bf e943 f63e da61 e23f
000003d0: a3d2 823e bdc0 3fbf 4cd9 8bbe fa96 12c0
000003e0: 33d7 2fbf f109 10bf ec6c bdbf 37eb 533d
000003f0: e2a5 6b3e be2e 2a3f 35af b73f 6acc be3e

hidden_layers.0.bias f4 [20]
1.4737511 -0.77120304 0.47028846 -0.7901272 -0.2480518 0.01406487 1.0754658 1.5209616
-0.93205595 -1.0609673 1.2117853 0.0292774 -0.06102953 -0.4758224 -0.27127552 0.76191115
-0.4570515 -0.8028243 1.0612149 0.42366305
00000000: e0a3 bc3f 906d 45bf a6c9 f03e c745 4abf
00000010: 4b01 7ebe 5770 663c dda8 893f dfae c23f
00000020: 389b 6ebf c7cd 87bf c81b 9b3f 28d7 ef3c
00000030: 1afa 79bd fe9e f3be a0e4 8abe 9c0c 433f
00000040: a702 eabe e585 4dbf e4d5 873f 5dea d83e

hidden_layers.1.weight f4 [20, 20]
-0.34547266 -0.64184123 -0.5296535 0.588331 -0.4854692 -0.35990685 1.0205929 -1.4321377
-0.6801674 -0.000106972635 -0.13831286 0.29833692 0.25286913 0.41033635 -0.01524459 -0.88498735
-0.91810125 -0.8696917 0.20890993 -1.2466903 -1.7374945 1.476374 -2.4744427 -0.015641252
-1.3507701 -2.5727472 0.22044374 1.7338548 1.0859107 -1.4044236 -1.0613364 -1.5396821
-1.3588142 -3.2574148 0.19330488 -0.5750675 -0.71056896 1.7208017 0.90602505 2.2911785
0.6494122 -0.556954 0.121100724 -0.10603716 0.72733974 1.4924418 -0.7147823 -0.3291633
0.61277807 -0.9379394 1.0299547 -0.51737136 -0.052862007 -0.07929551 -1.1141998 0.43786243
0.84424824 0.3681503 0.15516922 0.53007954 -1.2735869 1.8704275 -1.2797934 0.593565
0.7756416 -1.9333004 -0.8551832 -0.58102393 -0.016165026 0.4933937 -1.1639419 -0.06713047
-0.79171836 -0.06531707 -0.30628097 -0.7031388 -1.8448596 0.62163395 -1.2971903 0.41244763
0.3914484 -0.06801495 0.3309657 -0.17790653 -0.29927707 0.5859147 0.28802052 0.892162
0.5292719 -0.9618482 0.6718368 -0.82481056 -0.4768934 0.17999122 0.29800665 1.0449154
1.2798194 -0.061030254 1.0733515 -0.5389629 0.088454016 1.3138732 0.63117987 0.3718034
0.482878 -0.4925332 -1.2386793 0.038660046 -1.1262516 0.5319954 -0.31854263 -0.36888102
0.08281718 0.6782785 1.5876687 0.45390338 -0.25922215 0.9988271 -0.6390909 -0.16973476
0.765884 -2.4545722 1.0310934 0.3386485 0.5712971 0.6211364 -0.5141012 -0.04716221
-0.7527942 0.09674679 0.2536243 0.31095228 1.6795967 -0.27658573 -0.82424587 0.17952916
0.23963836 -1.5597267 0.8631727 0.822465 -0.82553774 0.806763 -1.2041969 0.43631175
-0.31855443 -1.185374 -0.566222 -0.13792607 0.04429136 0.66752285 -0.25025043 -0.3050598
-0.8785311 0.15934631 -0.1115198 -0.27921227 -0.47418055 -0.041785207 -0.3223393 0.1554341
-0.85305744 0.6770882 -1.1968292 0.38398206 -0.22905034 -0.96839947 -0.40440518 0.20183313
-0.15264243 0.38879418 -1.1383709 -0.014541432 -0.36243606 -0.036176752 0.3009241 -0.5288964
-1.4610709 -0.23036058 -0.5952892 -0.44002217 1.5593804 -0.64975274 1.3454319 0.61758375
0.7756899 0.63488436 0.9010886 -0.35920677 -0.59022677 0.4492104 1.8756759 -0.65382755
0.041453492 0.6621579 -0.42802703 0.6137811 1.1763914 0.41360012 -0.18394753 -0.36724988
-1.41478 1.5672764 -1.0600868 1.3905257 -0.0994772 -0.9930535 -1.2008222 2.0111187
-0.058568455 -0.052597478 -0.9048885 -0.74379957 0.31912026 -0.78764707 -0.27985698 0.057824135
-0.37078997 1.153101 0.9237096 0.43276373 0.8730998 -0.3578748 -0.21645968 0.040818352
0.07774998 1.2761703 0.12980433 -0.09364233 0.49614635 -0.5730208 0.8567941 -0.03949217
-0.7522235 0.32066223 -0.32793596 0.1424063 1.0146401 0.81869084 0.05512226 0.4757242
0.068487614 -0.122230396 -1.6073959 -0.018105453 0.5538275 -0.55682665 0.8531779 -1.0691628
0.99026954 0.34737113 -0.6606743 1.843753 -0.091646336 -0.14479838 -0.47025234 -0.21809672
00000000: cbe1 b0be b54f 24bf 5f97 07bf dc9c 163f
00000010: 6b8f f8be b645 b8be caa2 823f 4a50 b7bf
00000020: 731f 2ebf 7f56 e0b8 e3a1 0dbe 9ebf 983e
00000030: 1078 813e 9b17 d23e 72c4 79bc 888e 62bf
00000040: af08 6bbf 1ea4 5ebf 7cec 553e 8c93 9fbf
00000050: 3866 debf d3f9 bc3f 455d 1ec0 1522 80bc
00000060: 09e6 acbf e4a7 24c0 01bc 613e f4ee dd3f
00000070: 1fff 8a3f 27c4 b3bf dfd9 87bf 4e14 c5bf
00000080: a0ed adbf 7c79 50c0 b7f1 453e a037 13bf
00000090: d9e7 35bf 3b43 dc3f 42f1 673f aba2 1240
000000a0: e13f 263f 8a94 0ebf a803 f83d 032a d9bd
000000b0: f032 3a3f 5508 bf3f f9fb 36bf 1888 a8be
000000c0: 06df 1c3f cc1c 70bf 8ed5 833f 7372 04bf
000000d0: d585 58bd af65 a2bd 199e 8ebf 812f e03e
000000e0: a720 583f 327e bc3e aee4 1e3e 4bb3 073f
000000f0: e504 a3bf 2b6a ef3f 45d0 a3bf e0f3 173f
00000100: 7390 463f 6376 f7bf 49ed 5abf fcbd 14bf
00000110: 846c 84bc 199e fc3e 0cfc 94bf b37b 89bd
00000120: 0eae 4abf f5c4 85bd dcd0 9cbe e800 34bf
00000130: 5c24 ecbf 6723 1f3f 550a a6bf 562c d33e
00000140: ed6b c83e 6c4b 8bbd 5674 a93e 212d 36be
00000150: d83a 99be 81fe 153f 6d77 933e bb64 643f
00000160: 5d7e 073f af3b 76bf 7ffd 2b3f c926 53bf
00000170: 5f2b f4be 9e4f 383e 5494 983e cabf 853f
00000180: 1fd1 a33f dcfa 79bd 9563 893f 79f9 09bf
00000190: 6127 b53d ff2c a83f 0195 213f 045d be3e
000001a0: c93b f73e 502d fcbe 0b8d 9ebf ff59 1e3d
000001b0: 0329 90bf da30 083f 0518 a3be f9dd bcbe
000001c0: 0e9c a93d a9a3 2d3f ba38 cb3f 0666 e83e
000001d0: c4b8 84be 22b3 7f3f 769b 23bf f3ce 2dbe
000001e0: f910 443f b617 1dc0 defa 833f 5663 ad3e
000001f0: 8740 123f cc02 1f3f 239c 03bf 292d 41bd
00000200: 1fb7 40bf 2e23 c63d 0bdb 813e 2335 9f3e
00000210: 06fd d63f a59c 8dbe c701 53bf 7ed6 373e
00000220: c263 753e 20a5 c7bf e3f8 5c3f 118d 523f
00000230: 7156 53bf 0588 4e3f 2023 9abf 4164 df3e
00000240: 9119 a3be 56ba 97bf edf3 10bf 7e3c 0dbe
00000250: db6a 353d c7e2 2a3f d320 80be cc30 9cbe
00000260: 6ae7 60bf ae2b 233e 7e64 e4bd e9f4 8ebe
00000270: cbc7 f2be f726 2bbd a809 a5be 1e2a 1f3e
00000280: f961 5abf a755 2d3f b331 99bf 4c99 c43e
00000290: 2c8c 6abe 07e9 77bf 320e cfbe 58ad 4e3e
000002a0: 4c4e 1cbe 0810 c73e 23b6 91bf 303f 6ebc
000002b0: 3891 b9be 132e 14bd b912 9a3e c165 07bf
000002c0: 5f04 bbbf a5e3 6bbe df64 18bf 964a e1be
000002d0: c799 c73f 3256 26bf 1d37 ac3f f819 1e3f
000002e0: 9d93 463f c887 223f bead 663f f3e9 b7be
000002f0: 1a19 17bf e8fe e53e 2616 f03f 3e61 27bf
00000300: 23cb 293d 2e83 293f 5c26 dbbe c220 1d3f
00000310: fe93 963f 65c3 d33e be5c 3cbe 2d08 bcbe
00000320: 8317 b5bf 839c c83f edb0 87bf bffc b13f
00000330: b4ba cbbd c138 7ebf 8bb4 99bf 2bb6 0040
00000340: 7ae5 6fbd 7470 57bd c6a6 67bf a669 3ebf
00000350: bb63 a33e 3da3 49bf 6a49 8fbe 00d9 6c3d
00000360: 2fd8 bdbe d098 933f 3b78 6c3f 3593 dd3e
00000370: 7883 5f3f 5e3b b7be 9ba7 5dbe 2531 273d
00000380: 623b 9f3d 8c59 a33f 6deb 043e 8dc7 bfbd
00000390: e506 fe3e 7eb1 12bf dc56 5b3f 8bc2 21bd
000003a0: b891 40bf d72d a43e 39e7 a7be f5d2 113e
000003b0: badf 813f b995 513f e1c7 613d 1f92 f33e
000003c0: 3c43 8c3d ee53 fabd 26bf cdbf e351 94bc
000003d0: a4c7 0d3f 318c 0ebf de69 5a3f 54da 88bf
000003e0: 4e82 7d3f a1da b13e f321 29bf 1900 ec3f
000003f0: 13b1 bbbd 0746 14be eac4 f0be bf54 5fbe

hidden_layers.1.bias f4 [20]
0.08139396 -1.7071005 0.3960609 -1.4141785 0.7503105 -0.5652967 0.5965816 -0.81991696
-0.7309726 1.1145074 -1.4404739 0.28999168 -0.06730029 1.2234153 -0.75375885 -1.5951303
-0.22464237 -0.35818532 0.30977213 0.70167476
00000000: e0b1 a63d 4582 dabf 7fc8 ca3e cd03 b5bf
00000010: 5914 403f 49b7 10bf 92b9 183f 14e6 51bf
00000020: 0521 3bbf 2ea8 8e3f 7361 b8bf ca79 943e
00000030: bcd4 89bd df98 9c3f 57f6 40bf 3b2d ccbf
00000040: a608 66be 1164 b7be 749a 9e3e f5a0 333f

hidden_layers.2.weight f4 [20, 20]
-0.06935737 -0.54876363 -0.09490609 -0.17322648 -0.44175977 1.5366879 -0.31084454 0.780557
0.8990435 -0.5538141 0.14925553 0.34645382 -0.95805424 -0.4792672 0.5130305 0.4283684
1.4155562 0.74185354 0.15611795 -0.51602507 0.48773542 0.8494294 -0.19772263 -0.0625692
0.7101561 1.2825891 -1.05818 0.10279346 0.45703486 -0.10577685 0.6945686 -0.96081054
-0.12985064 -0.59112084 0.30211198 -0.47405502 1.4848301 -0.035987835 0.6093043 -0.21728694
0.38036117 0.34889323 -0.00992145 0.04994468 -0.9844936 0.86403304 -0.055438176 0.61136824
0.1861796 -1.7007326 0.1704442 -0.22425202 0.08796162 -0.26310223 0.045282237 0.9610473
-0.41748196 1.2541964 0.3502418 -0.85967493 2.6922414 -0.66075844 -1.4741658 -0.036066245
-0.35911596 1.2749443 -0.53278387 0.4952197 0.5052325 -0.045872048 2.871326 -1.3542924
-2.312373 -0.5002829 0.28715822 1.2975231 0.42527136 1.6012415 1.3196188 -0.92300355
-0.007185477 -0.3535919 0.5062824 -0.9678245 0.62548566 -0.38033825 -0.1767492 -1.2151153
-1.2573562 1.1212295 -0.63792944 0.6115749 0.39437374 -0.3727152 -0.30669418 -1.3058317
-1.0898623 -1.1414121 -0.0021688752 0.54955745 -0.80400056 -0.3893236 -0.7915015 1.2144016
0.07609033 1.2934682 -0.6264831 0.3112985 1.0739712 -0.4098756 0.8885361 -0.14020328
-1.9954679 -0.6026139 0.07658802 -1.4520355 0.73775864 1.0638694 -0.482283 -0.31317174
0.9505701 0.27175742 -0.12737826 1.4671993 -0.64080626 0.33540207 -0.15374272 0.82715946
0.5880505 -0.30655482 0.45702624 -0.12235534 -0.9048388 -0.6954514 0.1652336 0.2751814
0.18265887 0.36348256 0.67814916 -0.43989202 -0.90334094 -0.44894958 -1.7885934 0.10204324
-1.9500939 1.5135549 -1.0028872 0.9131992 1.7212003 1.0665134 0.43961746 -0.85884404
0.72819585 4.7070365 2.9669676 2.010365 1.7750114 1.740983 -2.452424 -0.9620459
-1.7669868 0.13852586 1.8248816 -1.3543085 -0.13965866 -2.0081358 2.570261 -1.769909
-1.8236247 1.125872 -1.7706956 1.3285658 1.7629825 0.34828123 -0.82021934 -0.62704533
-1.838735 -2.1514246 0.18915786 1.2539711 -0.35193315 -0.6462941 -0.12376913 0.5362732
-0.69131887 -0.119811855 -0.05657931 1.1049985 0.3415595 -0.9378053 0.4496555 -0.32585114
0.18210003 1.2766426 1.4239881 1.2611248 0.014491734 0.50020254 -0.10952653 -0.80581075
0.42130753 -1.9687579 0.15833645 3.4645238 -1.5789887 1.3327315 -1.3696886 1.0918838
1.4539447 -1.5564408 0.77674866 -0.90097106 -0.21310477 0.7834157 1.1259677 0.6562908
0.20875907 0.34544298 1.3110863 -1.3665929 -1.4264241 1.5737437 -1.1267147 0.8393817
-0.099074684 0.532235 0.0065122875 0.89407253 0.120431386 -1.7289258 -0.9664522 -0.20822218
-0.26436603 -1.5800227 0.47156578 -0.554108 -0.39081585 0.40143052 1.5045536 0.11762235
-0.24040693 -0.9620338 -0.6306513 1.592454 -0.45393154 0.5535228 -0.4738728 0.2551913
0.09419619 -0.083004035 0.11658245 -0.19649956 1.7228673 -0.2973358 0.30593517 -0.15342875
00000000: 3d0b 8ebd c67b 0cbf 205e c2bd 4862 31be
00000010: 562e e2be 30b2 c43f 0427 9fbe 95d2 473f
00000020: b727 663f c3c6 0dbf 71d6 183e 6562 b13e
00000030: 0b43 75bf 8362 f5be f855 033f 1a53 db3e
00000040: f230 b53f 1dea 3d3f 62dd 1f3e 381a 04bf
00000050: 75b8 f93e 3574 593f cd77 4abe 4824 80bd
00000060: cacc 353f e12b a43f 7172 87bf 6185 d23d
00000070: 7900 ea3e 88a1 d8bd 3fcf 313f aef7 75bf
00000080: 91f7 04be b253 17bf 6cae 9a3e 57b7 f2be
00000090: ea0e be3f fb67 13bd 5efb 1b3f 7880 5ebe
000000a0: b3be c23e 22a2 b23e 948d 22bc cb92 4c3d
000000b0: c607 7cbf 4531 5d3f 2413 63bd a182 1c3f
000000c0: dda5 3e3e 9bb1 d9bf ed88 2e3e 52a2 65be
000000d0: 3925 b43d 56b5 86be de79 393d 3207 763f
000000e0: 32c0 d5be 8289 a03f e552 b33e a813 5cbf
000000f0: af4d 2c40 7727 29bf 77b1 bcbf 33ba 13bd
00000100: 0cde b7be 6031 a33f 8664 08bf 708d fd3e
00000110: eb56 013f 54e4 3bbd cec3 3740 7459 adbf
00000120: ebfd 13c0 8a12 00bf 6706 933e 3d15 a63f
00000130: 2bbd d93e 7bf5 cc3f 45e9 a83f f649 6cbf
00000140: 2674 ebbb ff09 b5be b99b 013f 59c3 77bf
00000150: d41f 203f b2bb c2be befd 34be e688 9bbf
00000160: 0cf1 a0bf 7384 8f3f 584f 23bf 2c90 1c3f
00000170: 5beb c93e 87d4 bebe 0507 9dbe 7e25 a7bf
00000180: 9c80 8bbf cb19 92bf b023 0ebb ccaf 0c3f
00000190: fbd2 4dbf 6c55 c7be d89f 4abf 8371 9b3f
000001a0: 3fd5 9b3d 5e90 a53f 3261 20bf 8462 9f3e
000001b0: e377 893f 37db d1be 1a77 633f 7391 0fbe
000001c0: 7e6b ffbf e844 1abf 2eda 9c3d 4ddc b9bf
000001d0: c0dd 3c3f df2c 883f cced f6be 0c58 a0be
000001e0: 9058 733f ca23 8b3e 726f 02be 30cd bb3f
000001f0: e10b 24bf d2b9 ab3e bb6e 1dbe b9c0 533f
00000200: 7a8a 163f c1f4 9cbe 58ff e93e 7095 fabd
00000210: 84a3 67bf 1a09 32bf ff32 293e 94e4 8c3e
00000220: ed0a 3b3e 631a ba3e 2f9b 2d3f 8739 e1be
00000230: 5a41 67bf b8dc e5be a1f0 e4bf 0cfc d03d
00000240: ad9c f9bf 2bbc c13f 9c5e 80bf 6cc7 693f
00000250: 4b50 dc3f 8383 883f 8a15 e13e 34dd 5bbf
00000260: 0b6b 3a3f 0ba0 9640 cce2 3d40 d2a9 0040
00000270: 9333 e33f 88d8 de3f 84f4 1cc0 a448 76bf
00000280: a02c e2bf b9d9 0d3e b895 e93f fb59 adbf
00000290: ae02 0fbe 4c85 00c0 287f 2440 618c e2bf
000002a0: 896c e9bf 931c 903f 27a6 e2bf 720e aa3f
000002b0: 69a9 e13f eb51 b23e e5f9 51bf 0b86 20bf
000002c0: ab5b ebbf f1b0 09c0 99b2 413e 2082 a03f
000002d0: 9530 b4be 8873 25bf ab7a fdbd 3349 093f
000002e0: 46fa 30bf eb5f f5bd b5bf 67bd 9770 8d3f
000002f0: e3e0 ae3e 0214 70bf 3f39 e63e f6d5 a6be
00000300: 6e78 3a3e 0669 a33f 3e45 b63f 8a6c a13f
00000310: bd6e 6d3c 460d 003f 724f e0bd 9d49 4ebf
00000320: 9fb5 d73e 4200 fcbf f322 223e c2ba 5d40
00000330: 4d1c cabf f296 aa3f f551 afbf d9c2 8b3f
00000340: dc1a ba3f 7439 c7bf 00d9 463f 0aa6 66bf
00000350: 2338 5abe ee8d 483f b61f 903f ad02 283f
00000360: f0c4 553e e7dd b03e add1 a73f 84ec aebf
00000370: 1195 b6bf 6f70 c93f 3038 90bf b8e1 563f
00000380: abe7 cabd 8e40 083f 0765 d53b f0e1 643f
00000390: bba4 f63d 714d ddbf 6969 77bf 3238 55be
000003a0: fc5a 87be 2f3e cabf 1271 f13e 06da 0dbf
000003b0: 0419 c8be 4d88 cd3e 3695 c03f fde3 f03d
000003c0: 3c2d 76be d947 76bf 5d72 21bf 88d5 cb3f
000003d0: b769 e8be acb3 0d3f 759f f2be 6fa8 823e
000003e0: efe9 c03d 05fe a9bd c8c2 ee3d 2e37 49be
000003f0: ea86 dc3f 663c 98be 89a3 9c3e 6d1c 1dbe

hidden_layers.2.bias f4 [20]
-0.9050733 -0.6022483 -0.388463 -0.7346762 0.75062245 -1.0242149 -0.49463126 -1.2938224
1.4911442 -0.6143145 -1.5086163 -0.3932335 -0.27871495 1.3828843 1.1680613 -0.73004735
-0.36707795 -0.8014341 1.1323451 -1.1593641
00000000: e2b2 67bf f22c 1abf 9fe4 c6be bd13 3cbf
00000010: cb28 403f 7919 83bf 4f40 fdbe f99b a5bf
00000020: d0dd be3f b743 1dbf 571a c1bf e755 c9be
00000030: bab3 8ebe 5a02 b13f 0883 953f 62e4 3abf
00000040: a4f1 bbbe c92a 4dbf aff0 903f 0b66 94bf

output_layer.weight f4 [5, 20]
0.8628189 1.1181219 0.88018763 3.1952825 0.8615712 -1.0642422 0.19693908 -0.48050925
-0.4929257 -0.027278258 -1.0320297 0.0006290243 -0.2429025 -1.5154384 0.79763824 -1.421968
0.23580846 -0.7198351 0.09512857 -0.6683424 -0.5925931 3.6357403 -2.672262 0.0012566156
-0.38548726 -0.35138422 0.22984976 1.5681386 1.6588023 0.8894796 1.8335168 -0.004270089
0.14407952 2.3873498 0.39415982 -0.34837124 -0.38342914 -0.34226426 -1.2866024 -1.2622973
0.4947509 -0.5231134 -1.1543903 0.27512038 -1.1756538 0.5303849 0.3593276 -0.48232138
1.0438852 0.89844674 -2.2343874 -0.0066624703 0.5256817 0.63130945 0.11877612 0.43979266
-0.9520552 0.3006145 0.05772176 -0.5693003 0.7272118 -0.46177942 -0.347098 -1.7577672
-0.95229715 0.022939887 0.22787374 0.7699356 0.76037717 0.50128907 0.6242005 -1.7574011
1.0272816 0.08769873 -0.70177585 0.8710951 -0.33298132 0.7930457 -0.17469706 -3.0219953
0.33249593 0.9713085 -0.67544574 -2.9060266 -1.048991 0.646501 -0.32001513 0.7599656
-0.5007872 1.2297832 -0.2655241 -1.7968682 0.6308683 0.38491282 0.16309708 0.03515275
-0.75775665 1.3400663 -0.14919446 -2.286775
00000000: b3e1 5c3f 9e1e 8f3f fa53 613f 827f 4c40
00000010: ee8f 5c3f 1739 88bf 66aa 493e 4f05 f6be
00000020: c260 fcbe a776 dfbc 8d19 84bf 1be5 243a
00000030: 6fbb 78be e3f9 c1bf 0532 4c3f 0c03 b6bf
00000040: c677 713e 1d47 38bf c5d2 c23d 7d18 2bbf
00000050: 2eb4 17bf f8af 6840 5706 2bc0 06b5 a43a
00000060: 965e c5be a2e8 b3be bc5d 6b3e c4b8 c83f
00000070: a253 d43f efb4 633f aeb0 ea3f 1aec 8bbb
00000080: 9589 133e 57ca 1840 51cf c93e b75d b2be
00000090: d350 c4be 433d afbe 63af a4bf f592 a1bf
000000a0: fd4f fd3e c3ea 05bf 10c3 93bf 94dc 8c3e
000000b0: d37b 96bf 4ec7 073f caf9 b73e d4f2 f6be
000000c0: 089e 853f 9b00 663f 3400 0fc0 da50 dabb
000000d0: 1393 063f 7f9d 213f e540 f33d 812c e13e
000000e0: e4b9 73bf 25ea 993e a76d 6c3d aabd 11bf
000000f0: 8d2a 3a3f 5a6e ecbe d4b6 b1be 84fe e0bf
00000100: bfc9 73bf 6eec bb3c bc57 693e 801a 453f
00000110: 14a8 423f 7b54 003f 9bcb 1f3f 85f2 e0bf
00000120: f77d 833f 649b b33d 95a7 33bf 1700 5f3f
00000130: 877c aabe 0b05 4b3f c9e3 32be 5f68 41c0
00000140: e83c aa3e ada7 783f 03ea 2cbf 57fc 39c0
00000150: 5645 86bf 1781 253f 06d9 a3be 1b8d 423f
00000160: 9733 00bf 8969 9d3f c6f2 87be c7ff e5bf
00000170: 9680 213f 4b13 c53e ec02 273e 54fc 0f3d
00000180: 57fc 41bf 4b87 ab3f 6fc6 18be 865a 12c0

output_layer.bias f4 [5]
0.615132 0.34384075 -0.87005633 -0.4675888 -0.39588386
00000000: 4a79 1d3f e50b b03e 03bc 5ebf cd67 efbe
00000010: 4ab1 cabe
