model/Optimizer_sqloss.pt (torch, 9203 bytes, 10 tensors)

input_layer.weight f4 [20, 3]
0	0x409eda0b	4.9641166
1	0xbc6c281e	-0.014413862
2	0xbc519919	-0.012792849
3	0x4078063a	3.87538
4	0xbd124029	-0.03570572
5	0x3d2224be	0.03958582
6	0x3fd945fd	1.6974484
7	0x4042baac	3.0426435
8	0x3c2c8dea	0.010531882
9	0xbe93ef3a	-0.28893453
10	0xbdabad14	-0.083826214
11	0x3de416d6	0.11137168
12	0x3f7c957b	0.9866559
13	0x3eea4e15	0.45762697
14	0xbc81451a	-0.01578002
15	0x3f0e3158	0.5554404
16	0x3cf6208d	0.030044818
17	0x3c906716	0.01762728
18	0xc0afca4e	-5.4934454
19	0x3f860c4f	1.0472506
20	0xbf8169fc	-1.0110469
21	0xc037fbe4	-2.8747492
22	0xbf2e1b86	-0.6801075
23	0x3f951010	1.1645527
24	0xbf25fe87	-0.648415
25	0xc03ee0b3	-2.9824646
26	0xbf68fba4	-0.91008973
27	0xc025b79e	-2.589332
28	0x3e0c6e8d	0.13714047
29	0xbeae22e7	-0.34011003
30	0x3ebf9b84	0.37423337
31	0xbf5ffe83	-0.8749773
32	0x3f3b97a5	0.73278266
33	0x40c936c6	6.287936
34	0xbf906e1e	-1.1283605
35	0x40039bd2	2.0563855
36	0x3f5e10db	0.8674447
37	0x3f25ab8b	0.6471488
38	0x3fbf46c0	1.4943466
39	0xbdea1984	-0.11430648
40	0xbc030e6c	-0.007999044
41	0xbd02ae0f	-0.031904276
42	0x3f1874dd	0.5955332
43	0x3f88e7d4	1.0695748
44	0x3f9b5282	1.2134554
45	0x3ddca9fd	0.1077461
46	0xbd2286a0	-0.03967917
47	0x3e89da1b	0.26924214
48	0x3f4d92d7	0.80302185
49	0xbe94e206	-0.29078692
50	0xbda01d40	-0.07818079
51	0xc05cc6ab	-3.4496257
52	0xbf0add5b	-0.5424401
53	0x3eebe86c	0.4607576
54	0x3f25f2ca	0.6482359
55	0x3f4621f9	0.7739559
56	0x3fa65504	1.2994695
57	0x3fdae066	1.7099731
58	0x3fd62126	1.6728866
59	0xbfd12976	-1.6340778

input_layer.bias f4 [20]
0	0x3fcddfe3	1.608395
1	0x3d387efc	0.045042977
2	0x3f027c81	0.5097123
3	0x3e8118b1	0.2521415
4	0x3fa8b1a5	1.3179213
5	0x3f82f16a	1.0229924
6	0x40054ed9	2.0829375
7	0x3d6d01c6	0.05786302
8	0xbf69abd0	-0.9127779
9	0xbfac9af3	-1.3484787
10	0x3f529f1e	0.82274044
11	0xbf8ebfbd	-1.1152264
12	0x3edc88bd	0.43073073
13	0x4022305a	2.5342011
14	0xbf34b7b2	-0.70592797
15	0x3ef01494	0.468907
16	0xbee0531e	-0.43813413
17	0xbf8f01fc	-1.117248
18	0x3f5d3e60	0.864233
19	0x3ca23940	0.01980269

hidden_layers.0.weight f4 [20, 20]
0	0x3f5c8423	0.86139125
1	0x3eaf88f0	0.34284163
2	0x3bfa55be	0.007639616
3	0x3f0947a0	0.53624916
4	0x3f90f157	1.1323651
5	0x3f7aac96	0.97919595
6	0xbdae7531	-0.08518446
7	0x3db1f77c	0.08689782
8	0xbfb45a14	-1.408999
9	0xbf3c31f1	-0.73513705
10	0xbe79c64f	-0.24392055
11	0x3f22e3c7	0.6362881
12	0x3fc52078	1.5400534
13	0xbeccfd56	-0.4003703
14	0x3e98493c	0.29743373
15	0xbdfb5c05	-0.12273411
16	0xbe97c503	-0.29642496
17	0xbf15e96b	-0.5855929
18	0x3fa48a26	1.285466
19	0x3f0c083f	0.5470008
20	0xbf7ca6a3	-0.9869177
21	0xbf823a6a	-1.0174077
22	0x3ef4d063	0.47815236
23	0x3e807cc0	0.25095177
24	0xbe647a7d	-0.2231235
25	0xbfbcfc99	-1.4764587
26	0x3f600a5d	0.87515813
27	0x3f755275	0.95828944
28	0x3e9ed168	0.3101914
29	0x3fac9643	1.3483356
30	0xbedc1894	-0.42987502
31	0xbf48b567	-0.784018
32	0xbe13f40d	-0.14448567
33	0x3f448fea	0.76782095
34	0xbf898918	-1.0744963
35	0x3ebca336	0.3684327
36	0x3e9c9671	0.30583528
37	0x3d7d9810	0.061912596
38	0xbf437f96	-0.76366556
39	0x3ec879fe	0.39155573
40	0x3fbf6542	1.4952776
41	0x3fa07012	1.2534201
42	0xbe2fe9a0	-0.17178965
43	0xbec7399e	-0.38911146
44	0xbccae209	-0.024765985
45	0xbe6d1760	-0.23153448
46	0xc04807f4	-3.1254854
47	0xc0a51974	-5.159357
48	0xbf68d9a0	-0.9095707
49	0x3dc1a08d	0.09454451
50	0x3ff58e27	1.9184006
51	0x3fa07005	1.2534186
52	0x3e442609	0.19155134
53	0xc0391e9a	-2.8924928
54	0xbf07df42	-0.5307504
55	0xbebaf025	-0.3651134
56	0x3db1fe80	0.0869112
57	0xc0701cc6	-3.7517562
58	0xbe981920	-0.2970667
59	0xbf0b336e	-0.5437535
60	0xbefc6ff5	-0.49304166
61	0xbf568275	-0.8379281
62	0xbff7770e	-1.9333208
63	0x3dd10bb4	0.1020731
64	0xbf846d56	-1.0345867
65	0xbe2a8e5c	-0.16655868
66	0x3ec48ecb	0.38390192
67	0x3f2d0085	0.6757892
68	0x3f92f70e	1.1481645
69	0x3f17bfd5	0.5927709
70	0x3d90d7a0	0.07072377
71	0xbf65d798	-0.89782095
72	0xbf85f420	-1.0465126
73	0x3f40e9f9	0.75357014
74	0xbf3d2958	-0.7389121
75	0x3ebed075	0.37268415
76	0x3f058ffc	0.5217283
77	0x3f1cac0a	0.6120001
78	0xbea8c7cc	-0.32964933
79	0xbf5f947d	-0.8733595
80	0x3f021bc2	0.50823605
81	0xbe942642	-0.28935438
82	0xbffe9a5a	-1.9890854
83	0x3f28b922	0.6590749
84	0xbeee1cb7	-0.46506283
85	0x3b307059	0.0026922433
86	0x3ee606ad	0.44926968
87	0xc01002ee	-2.2501788
88	0x3f53ec9e	0.82782924
89	0x3e8ecacc	0.27889097
90	0xbe734c9f	-0.23759697
91	0xbf5a27f9	-0.85217243
92	0xbeb98c4e	-0.36239856
93	0xbf54e58b	-0.83162755
94	0x3e83e1ae	0.25758117
95	0x3f2b5d7a	0.6693951
96	0x40058664	2.0863276
97	0xbe43d06a	-0.19122472
98	0xbdeb8eb8	-0.11501831
99	0xbe0fa316	-0.14027056
100	0x3fd0a7de	1.6301229
101	0x3fbf5230	1.4946957
102	0xbf13329f	-0.57499117
103	0xbf924379	-1.1426841
104	0x3f12df3a	0.57371867
105	0x3e1f1b24	0.15537697
106	0xbf989cf4	-1.1922898
107	0x3ec03646	0.37541407
108	0xbde7c7e4	-0.11317423
109	0xc00a20cd	-2.158252
110	0x3ee9523b	0.4557055
111	0x3f812719	1.0090057
112	0x3f3338d8	0.7000861
113	0xbf96e6de	-1.1789205
114	0xbccb7ad3	-0.02483884
115	0xbf3a1904	-0.7269442
116	0x3e82ea3a	0.25569326
117	0xbe03d212	-0.12873104
118	0x3f3bafab	0.73314923
119	0xbec2e400	-0.38064575
120	0x3eef4a53	0.46736392
121	0x3e9eaf96	0.30993336
122	0x3f02fe5e	0.51169384
123	0xbe8d3254	-0.2757746
124	0x3f280124	0.6562674
125	0xbe30c4f6	-0.17262635
126	0x3ffe5b1f	1.9871558
127	0xbee789e2	-0.45222384
128	0xbf061db9	-0.52389103
129	0x3d171641	0.036886457
130	0xbf96fd1b	-1.1795992
131	0x3e802f91	0.2503629
132	0x3ec54857	0.38531753
133	0x400afea0	2.171791
134	0x3e892c18	0.26791453
135	0xbe6fc065	-0.23413236
136	0x3f1e1ad5	0.6175969
137	0xbf9d395f	-1.2283133
138	0x3ee64a0b	0.44978365
139	0xbefa975d	-0.48943606
140	0x3f0d35f4	0.5516045
141	0x3f5c752d	0.86116296
142	0x3e9ca4a7	0.3059437
143	0xbf49f796	-0.7889341
144	0x3f99903e	1.1997144
145	0x3f1bd256	0.6086782
146	0xbfb770f7	-1.4331349
147	0x3e0633b7	0.13105665
148	0xbfb96778	-1.4484701
149	0xc009c03e	-2.1523585
150	0x3fd6ccd8	1.6781263
151	0xbd7e0ac6	-0.062021993
152	0x3f0e0b27	0.5548577
153	0xbed341f7	-0.41261265
154	0x3f906983	1.12822
155	0xbe7e00ae	-0.24804947
156	0xbbf47c9a	-0.0074611427
157	0xbf453d0c	-0.77046275
158	0x3fbb2d5c	1.4623218
159	0xbf1ae472	-0.6050483
160	0xbfd980a3	-1.6992382
161	0xbf262f74	-0.6491616
162	0x401e1245	2.469865
163	0x403d4404	2.9572763
164	0xbfc1bffc	-1.5136714
165	0xbfb46259	-1.4092513
166	0x4003a433	2.056897
167	0x3907326f	0.00012893391
168	0x3f2171db	0.63064355
169	0x3c15a4d5	0.009133537
170	0xbf6561f7	-0.8960261
171	0x3e2f0d0b	0.17094819
172	0xbf34b857	-0.7059378
173	0x3ffce538	1.9757452
174	0xbef147a8	-0.47124982
175	0x4039087b	2.8911426
176	0xbfea6036	-1.8310611
177	0x3f9d2da1	1.227955
178	0xbfb13e18	-1.3847075
179	0xbe4142db	-0.1887316
180	0xbf8a155a	-1.0787766
181	0xbfe48720	-1.7853737
182	0xbb3a0ff8	-0.0028390866
183	0x3dd0bdd2	0.10192455
184	0xbfd29e1e	-1.6454504
185	0xbf4199c1	-0.75625235
186	0x3f6a5589	0.91536766
187	0xbf42d533	-0.76106566
188	0x3f9fceb8	1.248496
189	0x3ff6c4f6	1.9278858
190	0xbf4c772f	-0.7986936
191	0xbf674fe2	-0.90356266
192	0xbfd9a16d	-1.7002388
193	0x3f987e74	1.191359
194	0xbfdf2624	-1.7433515
195	0x3e107aaf	0.141093
196	0x3ee60856	0.44928235
197	0x3f7c9347	0.9866223
198	0xbf8c7620	-1.0973549
199	0x3ec2aad0	0.38020945
200	0x3f9dc12a	1.2324574
201	0x3e4e791d	0.20163389
202	0xbe4e9bfe	-0.20176694
203	0xbf327b69	-0.6971956
204	0x3f43b605	0.76449615
205	0x3f23ff45	0.64061385
206	0xbf1ad8a8	-0.6048684
207	0xbf106f4f	-0.56419843
208	0xbf554917	-0.8331465
209	0xbf997d73	-1.1991409
210	0x3ef92f48	0.48668885
211	0xbd6a9bd3	-0.05727751
212	0x3f5d56b4	0.86460423
213	0xbd4978d1	-0.049187485
214	0x3f8f5897	1.119891
215	0xbf3217cd	-0.6956757
216	0x3d92e6bb	0.071729146
217	0xbf1c7258	-0.61111975
218	0x3f832743	1.0246357
219	0x3ec65891	0.38739446
220	0xbda89a39	-0.08232541
221	0xbf859b79	-1.0438071
222	0xbfc31221	-1.5239908
223	0xbea5af67	-0.32360384
224	0xbf56ab59	-0.83855206
225	0x3e878cbd	0.26474562
226	0x3da40c83	0.08010199
227	0x3e6e69b5	0.23282512
228	0x3f860546	1.0470359
229	0x3eba1f17	0.36351845
230	0xbf63526a	-0.8879763
231	0xbf3971db	-0.72439355
232	0xbfad5b9a	-1.354358
233	0xbe85f2a3	-0.2616168
234	0xbe9f446f	-0.31106898
235	0x3dcb3096	0.099213764
236	0x3e31a122	0.17346624
237	0x3f973f6f	1.1816233
238	0xbf5aa6b9	-0.8541065
239	0xbe9c8de9	-0.3057702
240	0x3ed29f3c	0.4113711
241	0xbf14f295	-0.5818265
242	0x3ef5d27c	0.4801215
243	0x3fe24498	1.7677183
244	0x3e825f1a	0.25463182
245	0xbf3ffb7d	-0.74993116
246	0xbe8b689d	-0.2722825
247	0xc012a526	-2.2913299
248	0xbf2f9ed6	-0.6860174
249	0xbf0fd1ae	-0.5617932
250	0xbfbd8954	-1.4807534
251	0x3d506380	0.05087614
252	0x3e6ac386	0.22926149
253	0x3f29f50b	0.6638953
254	0x3fb792f4	1.4341722
255	0x3ebe5ba0	0.3717928

hidden_layers.0.bias f4 [20]
0	0x3fbcb48e	1.4742601
1	0xbf45604f	-0.7710008
2	0x3ef0cd7c	0.47031772
3	0xbf4a5888	-0.7904134
4	0xbe7ee016	-0.2489017
5	0x3c57b1dc	0.013164964
6	0x3f898e92	1.0746634
7	0x3fc2c734	1.5217042
8	0xbf6e9b06	-0.93205297
9	0xbf87ae18	-1.0600004
10	0x3f9b22cd	1.2119995
11	0x3cf19630	0.02949056
12	0xbd7d7dc4	-0.061887518
13	0xbef3ae18	-0.4759376
14	0xbe8a6472	-0.2702976
15	0x3f42fdd6	0.7616857
16	0xbee9d077	-0.4566686
17	0xbf4d8672	-0.8028327
18	0x3f87b7a7	1.0602921
19	0x3ed8d916	0.42353123

hidden_layers.1.weight f4 [20, 20]
0	0xbeb0a480	-0.34500504
1	0xbf24763d	-0.6424292
2	0xbf075c07	-0.528748
3	0x3f167e39	0.5878635
4	0xbef8cd8a	-0.48594314
5	0xbeb8a7ae	-0.3606543
6	0x3f82b36a	1.0211003
7	0xbfb740e7	-1.4316682
8	0xbf2e5adc	-0.6810739
9	0xba176b1a	-0.0005776152
10	0xbe0d2751	-0.1378453
11	0x3e98824d	0.29786912
12	0x3e81bc95	0.2533919
13	0x3ed1d8d0	0.40985727
14	0xbc81878f	-0.01581171
15	0xbf626fc1	-0.8845177
16	0xbf6ae7a5	-0.9175971
17	0xbf5ec227	-0.87015
18	0x3e569d35	0.20958407
19	0xbf9f8594	-1.246264
20	0xbfde6596	-1.7374752
21	0x3fbcf92b	1.476354
22	0xc01e5c1a	-2.4743714
23	0xbc804ada	-0.015660692
24	0xbface6ab	-1.3507894
25	0xc024a721	-2.5727007
26	0x3e61c593	0.22048025
27	0x3fddef96	1.7338741
28	0x3f8afb9a	1.0858033
29	0xbfb3c4c9	-1.4044429
30	0xbf87d93d	-1.0613171
31	0xbfc514f0	-1.5397015
32	0xbfaded1b	-1.3587984
33	0xc05079d1	-3.257435
34	0x3e45ec70	0.19328475
35	0xbf133653	-0.5750477
36	0xbf35e67b	-0.7105481
37	0x3fdc4561	1.7208673
38	0x3f67f2ae	0.90604675
39	0x4012a313	2.2912033
40	0x3f262bcd	0.64910585
41	0xbf0e9128	-0.5569024
42	0x3df9e6ae	0.12202202
43	0xbdd88957	-0.105730705
44	0x3f3a4793	0.72765464
45	0x3fbf15f6	1.4928577
46	0xbf371008	-0.71508837
47	0xbea8afd0	-0.32946634
48	0x3f1cc51b	0.6123826
49	0xbf700929	-0.9376398
50	0x3f83cb80	1.0296478
51	0xbf045e67	-0.51706547
52	0xbd59c6c0	-0.05316806
53	0xbda1c515	-0.078989185
54	0xbf8e9d44	-1.1141744
55	0x3ee007b7	0.43755886
56	0x3f580c6b	0.8439395
57	0x3ebca663	0.36845693
58	0x3e1f687e	0.15567204
59	0x3f079f34	0.529773
60	0xbfa31741	-1.2741472
61	0x3fef7fa7	1.8710831
62	0xbfa3e2a1	-1.2803537
63	0x3f180c55	0.5939382
64	0x3f46acf7	0.77607673
65	0xbff78bdf	-1.933956
66	0xbf5b0b5d	-0.85564214
67	0xbf14d634	-0.5813935
68	0xbc848db8	-0.016180858
69	0x3efcc975	0.4937245
70	0xbf950da0	-1.1644783
71	0xbd899c92	-0.067193165
72	0xbf4acaf6	-0.79215944
73	0xbd85e4fd	-0.06537817
74	0xbe9cefb8	-0.3065164
75	0xbf341bdc	-0.7035501
76	0xbfec3974	-1.8455033
77	0x3f1f3c67	0.6220154
78	0xbfa61cb1	-1.2977506
79	0x3ed3529e	0.4127397
80	0x3ec815d0	0.39079142
81	0xbd8a33e7	-0.06748181
82	0x3ea9e287	0.3318064
83	0xbe357e57	-0.17723976
84	0xbe98e49d	-0.29861918
85	0x3f162f2b	0.5866572
86	0x3e931fd5	0.28735223
87	0x3f643b5f	0.89153093
88	0x3f077a63	0.5292112
89	0xbf7612a1	-0.96122175
90	0x3f2bd353	0.6711933
91	0xbf52fd1c	-0.82417464
92	0xbef48585	-0.47758117
93	0x3e3901d3	0.18067102
94	0x3e98e274	0.2986027
95	0x3f85ab62	1.0442927
96	0x3fa3bd21	1.2792093
97	0xbd773556	-0.0603536
98	0x3f8961f6	1.073302
99	0xbf0a278f	-0.5396661
100	0x3db71d0c	0.08941087
101	0x3fa80d9f	1.3129157
102	0x3f21d44d	0.6321457
103	0x3ebddfaa	0.37084705
104	0x3ef77d1a	0.48337632
105	0xbefbb8bb	-0.49164376
106	0xbf9e6da4	-1.237721
107	0x3d224546	0.039616846
108	0xbf9049ad	-1.1272484
109	0x3f07f22e	0.5310391
110	0xbea29aab	-0.31758627
111	0xbebd5b6a	-0.36983806
112	0x3dab9193	0.083773755
113	0x3f2dd8b0	0.67908764
114	0x3fcb19ae	1.5867212
115	0x3ee8e37d	0.4548606
116	0xbe843bc1	-0.2582684
117	0x3f7f73ee	0.9978627
118	0xbf235db1	-0.63814837
119	0xbe2cd3b7	-0.16877638
120	0x3f443010	0.7663584
121	0xc01d236d	-2.4552872
122	0x3f840afa	1.031585
123	0x3ead7510	0.33878374
124	0x3f1252ee	0.5715779
125	0x3f1f0fb4	0.62133336
126	0xbf03aaf0	-0.51432705
127	0xbd40cbd6	-0.047069393
128	0xbf40d531	-0.75325304
129	0x3dc606ab	0.096692406
130	0x3e82000c	0.2539066
131	0x3e9f4447	0.3110678
132	0x3fd7121d	1.6802403
133	0xbe8dc337	-0.27688
134	0xbf5321c5	-0.82473403
135	0x3e3815f8	0.1797713
136	0x3e75ac00	0.23991394
137	0xbfc7b9eb	-1.5603613
138	0x3f5d1888	0.86365557
139	0x3f52adbc	0.8229635
140	0xbf53197b	-0.82460755
141	0x3f4e4bea	0.80584586
142	0xbf9a422e	-1.2051446
143	0x3edeea4b	0.43538126
144	0xbea3935a	-0.31948358
145	0xbf97d994	-1.1863275
146	0xbf10b68f	-0.5652856
147	0xbe0c48a7	-0.1369959
148	0x3d38c695	0.045111258
149	0x3f2aa5d2	0.6665927
150	0xbe7f4dc0	-0.24932003
151	0xbe9caac2	-0.30599028
152	0xbf60aa78	-0.87760115
153	0x3e2237b4	0.15841562
154	0xbde64b05	-0.112447776
155	0xbe8e7af7	-0.2782819
156	0xbef24ddf	-0.47325036
157	0xbd2ef75f	-0.04271638
158	0xbea491e0	-0.32142544
159	0x3e201e8b	0.15636651
160	0xbf5a276b	-0.852164
161	0x3f2d1c9d	0.67621785
162	0xbf994f68	-1.1977358
163	0x3ec423f6	0.38308686
164	0xbe6b770b	-0.2299463
165	0xbf782553	-0.9693195
166	0xbece97f5	-0.4035031
167	0x3e4f989d	0.20273061
168	0xbe1c8644	-0.15285593
169	0x3ec69ab7	0.38789913
170	0xbf9198e2	-1.1374781
171	0xbc7cf120	-0.015438348
172	0xbeb91c0d	-0.36154214
173	0xbd17dac4	-0.037073866
174	0x3e999e2a	0.30003482
175	0xbf072b23	-0.52800196
176	0xbfbae749	-1.4601833
177	0xbe6ccf52	-0.23125961
178	0xbf182ccd	-0.5944336
179	0xbee0d4d1	-0.43912366
180	0x3fc7a8b7	1.5598363
181	0xbf2676b5	-0.6502488
182	0x3fac2365	1.3448302
183	0x3f1dfc1c	0.61712813
184	0x3f467544	0.77522683
185	0x3f22c139	0.63576084
186	0x3f669161	0.9006558
187	0xbeb7ae2e	-0.35875076
188	0xbf16e251	-0.5893908
189	0x3ee5c323	0.4487544
190	0x3ff02516	1.8761318
191	0xbf277f1a	-0.65428317
192	0x3d2bd650	0.04195243
193	0x3f29667a	0.6617199
194	0xbedb6249	-0.42848423
195	0x3f1d3ea2	0.61423695
196	0x3f96a636	1.1769474
197	0x3ed391a8	0.41322064
198	0xbe3bd71d	-0.18343778
199	0xbebbe638	-0.3669908
200	0xbfb5327e	-1.4156034
201	0x3fc8b4eb	1.5680212
202	0xbf87942f	-1.0592097
203	0x3fb217ba	1.3913491
204	0xbdca0f06	-0.09866147
205	0xbf7df980	-0.9920883
206	0xbf99d1fc	-1.2017207
207	0x4000a8b3	2.0102966
208	0xbd6f5751	-0.05843288
209	0xbd54121f	-0.051775094
210	0xbf67dcb2	-0.9057113
211	0xbf3e33ba	-0.7429768
212	0x3ea2f735	0.3182923
213	0xbf496d17	-0.7868208
214	0xbe8edf0e	-0.27904552
215	0x3d697b48	0.057002336
216	0xbebe43d9	-0.3716114
217	0x3f93b46e	1.1539438
218	0x3f6c498a	0.9229971
219	0x3edd24b9	0.4319208
220	0x3f5faab4	0.8736985
221	0xbeb79879	-0.35858515
222	0xbe5cb196	-0.21552119
223	0x3d24bd6e	0.040219717
224	0x3d9e02c3	0.077153705
225	0x3fa3482f	1.2756404
226	0x3e058853	0.13040285
227	0xbdbe8c9e	-0.09304164
228	0x3efd9f20	0.49535465
229	0xbf12d8f3	-0.5736229
230	0x3f5b7e18	0.8573928
231	0xbd24366d	-0.040090967
232	0xbf406a75	-0.7516244
233	0x3ea3df43	0.32006273
234	0xbea8434c	-0.32863843
235	0x3e127054	0.14300662
236	0x3f81f355	1.0152384
237	0x3f516e7f	0.8180923
238	0x3d652f6d	0.055953432
239	0x3ef3e090	0.47632265
240	0x3d8d9c80	0.06914616
241	0xbdfbb4d3	-0.12290349
242	0xbfcdd73c	-1.6081309
243	0xbc99b6f5	-0.018763999
244	0x3f0d9c45	0.55316573
245	0xbf0e5009	-0.55590874
246	0x3f5a89ec	0.853667
247	0xbf88c4c0	-1.0685043
248	0x3f7db955	0.9911092
249	0x3eb18449	0.34671238
250	0xbf28f6cc	-0.6600158
251	0x3febea87	1.8430947
252	0xbdba4eb7	-0.09097045
253	0xbe14ef61	-0.14544441
254	0xbef11a65	-0.4709045
255	0xbe5ea80f	-0.21743797

hidden_layers.1.bias f4 [20]
0	0x3da7a707	0.08186155
1	0xbfda81a3	-1.7070812
2	0x3ecaa053	0.39575443
3	0xbfb516f1	-1.4147626
4	0x3f3fea6b	0.7496707
5	0xbf10789b	-0.5643403
6	0x3f18d54b	0.5970046
7	0xbf51a91e	-0.8189868
8	0xbf3ae66f	-0.73007864
9	0x3f8eb71e	1.1149633
10	0xbfb87c6e	-1.4412973
11	0x3e94c849	0.29059055
12	0xbd887b7a	-0.06664176
13	0x3f9c986a	1.2234013
14	0xbf40bc71	-0.7528754
15	0xbfcc418b	-1.5957502
16	0xbe66dbd7	-0.225448
17	0xbeb703ba	-0.3574503
18	0x3e9e2571	0.3088794
19	0x3f33af29	0.7018915

hidden_layers.2.weight f4 [20, 20]
0	0xbd8fcdfb	-0.070217095
1	0xbf0c4332	-0.5479003
2	0xbdc0a215	-0.09405915
3	0xbe324058	-0.17407358
4	0xbee1bf57	-0.44091293
5	0x3fc49679	1.5358421
6	0xbe9eb803	-0.30999765
7	0x3f479b17	0.77971023
8	0x3f65f03a	0.8981968
9	0xbf0d8f41	-0.55296713
10	0x3e17f8c4	0.1484099
11	0x3eb1d0d3	0.34729633
12	0xbf757a99	-0.95890194
13	0xbef4e9ae	-0.47834533
14	0x3f031e76	0.51218355
15	0x3edae41b	0.42752156
16	0x3fb5153c	1.4147105
17	0x3f3db23e	0.741001
18	0x3e20e069	0.15710606
19	0xbf03e2b8	-0.5151782
20	0x3ef95d6a	0.48704082
21	0x3f595bdc	0.8490579
22	0xbe49c164	-0.19702679
23	0xbd819116	-0.06326501
24	0x3f35fa66	0.710852
25	0x3fa41516	1.2818935
26	0xbf875ba6	-1.0574844
27	0x3dd1188c	0.1020976
28	0x3ee9a547	0.4563391
29	0xbdd7349c	-0.10508081
30	0x3f31a19e	0.69387233
31	0xbf75c9fe	-0.9601134
32	0xbe05adfe	-0.13054654
33	0xbf1728c0	-0.59046555
34	0x3e9a5329	0.3014157
35	0xbef3128b	-0.47475085
36	0x3fbdf81e	1.4841344
37	0xbd16452e	-0.03668707
38	0x3f1c29d7	0.6100134
39	0xbe5dca11	-0.21659113
40	0x3ec2c611	0.38041738
41	0x3eb2261a	0.34794694
42	0xbc251cde	-0.010077683
43	0x3d4d383f	0.05010247
44	0xbf7c127e	-0.98465717
45	0x3f5d3be7	0.8641953
46	0xbd63b8a0	-0.055595994
47	0x3f1c8d2f	0.6115293
48	0x3e3ecf70	0.18633819
49	0xbfd9b711	-1.7008992
50	0x3e2eb041	0.17059423
51	0xbe65c53b	-0.22438519
52	0x3db477e6	0.08811931
53	0xbe867194	-0.26258528
54	0x3d3a1b43	0.045436155
55	0x3f7611e5	0.96121055
56	0xbed5abe1	-0.41732696
57	0x3fa08d9a	1.2543213
58	0x3eb3b00e	0.35095257
59	0xbf5c1e4f	-0.8598375
60	0x402c59cb	2.6929805
61	0xbf2941a3	-0.6611578
62	0xbfbcc4ff	-1.4747618
63	0xbd13deb4	-0.036101058
64	0xbeb800d0	-0.3593812
65	0x3fa343bc	1.2755046
66	0xbf087b2e	-0.5331296
67	0x3efdb8cc	0.4955505
68	0x3f016ccb	0.5055663
69	0xbd3c126c	-0.045916006
70	0x4037cfea	2.872065
71	0xbfad6c34	-1.3548646
72	0xc014093f	-2.3130643
73	0xbf00286a	-0.50061667
74	0x3e9323b3	0.28738174
75	0x3fa62799	1.2980834
76	0x3ed9e43b	0.4255694
77	0x3fcd09cb	1.6018614
78	0x3fa8fc05	1.320191
79	0xbf6c699a	-0.92348635
80	0xbbebafea	-0.0071926014
81	0xbeb52c5f	-0.35385415
82	0x3f01b199	0.5066162
83	0xbf77e3c5	-0.96831924
84	0x3f203938	0.6258731
85	0xbec2dfaf	-0.38061282
86	0xbe352532	-0.1768997
87	0xbf9b9ade	-1.2156637
88	0xbfa10368	-1.2579165
89	0x3f8f95a3	1.121754
90	0xbf2368bc	-0.63831687
91	0x3f1ca92c	0.61195636
92	0x3eca1077	0.39465687
93	0xbebef813	-0.3729864
94	0xbe9d25e1	-0.30692962
95	0xbfa7383e	-1.3064039
96	0xbf8b91cc	-1.0903869
97	0xbf922b5f	-1.1419486
98	0xbb0e4804	-0.0021710405
99	0x3f0cc736	0.5499147
100	0xbf4e12f3	-0.80497664
101	0xbec7d546	-0.39029902
102	0xbf4a5fe6	-0.7905258
103	0x3f9b5185	1.2134253
104	0x3d9dd4f1	0.07706631
105	0x3fa57060	1.2924919
106	0xbf202140	-0.62550735
107	0x3e9ee297	0.3103225
108	0x3f8957e5	1.0729948
109	0xbed15b4a	-0.4088996
110	0x3f633728	0.88756037
111	0xbe0e919e	-0.13922736
112	0xbfff8b7c	-1.9964442
113	0xbf1a04f6	-0.6016382
114	0x3d9ada7c	0.07561204
115	0xbfb9fc4b	-1.4530119
116	0x3f3c9dce	0.7367829
117	0x3f880ce1	1.062893
118	0xbef76ded	-0.48326054
119	0xbe9fd81f	-0.31219575
120	0x3f731bd3	0.9496433
121	0x3e8ab51f	0.2709131
122	0xbe017c55	-0.12645085
123	0x3fbbaed2	1.4662726
124	0xbf23cf19	-0.6398788
125	0x3eab4044	0.33447468
126	0xbe1c7ba0	-0.15281534
127	0x3f5383f1	0.826232
128	0x3f164db1	0.587123
129	0xbe9c7b31	-0.30562738
130	0x3ee985c8	0.4560988
131	0xbdf8af05	-0.12142757
132	0xbf67e052	-0.9057666
133	0xbf31cc52	-0.69452393
134	0x3e283fe0	0.16430616
135	0x3e8c6b06	0.27425402
136	0x3e3a17d1	0.18173148
137	0x3eb9a0c5	0.3625547
138	0x3f2dd858	0.6790824
139	0xbee0bff9	-0.43896464
140	0xbf67609a	-0.9038178
141	0xbee60558	-0.44925952
142	0xbfe505b9	-1.7892371
143	0x3dd12c7c	0.10213563
144	0xbff9b229	-1.9507495
145	0x3fc1d017	1.5141629
146	0xbf806f04	-1.0033879
147	0x3f69e6ac	0.913676
148	0x3fdc64ff	1.7218322
149	0x3f88944f	1.067026
150	0x3ee13d85	0.43992248
151	0xbf5bfbac	-0.85930896
152	0x3f3a86c7	0.72861904
153	0x4096a6af	4.707847
154	0x403deee8	2.9677067
155	0x4000b4c2	2.0110326
156	0x3fe348ab	1.7756552
157	0x3fdeed3c	1.7416148
158	0xc01d003c	-2.4531393
159	0xbf7668ac	-0.96253467
160	0xbfe241b8	-1.7676306
161	0x3e0df9c1	0.13864805
162	0x3fe9aad0	1.8255253
163	0xbfad6cbb	-1.3548807
164	0xbe0f22b6	-0.13978085
165	0xc000903c	-2.0088034
166	0x40248ae0	2.5709763
167	0xbfe2a179	-1.7705528
168	0xbfe981a1	-1.8242685
169	0x3f902dc3	1.1263965
170	0xbfe2bb3f	-1.7713393
171	0x3faa2132	1.329138
172	0x3fe1be81	1.7636262
173	0x3eb273e7	0.3485405
174	0xbf521795	-0.82067233
175	0xbf209f6f	-0.62743276
176	0xbfeb70c3	-1.8393787
177	0xc009bc45	-2.152116
178	0x3e41dc65	0.1893173
179	0x3fa0947c	1.2545314
180	0xbeb3cca9	-0.3511708
181	0xbf2558e5	-0.6458877
182	0xbdfee242	-0.12445499
183	0x3f097630	0.53695965
184	0xbf312748	-0.69200563
185	0xbdf3f80c	-0.119125456
186	0xbd6a8eda	-0.05726514
187	0x3f8d871b	1.1056856
188	0x3eaf3ad2	0.34224564
189	0xbf70410d	-0.9384926
190	0x3ee6927a	0.45033628
191	0xbea72e84	-0.32652676
192	0x3e3b2c4b	0.18278615
193	0x3fa34cca	1.2757809
194	0x3fb65bca	1.4246762
195	0x3fa1830f	1.2618121
196	0x3c78ab2f	0.015177532
197	0x3f003c0d	0.5009163
198	0xbde25975	-0.11052219
199	0xbf4e76a1	-0.80649763
200	0x3ed7dc69	0.42160347
201	0xbffc1622	-1.9694254
202	0x3e2246e3	0.15847354
203	0x405dc7a6	3.4653106
204	0xbfca3039	-1.5795966
205	0x3faaa9b2	1.3333037
206	0xbfaf64b5	-1.3702608
207	0x3f8bd409	1.0924083
208	0x3fba2e64	1.4545407
209	0xbfc74d60	-1.5570488
210	0x3f46f584	0.7771838
211	0xbf66c54a	-0.9014479
212	0xbe5a663b	-0.2132806
213	0x3f48aad6	0.78385675
214	0x3f9030e6	1.1264923
215	0x3f281c83	0.65668505
216	0x3e55f240	0.20893192
217	0x3eb0ff7f	0.34569928
218	0x3fa7e46d	1.3116585
219	0xbfaeff44	-1.3671651
220	0xbfb69520	-1.4264259
221	0x3fc96f67	1.5737122
222	0xbf90384b	-1.1267179
223	0x3f56e1dc	0.83938384
224	0xbdcae8f5	-0.09907714
225	0x3f0840b2	0.5322372
226	0x3bd55096	0.0065098507
227	0x3f64e220	0.8940754
228	0x3df6a606	0.12043385
229	0xbfdd4d84	-1.7289281
230	0xbf7768f6	-0.9664453
231	0xbe5534cb	-0.2082092
232	0xbe875abf	-0.2643642
233	0xbfca3e3b	-1.5800241
234	0x3ef171e1	0.47157195
235	0xbf0dd9e2	-0.5541059
236	0xbec818a8	-0.3908131
237	0x3ecd8aff	0.40145108
238	0x3fc09521	1.504551
239	0x3df0e2b3	0.117619894
240	0xbe772caf	-0.24138139
241	0xbf768798	-0.9630065
242	0xbf213282	-0.62967694
243	0x3fcbb59e	1.59148
244	0xbee7ea02	-0.4529572
245	0x3f0d73d1	0.55254847
246	0xbef21fc0	-0.47289848
247	0x3e8228ba	0.25421697
248	0x3dbeeb26	0.09322195
249	0xbda7ff3c	-0.08202979
250	0x3decc3ff	0.11560821
251	0xbe4837cd	-0.19552536
252	0x3fdc6700	1.7218933
253	0xbe97bcaf	-0.29636142
254	0x3e9c23d4	0.30496085
255	0xbe1e1bce	-0.15440294

hidden_layers.2.bias f4 [20]
0	0xbf677b65	-0.9042266
1	0xbf19ff57	-0.6015524
2	0xbec6f994	-0.38862288
3	0xbf3c2f79	-0.7350994
4	0x3f4044eb	0.7510516
5	0xbf82f97b	-1.0232385
6	0xbefcc6c1	-0.49370387
7	0xbfa5ae55	-1.2943827
8	0x3fbef158	1.4917402
9	0xbf1d70b6	-0.6150011
10	0xbfc12ddf	-1.5092124
11	0xbec95636	-0.39323586
12	0xbe8e3405	-0.27774063
13	0x3fb1157e	1.3834684
14	0x3f95949c	1.1685977
15	0xbf3b001e	-0.73047054
16	0xbebc35c7	-0.3675978
17	0xbf4d4815	-0.80188113
18	0x3f910243	1.1328815
19	0xbf945d57	-1.1590985

output_layer.weight f4 [5, 20]
0	0x3f5ce1d0	0.8628206
1	0x3f8f1eac	1.1181235
2	0x3f615417	0.88018936
3	0x404c7f8c	3.1952848
4	0x3f5c8fd1	0.86156946
5	0xbf883910	-1.0642414
6	0x3e49aace	0.19694063
7	0xbef6051f	-0.48050782
8	0xbefc60f2	-0.49292713
9	0xbcdf737d	-0.027276749
10	0xbf84197f	-1.0320281
11	0x3a1b8387	0.000593238
12	0xbe78bb08	-0.24290097
13	0xbfc1f9f1	-1.5154401
14	0x3f4c31e8	0.7976365
15	0xbfb602fe	-1.4219663
16	0x3e71776f	0.23580717
17	0xbf384700	-0.7198334
18	0x3dc2d1fa	0.09512706
19	0xbf2b1860	-0.6683407
20	0xbf17b43e	-0.592594
21	0x4068aff1	3.6357386
22	0xc02b065e	-2.6722636
23	0x3aa4983b	0.0012557575
24	0xbec55e73	-0.38548622
25	0xbeb3e8be	-0.35138506
26	0x3e6b5d84	0.22984892
27	0x3fc8b8be	1.5681379
28	0x3fd453a8	1.658803
29	0x3f63b4df	0.8894786
30	0x3feab0a8	1.8335161
31	0xbb8b2301	-0.004246116
32	0x3e13895d	0.14407869
33	0x4018ca5e	2.3873515
34	0x3ec9cf74	0.39416087
35	0xbeb25dda	-0.34837228
36	0xbec450b6	-0.38342828
37	0xbeaf3d66	-0.3422653
38	0xbfa4af5d	-1.2866017
39	0xbfa192fb	-1.262298
40	0x3efd500b	0.4947513
41	0xbf05eabb	-0.52311295
42	0xbf93c30d	-1.15439
43	0x3e8cdca2	0.2751208
44	0xbf967bd6	-1.1756542
45	0x3f07c756	0.5303854
46	0x3eb7f9d8	0.35932803
47	0xbef6f2c6	-0.48232096
48	0x3f859e05	1.0438849
49	0x3f6600a2	0.89844716
50	0xc00f0032	-2.234387
51	0xbbda546a	-0.006662895
52	0x3f06931a	0.5256821
53	0x3f219d78	0.63130903
54	0x3df340b0	0.118775725
55	0x3ee12c8f	0.43979308
56	0xbf73b9ec	-0.9520557
57	0x3e99ea33	0.30061492
58	0x3d6c6d37	0.057721343
59	0xbf11bda3	-0.5692999
60	0x3f3a2a73	0.7272102
61	0xbeec6e94	-0.46178114
62	0xbeb1b70e	-0.34709972
63	0xbfe0fe93	-1.757769
64	0xbf73c9a5	-0.9522956
65	0x3cbbe8b6	0.022938114
66	0x3e695745	0.22787197
67	0x3f451a66	0.76993406
68	0x3f42a82e	0.7603787
69	0x3f005461	0.5012875
70	0x3f1fcb81	0.624199
71	0xbfe0f26b	-1.757398
72	0x3f837de8	1.0272799
73	0x3db39c52	0.0877005
74	0xbf33a77b	-0.7017743
75	0x3f5efffd	0.8710936
76	0xbeaa7c50	-0.33297968
77	0x3f4b04f1	0.79304415
78	0xbe32e352	-0.17469528
79	0xc0416867	-3.0219972
80	0x3eaa3cf6	0.33249635
81	0x3f78a7b2	0.9713088
82	0xbf2ce9fe	-0.67544544
83	0xc039fc56	-2.9060264
84	0xbf864555	-1.0489908
85	0x3f25811c	0.6465013
86	0xbea3d8f8	-0.32001472
87	0x3f428d20	0.7599659
88	0xbf00339c	-0.5007875
89	0x3f9d6988	1.229783
90	0xbe87f2b8	-0.26552367
91	0xbfe5ffeb	-1.7968725
92	0x3f21809b	0.6308686
93	0x3ec5133d	0.3849124
94	0x3e2702db	0.16309683
95	0x3d0ffc90	0.03515297
96	0xbf41fc5c	-0.75775695
97	0x3fab874a	1.3400662
98	0xbe18c680	-0.14919472
99	0xc0125a85	-2.2867749

output_layer.bias f4 [5]
0	0x3f1d792d	0.61513025
1	0x3eb00c08	0.3438418
2	0xbf5ebc0a	-0.87005675
3	0xbeef6793	-0.46758708
4	0xbecab158	-0.39588428
