model/optimizer_update.pt (torch, 9203 bytes, 10 tensors)

input_layer.weight f4 [20, 3]
4.9642167 -0.014421322 -0.012780609 3.8754802 -0.035695862 0.03959533 1.6973768 3.0427437
0.010624962 -0.2888357 -0.08382952 0.11136894 0.986756 0.4577202 -0.01587914 0.55554056
0.030044012 0.01763041 -5.4935455 1.0472378 -1.0110598 -2.8748486 -0.680207 1.1644539
-0.6483757 -2.9823906 -0.9101014 -2.5894322 0.1370461 -0.340201 0.3743332 -0.8749759
0.73278373 6.2880325 -1.1282609 2.0564837 0.8673982 0.647244 1.4943584 -0.114406504
-0.0079928795 -0.031897735 0.59549564 1.0696338 1.2134674 0.10764637 -0.03958942 0.269164
0.8029219 -0.2908869 -0.07828078 -3.4497266 -0.5424007 0.4607991 0.6481966 0.7740447
1.2994813 1.709873 1.6729864 -1.6341732
00000000: ddda 9e40 6947 6cbc c265 51bc de07 7840
00000010: d335 12bd b62e 223d a543 d93f 50bc 4240
00000020: 5214 2e3c 46e2 93be d0ae abbd 6615 e43d
00000030: 0b9c 7c3f 4d5a ea3e f814 82bc e837 0e3f
00000040: dc1e f63c a66d 903c 20cb afc0 e30b 863f
00000050: 686a 81bf 85fd 37c0 0c22 2ebf d30c 953f
00000060: f3fb 25bf 7ddf 3ec0 68fc 68bf 42b9 25c0
00000070: d055 0c3e d32e aebe 9aa8 bf3e 6cfe 5fbf
00000080: b797 3b3f 9037 c940 da6a 90bf 6e9d 0340
00000090: cf0d 5e3f c8b1 253f 2347 bf3f f54d eabd
000000a0: 91f4 02bc 33a7 02bd 6772 183f c3e9 883f
000000b0: e652 9b3f b375 dc3d 8428 22bd ddcf 893e
000000c0: 4a8c 4d3f 21ef 94be ac51 a0bd 52c8 5cc0
000000d0: c6da 0abf dced eb3e 36f0 253f cb27 463f
000000e0: 6755 a63f 1edd da3f 6b24 d63f 962c d1bf

input_layer.bias f4 [20]
1.6084057 0.045050196 0.5097499 0.25213975 1.3178804 1.0229971 2.0829134 0.057875387
-0.9127662 -1.348517 0.8227416 -1.1151624 0.43071902 2.5342088 -0.70591635 0.4689582
-0.43807212 -1.1171751 0.86422133 0.019810311
00000000: 3de0 cd3f 8e86 383d f87e 023f 7618 813e
00000010: 4eb0 a83f 92f1 823f 744e 0540 be0e 6d3d
00000020: 0cab 69bf 349c acbf 329f 523f a4bd 8ebf
00000030: 3487 dc3e 7a30 2240 efb6 34bf 4a1b f03e
00000040: fd4a e0be 98ff 8ebf 9c3d 5d3f 3c49 a23c

hidden_layers.0.weight f4 [20, 20]
0.86135286 0.34281287 0.007626177 0.53621435 1.1323216 0.9791549 -0.085198015 0.086896636
-1.4089481 -0.7351023 -0.2439235 0.6362851 1.5399939 -0.40037525 0.2974358 -0.12274776
-0.29639983 -0.585561 1.2854166 0.54696447 -0.98685324 -1.0173281 0.4781738 0.2509724
-0.22310121 -1.4764462 0.8751806 0.9582697 0.31016964 1.3483425 -0.42989346 -0.78403854
-0.14446507 0.76784855 -1.0744787 0.3685324 0.30581397 0.06189034 -0.763644 0.39157662
1.4952563 1.2534317 -0.17180605 -0.3891252 -0.024782421 -0.23155057 -3.125471 -5.159372
-0.90955424 0.09455771 1.9183656 1.2534045 0.191535 -2.8925123 -0.53076655 -0.36512783
0.08692757 -3.7517474 -0.29708308 -0.5437388 -0.4930248 -0.8379072 -1.9332902 0.1020851
-1.0345669 -0.16654247 0.38391933 0.67580175 1.1481453 0.59275585 0.07073774 -0.8978081
-1.0464957 0.7535833 -0.738888 0.37269822 0.5217095 0.6119723 -0.32963386 -0.87337214
0.5083342 -0.2892569 -1.9889861 0.65897596 -0.4649641 0.0027911442 0.44923082 -2.2502778
0.8277302 0.27880132 -0.23749684 -0.8521322 -0.3622993 -0.83172214 0.25767973 0.6694945
2.0863812 -0.19132349 -0.11491928 -0.14017056 1.6302197 1.4947951 -0.57489336 -1.1427742
0.5738153 0.15547338 -1.1921934 0.37531662 -0.11327159 -2.1583445 0.455608 1.008908
0.70018446 -1.1788242 -0.024741108 -0.7268487 0.25559542 -0.12882784 0.73324674 -0.38054726
0.46744516 0.31002516 0.51177126 -0.27568814 0.65634483 -0.17254815 1.9870784 -0.45213798
-0.52396846 0.036809053 -1.1795138 0.25044033 0.38539496 2.171867 0.26799196 -0.23405494
0.6175122 -1.2282166 0.44986108 -0.48952153 0.55162513 0.86125225 0.30587694 -0.78885883
1.1996475 0.60860574 -1.4332018 0.13112348 -1.4484032 -2.1524274 1.6781932 -0.06195517
0.5547909 -0.4126753 1.1281531 -0.24794923 -0.0073943655 -0.77039605 1.4622549 -0.60511506
-1.6992424 -0.6491715 2.4698586 2.9572701 -1.5136777 -1.4092577 2.0569026 0.00012317309
0.63064986 0.00913889 -0.8960029 0.17094262 -0.70594406 1.9757408 -0.4712561 2.8911362
-1.8310548 1.2279426 -1.3847138 -0.18872602 -1.0788736 -1.7852768 -0.0029358338 0.102021165
-1.6455473 -0.75634897 0.91527086 -0.76096886 1.248593 1.9277889 -0.7985971 -0.9034659
-1.7003355 1.191262 -1.743448 0.14119288 0.4493791 0.986719 -1.0974518 0.38011274
1.2324289 0.201618 -0.20178404 -0.6972147 0.7644781 0.6405964 -0.6048609 -0.5642183
-0.8331285 -1.199119 0.4866241 -0.057296854 0.8645869 -0.049210925 1.1198748 -0.69569206
0.07174629 -0.6111287 1.0246177 0.38741052 -0.08236664 -1.0438876 -1.5240177 -0.32365063
-0.8385804 0.26473054 0.08008928 0.23283352 1.0470641 0.36355996 -0.8879945 -0.7243832
-1.3543838 -0.26164776 -0.311055 0.09914593 0.17349474 1.1816344 -0.85413474 -0.3057759
0.41146836 -0.58172774 0.48020628 1.7678065 0.25471824 -0.74984294 -0.27236676 -2.291245
-0.6861017 -0.56187737 -1.480668 0.050960787 0.22934644 0.663981 1.4342569 0.3718771
00000000: 9f81 5c3f 2b85 af3e 02e5 f93b 5845 093f
00000010: eaef 903f e5a9 7a3f 4c7c aebd ddf6 b13d
00000020: 6958 b4bf aa2f 3cbf 15c7 79be 95e3 223f
00000030: 851e c53f fcfd ccbe 8149 983e 2d63 fbbd
00000040: b8c1 97be 53e7 15bf 8888 a43f dd05 0c3f
00000050: 6aa2 7cbf cf37 82bf 32d3 f43e 747f 803e
00000060: a574 64be 30fc bcbf d60b 603f 2a51 753f
00000070: 8ece 9e3e 7d96 ac3f ff1a dcbe c0b6 48bf
00000080: a7ee 13be b991 443f 8588 89bf 47b0 bc3e
00000090: a693 9c3e ba80 7d3d 2c7e 43bf bb7c c83e
000000a0: 8f64 bf3f 7370 a03f eded 2fbe 6b3b c7be
000000b0: 8104 cbbc 981b 6dbe b807 48c0 9319 a5c0
000000c0: 8cd8 68bf 79a7 c13d 018d f53f 8f6f a03f
000000d0: c021 443e ec1e 39c0 51e0 07bf 09f2 babe
000000e0: 1507 b23d a11c 70c0 461b 98be 7732 0bbf
000000f0: bf6d fcbe 1681 56bf 0e76 f7bf fe11 d13d
00000100: b06c 84bf 1c8a 2abe 1391 c43e 5801 2d3f
00000110: 6df6 923f d9be 173f f3de 903d c0d6 65bf
00000120: 92f3 85bf d6ea 403f c427 3dbf 4dd2 be3e
00000130: c18e 053f 37aa 1c3f c5c5 a8be 5195 5fbf
00000140: 3122 023f 7b19 94be 1997 febf a6b2 283f
00000150: c60f eebe a1eb 363b 9501 e63e 8d04 10c0
00000160: 20e6 533f 0cbf 8e3e 5f32 73be 5625 5abf
00000170: 4b7f b9be beeb 54bf 99ee 833e fe63 2b3f
00000180: 4587 0540 4eea 43be cd5a ebbd df88 0fbe
00000190: 0aab d03f 7255 bf3f 362c 13bf 6d46 92bf
000001a0: 8fe5 123f 6a34 1f3e cb99 98bf 8029 c03e
000001b0: effa e7bd 5122 0ac0 7445 e93e e623 813f
000001c0: 4a3f 333f b6e3 96bf ddad cabc c212 3abf
000001d0: 67dd 823e 72eb 03be 0fb6 3b3f 17d7 c2be
000001e0: f954 ef3e 9ebb 9e3e 7103 033f ff26 8dbe
000001f0: 3706 283f 76b0 30be 9658 fe3f a17e e7be
00000200: cc22 06bf 17c5 163d 4ffa 96bf b739 803e
00000210: 7d52 c53e deff 0a40 3e36 893e 19ac 6fbe
00000220: 4815 1e3f 3436 9dbf 3154 e63e 91a2 fabe
00000230: 4e37 0d3f 077b 5c3f e79b 9c3e a7f2 49bf
00000240: 0d8e 993f 96cd 1b3f 2873 b7bf 3c45 063e
00000250: 4765 b9bf 5fc1 09c0 09cf d63f b4c4 7dbd
00000260: c706 0e3f 2d4a d3be 5267 903f 67e6 7dbe
00000270: 6f4c f2bb ad38 45bf 2b2b bb3f d2e8 1abf
00000280: c680 d9bf 1a30 26bf 2a12 1e40 ea43 3d40
00000290: 31c0 c1bf 8e62 b4bf 4ba4 0340 0628 0139
000002a0: 4572 213f 48bb 153c 7260 65bf 950b 2f3e
000002b0: c0b8 34bf 13e5 fc3f 7b48 f1be 6008 3940
000002c0: 0160 eabf 392d 9d3f 4d3e b1bf 6541 41be
000002d0: 8818 8abf f383 e4bf 1e67 40bb 79f0 d03d
000002e0: 4ba1 d2bf 16a0 41bf 314f 6a3f dbce 42bf
000002f0: e5d1 9f3f c9c1 f63f dc70 4cbf 8b49 67bf
00000300: 98a4 d9bf 467b 983f 4e29 dfbf de94 103e
00000310: 0415 e63e 9e99 7c3f 4d79 8cbf 239e c23e
00000320: 3bc0 9d3f f374 4e3e 7aa0 4ebe aa7c 32bf
00000330: d6b4 433f 20fe 233f 2ad8 1abf 9c70 10bf
00000340: e947 55bf bb7c 99bf cb26 f93e 1bb0 6abd
00000350: 9155 5d3f 6591 49bd 0f58 8f3f e018 32bf
00000360: b8ef 923d ee72 1cbf ac26 833f ac5a c63e
00000370: d7af a8bd 1c9e 85bf 0313 c3bf 89b5 a5be
00000380: 35ad 56bf c38a 873e d905 a43d e96b 6e3e
00000390: 3206 863f 8824 ba3e 9c53 63bf 2d71 39bf
000003a0: 735c adbf b2f6 85be 9a42 9fbe 050d cb3d
000003b0: 9ba8 313e cc3f 973f 93a8 5abf a98e 9cbe
000003c0: fbab d23e 1cec 14bf 99dd f53e 7c47 e23f
000003d0: 6e6a 823e b5f5 3fbf a873 8bbe c2a3 12c0
000003e0: 5ca4 2fbf 32d7 0fbf 8786 bdbf 42bc 503d
000003f0: cbd9 6a3e a9fa 293f bb95 b73f ad66 be3e

hidden_layers.0.bias f4 [20]
1.4742125 -0.7709782 0.47030127 -0.7903956 -0.24880329 0.013261077 1.0747408 1.5216373
-0.9320592 -1.0600972 1.2119806 0.029461334 -0.061803576 -0.47592178 -0.27039266 0.7617066
-0.456707 -0.8028217 1.0603852 0.42355025
00000000: ffb2 bc3f d45e 45bf 54cb f03e 5e57 4abf
00000010: 4ac6 7ebe fd44 593c 1b91 893f 03c5 c23f
00000020: 6f9b 6ebf 44b1 87bf 2e22 9b3f e558 f13c
00000030: bf25 7dbd 05ac f3be e870 8abe 34ff 423f
00000040: 80d5 e9be b985 4dbf b4ba 873f 94db d83e

hidden_layers.1.weight f4 [20, 20]
-0.34505966 -0.64236355 -0.52884364 0.58791816 -0.48588762 -0.36057577 1.0210418 -1.4317228
-0.68097425 -0.00052273244 -0.13789988 0.29792374 0.25333232 0.40991333 -0.015750999 -0.8845725
-0.91765404 -0.8700962 0.2095114 -1.2463151 -1.737483 1.4763619 -2.4743826 -0.015652733
-1.3507816 -2.5727103 0.22047143 1.7338662 1.0858175 -1.404435 -1.061325 -1.5396936
-1.358806 -3.257427 0.19329275 -0.5750557 -0.71055615 1.7208579 0.9060386 2.291195
0.6490924 -0.5568679 0.121922225 -0.10571722 0.72766787 1.4928439 -0.71510184 -0.32948017
0.6124566 -0.9376256 1.0296344 -0.517052 -0.053181585 -0.07897546 -1.1141403 0.43754503
0.8439261 0.36847043 0.15560251 0.5297595 -1.2740911 1.8710176 -1.2802976 0.5939006
0.7760332 -1.9338905 -0.85559624 -0.5813565 -0.016179275 0.4936914 -1.1644247 -0.06718683
-0.79211533 -0.06537206 -0.30649287 -0.703509 -1.845439 0.62197727 -1.2976946 0.4127105
0.39085856 -0.067536205 0.33171663 -0.17730778 -0.2986862 0.58658355 0.28742036 0.89159566
0.5292591 -0.9612861 0.67125934 -0.82423985 -0.47751135 0.18060197 0.29854074 1.0443568
1.2792721 -0.06042273 1.0732956 -0.5395949 0.089321494 1.3130052 0.632052 0.3709363
0.48330286 -0.4917395 -1.237811 0.039527472 -1.1271521 0.5311283 -0.31767553 -0.36974868
0.08368448 0.6789971 1.5868087 0.4547712 -0.25835714 0.9979547 -0.63823557 -0.16886608
0.7663107 -2.4552152 1.0315365 0.33877093 0.5715503 0.6213164 -0.5143051 -0.047079172
-0.7532071 0.096698426 0.2538781 0.3110569 1.6801759 -0.2768503 -0.82468516 0.1797468
0.23988608 -1.5602971 0.86360735 0.8229135 -0.82470447 0.805942 -1.2050464 0.4354783
-0.31938666 -1.1862285 -0.565383 -0.13709286 0.045013156 0.66668963 -0.249417 -0.30589324
-0.87769806 0.1585126 -0.11235089 -0.27837893 -0.47334743 -0.042619336 -0.3215213 0.15626942
-0.85225713 0.67630905 -1.1976421 0.38318002 -0.22985306 -0.9692235 -0.40359688 0.20263727
-0.15286596 0.38799226 -1.1375711 -0.015345019 -0.36163527 -0.036980543 0.3001276 -0.5280951
-1.4602761 -0.23116614 -0.5945236 -0.43921718 1.5597908 -0.65019935 1.3448919 0.6171736
0.77527314 0.6356686 0.9007123 -0.35879627 -0.5894774 0.4487999 1.8760864 -0.6542377
0.041902725 0.6617639 -0.42843884 0.6141914 1.1768937 0.41325948 -0.18348894 -0.36702004
-1.4155152 1.5679384 -1.059302 1.3912609 -0.098748945 -0.9921877 -1.2016273 2.0103846
-0.05842104 -0.051863078 -0.9056234 -0.7430647 0.31838074 -0.7869091 -0.2791328 0.05709028
-0.37152332 1.1538532 0.92307734 0.43201017 0.87362236 -0.358501 -0.21562105 0.04029579
0.07722983 1.2757139 0.13032676 -0.09311785 0.4954485 -0.5735465 0.8573167 -0.04001489
-0.7517005 0.320139 -0.32855567 0.1429304 1.0151623 0.81816834 0.055862103 0.47624663
0.06907899 -0.1228346 -1.6080543 -0.018696819 0.5532333 -0.55600464 0.85361683 -1.0685717
0.9910215 0.34677956 -0.66008306 1.843162 -0.091039605 -0.14537857 -0.47083807 -0.21750514
00000000: a9ab b0be f071 24bf 4c62 07bf ce81 163f
00000010: 43c6 f8be 639d b8be 7fb1 823f b142 b7bf
00000020: 5454 2ebf fb07 09ba a035 0dbe 7689 983e
00000030: c6b4 813e 29e0 d13e 3d08 81bc 5873 62bf
00000040: 60eb 6abf a0be 5ebf 288a 563e 4187 9fbf
00000050: d865 debf 6df9 bc3f 495c 1ec0 293a 80bc
00000060: 69e6 acbf 49a7 24c0 43c3 613e 54ef dd3f
00000070: 11fc 8a3f 87c4 b3bf 7fd9 87bf ae14 c5bf
00000080: 5bed adbf af79 50c0 89ee 453e da36 13bf
00000090: 02e7 35bf 1245 dc3f 25f2 673f f0a2 1240
000000a0: eb2a 263f e58e 0ebf 5cb2 f93d 4582 d8bd
000000b0: 7148 3a3f 8215 bf3f ea10 37bf a0b1 a8be
000000c0: f5c9 1c3f 3b08 70bf 0fcb 833f 855d 04bf
000000d0: efd4 59bd e3bd a1bd 269c 8ebf e705 e03e
000000e0: 8a0b 583f 28a8 bc3e 4456 1f3e 529e 073f
000000f0: 6b15 a3bf 817d ef3f cbe0 a3bf df09 183f
00000100: 1daa 463f b989 f7bf 5b08 5bbf c8d3 14bf
00000110: 668a 84bc 1fc5 fc3e de0b 95bf 4099 89bd
00000120: 12c8 4abf c9e1 85bd a2ec 9cbe 2a19 34bf
00000130: 5837 ecbf e739 1f3f db1a a6bf ca4e d33e
00000140: 9d1e c83e 6c50 8abd c3d6 a93e 2c90 35be
00000150: 66ed 98be 572a 163f c328 933e 9d3f 643f
00000160: 867d 073f d916 76bf a7d7 2b3f 6201 53bf
00000170: 5e7c f4be b9ef 383e 55da 983e 7cad 853f
00000180: 30bf a33f d37d 77bd c061 893f e422 0abf
00000190: 30ee b63d 8e10 a83f 29ce 213f 5deb bd3e
000001a0: 7973 f73e 48c5 fbbe 9770 9ebf 8fe7 213d
000001b0: 8546 90bf 06f8 073f 5ea6 a2be b34f bdbe
000001c0: c562 ab3d c1d2 2d3f 8c1c cb3f c5d7 e83e
000001d0: 6347 84be f679 7f3f 6863 23bf 3beb 2cbe
000001e0: f02c 443f 3f22 1dc0 6309 843f 6273 ad3e
000001f0: 1f51 123f 970e 1f3f 80a9 03bf 17d6 40bd
00000200: 2ed2 40bf d309 c63d 4ffc 813e da42 9f3e
00000210: 0110 d73f 53bf 8dbe 911e 53bf 8c0f 383e
00000220: b2a4 753e d1b7 c7bf 5f15 5d3f 76aa 523f
00000230: d51f 53bf 3752 4e3f f63e 9abf 03f7 de3e
00000240: a686 a3be 56d6 97bf f1bc 10bf 1262 0cbe
00000250: b75f 383d 2cac 2a3f 2c67 7fbe 0a9e 9cbe
00000260: d2b0 60bf 2151 223e 3918 e6bd af87 8ebe
00000270: 985a f2be 9d91 2ebd 719e a4be 1705 203e
00000280: 862d 5abf 9722 2d3f 564c 99bf 2c30 c43e
00000290: 9a5e 6bbe 081f 78bf 40a4 cebe 2580 4f3e
000002a0: e588 1cbe eca6 c63e ee9b 91bf ad69 7bbc
000002b0: 4228 b9be e978 17bd 53aa 993e 3e31 07bf
000002c0: 54ea babf d1b6 6cbe b332 18bf 13e1 e0be
000002d0: 3aa7 c73f 7773 26bf 6b25 ac3f 17ff 1d3f
000002e0: 4d78 463f 2dbb 223f 1595 663f 25b4 b7be
000002f0: fee7 16bf 1ac9 e53e 9923 f03f 1f7c 27bf
00000300: 31a2 2b3d 5c69 293f 565c dbbe a63b 1d3f
00000310: 74a4 963f bf96 d33e 86e4 3bbe 0dea bbbe
00000320: 9a2f b5bf 35b2 c83f 3597 87bf d614 b23f
00000330: e33c cabd 0300 7ebf ecce 99bf 24aa 0040
00000340: e74a 6fbd 616e 54bd efd6 67bf 7d39 3ebf
00000350: cd02 a33e e072 49bf 7fea 8ebe 7fd7 693d
00000360: 4e38 bebe 76b1 933f cc4e 6c3f 7030 dd3e
00000370: b7a5 5f3f 718d b7be c4cb 5cbe 330d 253d
00000380: ac2a 9e3d 984a a33f 6174 053e 92b4 bebd
00000390: 6dab fd3e f2d3 12bf 1b79 5b3f a7e6 23bd
000003a0: 726f 40bf 42e9 a33e 7338 a8be 595c 123e
000003b0: d7f0 813f 7b73 513f a9cf 643d 99d6 f33e
000003c0: 4979 8d3d b590 fbbd b9d4 cdbf 122a 99bc
000003d0: b3a0 0d3f 5256 0ebf a286 5a3f f5c6 88bf
000003e0: 96b3 7d3f 178d b13e 34fb 28bf bbec eb3f
000003f0: f972 babd 1fde 14be b011 f1be abb9 5ebe

hidden_layers.1.bias f4 [20]
0.08180693 -1.7070891 0.39574093 -1.4147042 0.7497363 -0.5644295 0.5969621 -0.8190837
-0.7301718 1.1149179 -1.4412091 0.29051447 -0.06670893 1.2234097 -0.7529664 -1.5956882
-0.22536106 -0.35753402 0.30897877 0.7018706
00000000: 648a a73d e581 dabf 8e9e ca3e 0715 b5bf
00000010: b8ee 3f3f 747e 10bf 82d2 183f 78af 51bf
00000020: 8aec 3abf a1b5 8e3f 8a79 b8bf 50be 943e
00000030: b19e 88bd b098 9c3f 68c2 40bf 833f ccbf
00000040: 0dc5 66be b30e b7be 7732 9e3e cbad 333f

hidden_layers.2.weight f4 [20, 20]
-0.070153534 -0.5479925 -0.094118915 -0.17401376 -0.44097266 1.5359018 -0.3100574 0.77977
0.8982566 -0.5530269 0.14846939 0.3472375 -0.958842 -0.47842312 0.51224333 0.4275813
1.4147702 0.74106175 0.15700604 -0.515238 0.48708317 0.84908456 -0.19706924 -0.06322254
0.7108095 1.2819359 -1.0575268 0.10214007 0.45638156 -0.1051233 0.69391483 -0.960156
-0.13050409 -0.5905039 0.30145827 -0.47470838 1.4841769 -0.036644243 0.6099693 -0.21663359
0.38043302 0.34803873 -0.010088365 0.05011308 -0.98466754 0.8642057 -0.0556066 0.6115398
0.18634875 -1.7009095 0.1706052 -0.22439687 0.08812992 -0.2626263 0.04544695 0.9612209
-0.41731626 1.2543335 0.3509022 -0.8598479 2.6929066 -0.66111785 -1.4747022 -0.036097556
-0.35935467 1.2754486 -0.533095 0.49551743 0.5055329 -0.04591161 2.8719912 -1.3548074
-2.3129952 -0.5005833 0.2873594 1.2980274 0.42553958 1.6017994 1.3201338 -0.9234381
-0.007191889 -0.35382792 0.5065828 -0.96826977 0.62583435 -0.3805851 -0.17688465 -1.2156088
-1.2578604 1.1217016 -0.6382781 0.6119182 0.39462855 -0.3729593 -0.30690607 -1.3063467
-1.0903344 -1.1418949 -0.002170824 0.54987895 -0.8048767 -0.3901991 -0.79062575 1.2135254
0.07696639 1.292592 -0.6256073 0.31042245 1.073095 -0.40899956 0.8876603 -0.13932727
-1.9963441 -0.60173815 0.07571196 -1.4529117 0.73688287 1.0629932 -0.48316064 -0.3122957
0.9497339 0.27097842 -0.12654163 1.4663633 -0.6399696 0.33456546 -0.1529061 0.8263228
0.58721375 -0.30571815 0.45618957 -0.12151847 -0.9056758 -0.6946146 0.16439694 0.2743448
0.18182224 0.3626456 0.6789908 -0.4390554 -0.9037701 -0.44922853 -1.7891728 0.10212639
-1.950684 1.5141021 -1.0033379 0.91362834 1.721769 1.0669748 0.4398918 -0.85926247
0.7285767 4.707766 2.9676328 2.0109658 1.7755908 1.7415516 -2.4530678 -0.9624858
-1.7675662 0.13863583 1.8254609 -1.3548235 -0.13976863 -2.0087366 2.5709047 -1.7704884
-1.8242041 1.1263441 -1.7712749 1.3290808 1.7635618 0.3485146 -0.82062703 -0.627394
-1.8393143 -2.152047 0.18930136 1.2544754 -0.3511603 -0.645815 -0.124489516 0.5369941
-0.69203997 -0.11909106 -0.057299662 1.1057198 0.34228012 -0.93852687 0.45037195 -0.3265636
0.18282062 1.2758095 1.4247103 1.2618463 0.015212068 0.50094444 -0.11042188 -0.8065319
0.42157367 -1.9693587 0.15845983 3.465232 -1.5795358 1.3332465 -1.3702036 1.0923558
1.4544811 -1.556988 0.77714026 -0.9014002 -0.21326302 0.78381264 1.1264398 0.6566451
0.20891464 0.34567365 1.3116013 -1.3671079 -1.4264231 1.5737107 -1.12672 0.83938605
-0.09907933 0.5322394 0.00650767 0.8940775 0.12043604 -1.7289305 -0.9664436 -0.20821407
-0.26436192 -1.5800276 0.47157377 -0.5541037 -0.39081097 0.40145108 1.5045488 0.117617704
-0.24128158 -0.96290666 -0.6297768 1.5915799 -0.45305702 0.5526483 -0.4729983 0.25431678
0.093321756 -0.0821296 0.115708016 -0.19562517 1.7219932 -0.29646122 0.30506065 -0.15430313
00000000: a8ac 8fbd 3d49 0cbf 6bc1 c0bd aa30 32be
00000010: 2bc7 e1be 6e98 c43f d8bf 9ebe 029f 473f
00000020: 25f4 653f 2c93 0dbf 5c08 183e 1dc9 b13e
00000030: ab76 75bf e0f3 f4be 6122 033f f0eb da3e
00000040: 3117 b53f 39b6 3d3f 31c6 203e a3e6 03bf
00000050: f762 f93e 9b5d 593f 85cc 49be d27a 81bd
00000060: 9df7 353f 7a16 a43f 0a5d 87bf d02e d13d
00000070: d8aa e93e e24a d7bd 67a4 313f c9cc 75bf
00000080: dda2 05be 432b 17bf bd58 9a3e fa0c f3be
00000090: 82f9 bd3f 4618 16bd f326 1c3f 32d5 5dbe
000000a0: 1ec8 c23e 2232 b23e ab49 25bc 5f43 4d3d
000000b0: 2c13 7cbf 963c 5d3f bfc3 63bd df8d 1c3f
000000c0: 35d2 3e3e 67b7 d9bf 21b3 2e3e 4bc8 65be
000000d0: 767d b43d f476 86be 9526 3a3d 9312 763f
000000e0: 7aaa d5be 008e a03f 74a9 b33e fe1e 5cbf
000000f0: 9558 2c40 053f 29bf 0bc3 bcbf 08db 13bd
00000100: 56fd b7be e641 a33f ea78 08bf 76b4 fd3e
00000110: 9b6a 013f d00d 3cbd b4ce 3740 546a adbf
00000120: 1d08 14c0 3a26 00bf c520 933e c325 a63f
00000130: 53e0 d93e c307 cd3f 25fa a83f 7066 6cbf
00000140: f0a9 ebbb ef28 b5be 69af 013f 87e0 77bf
00000150: ae36 203f 0ddc c2be 4021 35be 1299 9bbf
00000160: 9201 a1bf eb93 8f3f 3266 23bf aca6 1c3f
00000170: c10c ca3e 85f4 bebe cb22 9dbe 5e36 a7bf
00000180: 1490 8bbf 9d29 92bf 6244 0ebb dec4 0c3f
00000190: 660c 4ebf 2dc8 c7be 7366 4abf cd54 9b3f
000001a0: 8ea0 9d3d a873 a53f cd27 20bf b1ef 9e3e
000001b0: 2d5b 893f 6468 d1be b53d 633f cfab 0ebe
000001c0: 3488 ffbf 830b 1abf df0e 9b3d 03f9 b9bf
000001d0: 5ba4 3c3f 2910 883f d560 f7be 39e5 9fbe
000001e0: c321 733f afbd 8a3e 2194 01be cbb1 bb3f
000001f0: 0cd5 23bf 2a4c ab3e 6b93 1cbe e489 533f
00000200: a453 163f 1787 9cbe ae91 e93e adde f8bd
00000210: 5fda 67bf 43d2 31bf ac57 283e ec76 8c3e
00000220: 9c2f 3a3e afac b93e 57d2 2d3f dfcb e0be
00000230: 7a5d 67bf 4801 e6be 9d03 e5bf a427 d13d
00000240: 03b0 f9bf 19ce c13f 606d 80bf 8ce3 693f
00000250: ed62 dc3f a192 883f 7f39 e13e a0f8 5bbf
00000260: 0184 3a3f 05a6 9640 b2ed 3d40 aab3 0040
00000270: 8f46 e33f 2aeb de3f 10ff 1cc0 7865 76bf
00000280: 9c3f e2bf 8df6 0d3e b4a8 e93f db6a adbf
00000290: 821f 0fbe 248f 00c0 b489 2440 5d9f e2bf
000002a0: 857f e9bf 0b2c 903f 23b9 e2bf 521f aa3f
000002b0: 65bc e13f 8170 b23e 9d14 52bf e59c 20bf
000002c0: a76e ebbf 23bb 09c0 37d8 413e a692 a03f
000002d0: 48cb b3be 2254 25bf 5cf4 febd 7278 093f
000002e0: 8829 31bf 03e6 f3bd 0db3 6abd 3a88 8d3f
000002f0: 573f af3e 4c43 70bf 2797 e63e 5833 a7be
00000300: 5435 3b3e ba4d a33f e85c b63f 2e84 a13f
00000310: 0a3c 793c e53d 003f de24 e2bd e078 4ebf
00000320: 81d8 d73e f213 fcbf 4b43 223e 5cc6 5d40
00000330: 3b2e cabf d2a7 aa3f d562 afbf 51d2 8b3f
00000340: 702c ba3f 624b c7bf aaf2 463f 2ac2 66bf
00000350: 9f61 5abe f2a7 483f 2e2f 903f e519 283f
00000360: b8ed 553e 23fc b03e 8de2 a73f 64fd aebf
00000370: 0895 b6bf 5a6f c93f 5c38 90bf 01e2 563f
00000380: 1bea cabd d740 083f 4b3e d53b 43e2 643f
00000390: 2ca7 f63d 984d ddbf d968 77bf 1236 55be
000003a0: 725a 87be 583e cabf 1e72 f13e bdd9 0dbf
000003b0: 6018 c8be ff8a cd3e 0e95 c03f 8de1 f03d
000003c0: 8512 77be 0d81 76bf 0d39 21bf e4b8 cb3f
000003d0: 17f7 e7be 5c7a 0d3f d52c f2be cf35 823e
000003e0: 7a1f bf3d 9033 a8bd 53f8 ec3d f751 48be
000003f0: 466a dc3f c4c9 97be e930 9c3e a401 1ebe

hidden_layers.2.bias f4 [20]
-0.9042864 -0.6015949 -0.3886334 -0.73505706 0.7510087 -1.0233387 -0.49379465 -1.2943267
1.4916806 -0.6150354 -1.5091528 -0.39323804 -0.27784044 1.38341 1.168544 -0.7304282
-0.36754763 -0.80183643 1.1328279 -1.1591231
00000000: 507f 67bf 2002 1abf f5fa c6be b32c 3cbf
00000010: 1b42 403f c3fc 82bf a7d2 fcbe 7fac a5bf
00000020: 64ef be3f f672 1dbf eb2b c1bf 7f56 c9be
00000030: 1a41 8ebe 9413 b13f da92 953f 58fd 3abf
00000040: 342f bcbe 2745 4dbf 8100 913f 255e 94bf

output_layer.weight f4 [5, 20]
0.8628154 1.1181183 0.8801841 3.1952798 0.8615747 -1.0642467 0.19693542 -0.480513
-0.49292195 -0.027281942 -1.0320333 0.00060875545 -0.24290618 -1.5154349 0.79764175 -1.4219716
0.23581235 -0.7198386 0.09513225 -0.6683459 -0.5925888 3.6357439 -2.6722584 0.0012609165
-0.38549143 -0.35137987 0.22985408 1.568143 1.6587979 0.88948387 1.8335212 -0.0042412076
0.14408384 2.3873463 0.39415565 -0.34836707 -0.38343346 -0.3422601 -1.2866068 -1.2622929
0.4947461 -0.5231182 -1.154395 0.27511558 -1.1756492 0.53038013 0.35932282 -0.48232618
1.0438899 0.8984419 -2.2343922 -0.006668103 0.52567685 0.6313143 0.11878091 0.43978786
-0.95205045 0.3006097 0.05772652 -0.5693051 0.7272088 -0.46178252 -0.3471011 -1.7577703
-0.9522942 0.022936754 0.22787063 0.7699326 0.76038015 0.5012861 0.62419754 -1.7574003
1.0272785 0.08770187 -0.70177287 0.87109214 -0.3329783 0.7930427 -0.17469394 -3.0219986
0.3324975 0.9713101 -0.6754442 -2.906025 -1.0489922 0.64650255 -0.32001355 0.75996715
-0.50078875 1.2297844 -0.2655225 -1.7968711 0.63086987 0.38491124 0.16309562 0.035154197
-0.7577582 1.3400675 -0.14919592 -2.2867734
00000000: 78e1 5c3f 801e 8f3f bf53 613f 777f 4c40
00000010: 2990 5c3f 3c39 88bf 70a9 493e cd05 f6be
00000020: 4460 fcbe 617e dfbc ab19 84bf e394 1f3a
00000030: 66bc 78be c5f9 c1bf 4032 4c3f 2a03 b6bf
00000040: cb78 713e 5847 38bf b2d4 c23d b818 2bbf
00000050: e6b3 17bf 07b0 6840 4806 2bc0 5645 a53a
00000060: 225f c5be 10e8 b3be de5e 6b3e e9b8 c83f
00000070: 7d53 d43f 37b5 633f d3b0 ea3f d4f9 8abb
00000080: b78a 133e 48ca 1840 c5ce c93e 2b5d b2be
00000090: 6451 c4be b73c afbe 88af a4bf d092 a1bf
000000a0: 5c4f fd3e 13eb 05bf 37c3 93bf f3db 8c3e
000000b0: ac7b 96bf fec6 073f 29f9 b73e 75f3 f6be
000000c0: 2f9e 853f 4a00 663f 4800 0fc0 1a80 dabb
000000d0: c292 063f d09d 213f 6843 f33d e02b e13e
000000e0: 94b9 73bf 84e9 993e a572 6c3d fbbd 11bf
000000f0: 5b2a 3a3f c26e ecbe 3cb7 b1be 9efe e0bf
00000100: 8dc9 73bf dce5 bb3c eb56 693e 4e1a 453f
00000110: 46a8 423f 4954 003f 69cb 1f3f 7ef2 e0bf
00000120: dd7d 833f 0a9d b33d 63a7 33bf e5ff 5e3f
00000130: 227c aabe d904 4b3f f8e2 32be 6d68 41c0
00000140: 1d3d aa3e c7a7 783f e9e9 2cbf 50fc 39c0
00000150: 6045 86bf 3181 253f d1d8 a3be 358d 423f
00000160: b133 00bf 9369 9d3f 91f2 87be dfff e5bf
00000170: b080 213f 1613 c53e 8a02 273e d9fd 0f3d
00000180: 71fc 41bf 5587 ab3f d1c6 18be 7f5a 12c0

output_layer.bias f4 [5]
0.6151355 0.34383658 -0.8700515 -0.4675857 -0.39588544
00000000: 8579 1d3f 590b b03e b2bb 5ebf 6567 efbe
00000010: 7fb1 cabe
