results/ADAM_test.pt (torch, 8927 bytes, 10 tensors)

input_layer.weight f4 [20, 2]
0.576788 0.7933311 -0.21486059 0.7855267 -0.21729772 0.14558366 -0.38992497 0.549766
0.7817814 -0.6272369 0.7014568 0.17308696 0.6228363 0.15186404 0.4532669 -0.083724834
0.616845 0.13260987 -0.3646928 0.26085567 -0.39957446 -0.14745788 -0.37126318 0.55620134
-0.75711447 -0.46427462 -0.3347995 -0.5000434 0.1080504 -0.83171296 0.8102311 -0.7160294
0.7274481 0.14406353 -0.27539772 0.54497606 0.18364775 0.77123106 0.0939736 -0.27407593
00000000: 61a8 133f bf17 4b3f 6a04 5cbe 4718 493f
00000010: 4b83 5ebe e213 153e 3fa4 c7be 77bd 0c3f
00000020: d322 483f 9992 20bf ac92 333f b53d 313e
00000030: 3372 1f3f 3f82 1b3e 9912 e83e ed77 abbd
00000040: 8ee9 1d3f e2ca 073e 04b9 babe e08e 853e
00000050: 0695 ccbe 33ff 16be 3516 bebe 3663 0e3f
00000060: 41d2 41bf 67b5 edbe d76a abbe d802 00bf
00000070: 8749 dd3d 24eb 54bf 4e6b 4f3f b44d 37bf
00000080: 0a3a 3a3f 6485 133e ee00 8dbe 8d83 0b3f
00000090: 280e 3c3e 666f 453f 3b75 c03d ae53 8cbe

input_layer.bias f4 [20]
0.08205337 -0.010285909 -0.011380489 -0.04273 -0.0121469125 0.05283442 0.025614541 0.042414635
0.064696044 0.032811996 -0.05683838 -0.036489002 -0.07158769 0.036029376 0.027783245 -0.016693795
-0.05158291 0.018395625 0.0727965 -0.0011295383
00000000: 990b a83d 3b86 28bc 3b75 3abc a705 2fbd
00000010: d803 47bc e868 583d 96d5 d13c f8ba 2d3d
00000020: 5c7f 843d df65 063d 5ccf 68bd 7e75 15bd
00000030: 919c 92bd 8a93 133d b099 e33c 6dc1 88bc
00000040: 9a48 53bd 6cb2 963c 5516 953d 040d 94ba

hidden_layers.0.weight f4 [20, 20]
0.19484036 -0.1611867 0.28546944 0.5904463 0.35598198 -0.2610926 0.39362147 0.11356752
0.3487946 -0.37806645 -0.65967816 -0.23635355 -0.51638776 0.5084553 0.16488354 0.2512673
0.22521223 0.015031564 0.52646464 -0.48250857 0.03700175 -0.4257352 0.19432698 -0.21307997
0.2041777 -0.13798337 0.5318952 -0.3810568 -0.38843626 -0.38927346 0.5839753 0.22410981
0.62471896 -0.52917814 -0.63333523 -0.5073826 -0.43769652 0.27620983 0.22753903 0.50996083
-0.35617012 -0.45900443 0.34590366 -0.25184262 0.38723204 -0.17560309 0.34683317 -0.49801233
-0.3481158 0.20695677 0.1588733 -0.15919119 0.40745112 0.4614464 -0.44561514 -0.35129708
0.5686573 -0.21243566 -0.25158724 -0.6064517 -0.3872508 0.13521537 -0.07053183 -0.45722997
0.0010202436 -0.45778954 -0.5645049 -0.3715673 -0.58175236 -0.39442408 0.66211003 0.12852772
0.21621951 -0.5847218 -0.4063033 -0.22748463 0.08412396 -0.5661386 -0.29569432 -0.3874439
0.0018557862 -0.2444132 -0.049055576 -0.4414388 -0.438681 -0.37665772 -0.22101326 -0.5055522
0.54114914 -0.13572831 0.55542976 0.19831805 -0.5466253 0.44675174 -0.17825009 -0.24311268
-0.5358915 -0.64720714 0.18467829 -0.12433129 0.24116534 -0.54110223 0.4695181 -0.5006302
-0.09716851 0.124350846 0.3228205 0.5260954 0.5775754 -0.5260164 0.17272475 -0.3014171
-0.06047118 -0.4729116 0.5982713 -0.4650733 0.33451882 0.19950762 0.19959341 -0.31734613
0.5776344 0.15973464 0.10343886 -0.54785705 0.24900246 -0.10543921 -0.30436012 0.5450398
0.13534318 -0.3339428 -0.3180046 -0.0101769585 0.3693383 -0.15618585 -0.3642159 -0.24272458
-0.49082422 0.25076854 0.49077183 -0.6295656 0.14868306 0.32448763 0.11339267 -0.24130666
0.3434433 0.337812 0.2399753 -0.11192234 -0.17233829 0.060252685 -0.11264148 -0.19672506
0.4139063 0.5561287 -0.06461102 -0.13769352 0.008003241 -0.060275342 0.15384628 0.20140354
-0.5996508 -0.25544742 0.54981863 0.23681705 -0.036560554 -0.4030041 -0.40878162 -0.59111756
-0.22431011 0.2234113 0.42557555 0.28552473 -0.55704457 -0.37443948 -0.08850391 0.62244403
0.079479754 -0.18524966 0.25345504 -0.22151573 -0.4209282 0.46172282 -0.29249933 -0.11807277
-0.6473198 0.42868415 0.4856669 0.21707627 -0.453514 -0.5988718 -0.52070946 0.4745149
0.3130824 0.54625297 0.3345784 0.16522634 -0.009677669 -0.48371962 -0.5559948 -0.60199744
0.26077083 -0.31772736 -0.12008801 -0.3606907 -0.13001916 -0.45763397 -0.42512536 0.2051324
-0.1951745 0.41143778 -0.20360273 -0.46259174 -0.11048393 -0.3094868 -0.19431445 -0.6258437
0.35783502 -0.43203667 0.32098725 0.29304805 0.4885243 -0.49538398 0.4357874 -0.33959526
0.26843187 0.6334659 -0.06377142 0.022227416 -0.12135708 -0.5668427 0.28254887 -0.670272
0.3734008 0.45568272 0.5808468 -0.119958006 -0.50311047 0.12540828 0.38394943 -0.6254008
-0.146795 -0.39012 -0.053667653 -0.3235672 -0.26596424 -0.20528318 -0.613785 0.5292649
0.5407701 -0.106086396 -0.073125295 -0.26268938 -0.5826113 -0.6277886 0.2394361 -0.3537218
00000000: 3b84 473e 200e 25be 0d29 923e 7d27 173f
00000010: 4543 b63e eead 85be c188 c93e 1796 e83d
00000020: 3595 b23e ed91 c1be abe0 28bf aa06 72be
00000030: fd31 04bf 202a 023f 3bd7 283e 1ca6 803e
00000040: 099e 663e f346 763c 63c6 063f 5d0b f7be
00000050: 268f 173d f7f9 d9be a7fd 463e a331 5abe
00000060: f613 513e 834b 0dbe 492a 083f e019 c3be
00000070: 1ee1 c6be da4e c7be 687f 153f 0b7d 653e
00000080: 95ed 1f3f 3878 07bf 4222 22bf d3e3 01bf
00000090: c219 e0be 606b 8d3e feff 683e cb8c 023f
000000a0: ee5b b6be a102 ebbe 491a b13e 84f1 80be
000000b0: 4743 c63e 4cd1 33be 1e94 b13e 79fb febe
000000c0: 3c3c b2be 7aec 533e afaf 223e 0403 23be
000000d0: 6f9d d03e b442 ec3e ab27 e4be 36dd b3be
000000e0: 8693 113f bc88 59be 0bd0 80be 6b40 1bbf
000000f0: bd45 c6be e675 0a3e fe72 90bd 0c1a eabe
00000100: b2b9 853a 6463 eabe 6583 10bf 123e bebe
00000110: b9ed 14bf f4f1 c9be 0b80 293f c59c 033e
00000120: a668 5d3e 54b0 15bf fc06 d0be bbf1 68be
00000130: 2f49 ac3d 76ee 10bf 3f65 97be 0c5f c6be
00000140: da3d f33a 7447 7abe 80ee 48bd 4404 e2be
00000150: cc9a e0be 48d9 c0be 4d51 62be de6b 01bf
00000160: c088 0a3f 5dfc 0abe a530 0e3f e313 4b3e
00000170: a3ef 0bbf a5bc e43e 3187 36be 88f2 78be
00000180: 2f30 09bf 5eaf 25bf 4e1c 3d3e 67a1 febd
00000190: 0cf4 763e ad85 0abf ad64 f03e 4d29 00bf
000001a0: 4900 c7bd a8ab fe3d bb48 a53e 30ae 063f
000001b0: fbdb 133f 03a9 06bf c2de 303e 5853 9abe
000001c0: a1b0 77bd 7821 f2be 4f28 193f 161e eebe
000001d0: 0d46 ab3e ba4b 4c3e 3762 4c3e 317b a2be
000001e0: d9df 133f 7a91 233e c1d7 d33d 5c40 0cbf
000001f0: 80fa 7e3e 83f0 d7bd 17d5 9bbe ba87 0b3f
00000200: 6797 0a3e 8dfa aabe 80d1 a2be 42bd 26bc
00000210: e919 bd3e 2fef 1fbe 827a babe cb8c 78be
00000220: 504d fbbe bc64 803e 7246 fb3e 362b 21bf
00000230: 5f40 183e 3e23 a63e 6b3a e83d 1819 77be
00000240: cdd7 af3e b2f5 ac3e 16bc 753e 8a37 e5bd
00000250: 7379 30be 85cb 763d 94b0 e6bd 4b72 49be
00000260: 87eb d33e 735e 0e3f c852 84bd 88ff 0cbe
00000270: 0720 033c 47e3 76bd e189 1d3e bb3c 4e3e
00000280: b782 19bf 01ca 82be eac0 0c3f 2b80 723e
00000290: 85c0 15bd 8e56 cebe d34b d1be 7b53 17bf
000002a0: 8db1 65be efc5 643e 0ae5 d93e 4c30 923e
000002b0: 799a 0ebf 88b6 bfbe 8a41 b5bd 7e58 1f3f
000002c0: 48c6 a23d 16b2 3dbe dcc4 813e 05d5 62be
000002d0: e783 d7be ef66 ec3e 79c2 95be 23d0 f1bd
000002e0: c0b6 25bf 7d7c db3e 55a9 f83e 3e49 5e3e
000002f0: fd32 e8be aa4f 19bf 374d 05bf 9ef3 f23e
00000300: 564c a03e 3cd7 0b3f dc4d ab3e 1831 293e
00000310: 168f 1ebc 19aa f7be ad55 0ebf 811c 1abf
00000320: c183 853e 29ad a2be b4f0 f5bd 74ac b8be
00000330: be23 05be 004f eabe 08aa d9be 3a0e 523e
00000340: d3db 47be f9a7 d23e 3c7d 50be d3d8 ecbe
00000350: 6645 e2bd 0e75 9ebe 5efa 46be 4b37 20bf
00000360: 2736 b73e e933 ddbe 7158 a43e 650a 963e
00000370: db1f fa3e f8a2 fdbe 871f df3e 6edf adbe
00000380: e76f 893e d22a 223f 979a 82bd 4516 b63c
00000390: 108a f8bd 9a1c 11bf 3faa 903e f296 2bbf
000003a0: 642e bf3e 3f4f e93e 60b2 143f 8bac f5bd
000003b0: d9cb 00bf 076b 003e 0595 c43e 441a 20bf
000003c0: 6e51 16be cfbd c7be 9dd2 5bbd 9aaa a5be
000003d0: 772c 88be c135 52be 0421 1dbf e87d 073f
000003e0: e96f 0a3f d343 d9bd b7c2 95bd 397f 86be
000003f0: 0426 15bf c1b6 20bf bd2e 753e 061b b5be

hidden_layers.0.bias f4 [20]
0.021111358 -0.0037303437 -0.023100885 -0.018201403 0.00012866854 -0.009933604 -0.009374034 -0.0011195412
-0.01309633 -0.0030148074 -0.0035653363 0.027462492 -0.00020475374 0.005994024 0.0033268163 -0.005493379
-0.0016465351 -0.0034038925 -0.0155547215 -0.0154118175
00000000: baf1 ac3c c878 74bb 113e bdbc 1c1b 95bc
00000010: 33eb 0639 8ec0 22bc 8c95 19bc 92bd 92ba
00000020: fd91 56bc 1394 45bb 6ba8 69bb 05f9 e03c
00000030: 2ab3 56b9 8569 c43b b706 5a3b ce01 b4bb
00000040: 8dd0 d7ba d713 5fbb 3bd9 7ebc d981 7cbc

hidden_layers.1.weight f4 [20, 20]
-0.21732774 0.5006709 0.017342383 0.5257562 0.6476685 -0.3403373 -0.49913198 0.5423531
0.5134614 -0.47400928 -0.033256978 -0.6149672 -0.5129367 0.09201065 0.1765843 0.16051547
-0.19488421 0.5806617 0.114627026 -0.35709652 -0.041104723 0.16498919 0.22939512 -0.45384413
0.24609038 -0.33439502 -0.54092085 -0.35764658 0.6268657 0.54125774 0.5745172 0.36556652
0.4806861 -0.08197104 -0.350391 0.33084756 -0.33952567 -0.430793 -0.20173094 0.14377683
0.32005894 -0.23571761 -0.36567485 0.09982691 -0.36556002 -0.43031266 0.32352945 -0.09247531
0.60356796 0.5998738 0.21272755 0.2438167 0.16017844 0.016875755 -0.031120522 0.025105344
0.2054318 0.6099024 -0.1554207 -0.269572 -0.1650126 -0.29957867 0.11867571 0.48991773
0.5143165 0.28816256 -0.48424107 -0.35264823 -0.1317207 -0.13070491 0.05604847 -0.5986554
0.19512494 -0.48562774 -0.39683753 -0.5253366 0.5400484 -0.5994549 0.49543956 -0.016042667
-0.078290455 0.39631176 -0.057287414 0.41128683 0.46792993 -0.56398994 0.24596924 0.12568039
0.13835488 0.11556263 0.17403652 -0.29744968 -0.08538763 0.61342853 0.43008694 -0.026016066
-0.6014824 0.02338641 -0.43609366 0.53312176 -0.4097779 -0.02843892 -0.12529147 0.13483149
0.62572235 0.045063313 0.35738212 0.50352216 0.536366 -0.22298323 -0.12923966 0.32992294
-0.17359494 0.3120178 -0.124576464 -0.41878766 0.22786745 0.11354318 0.30556047 0.6555673
0.44583786 0.6043344 0.03066312 -0.55947983 -0.45788282 -0.3958291 -0.56387454 -0.3227994
-0.5988922 -0.585693 -0.38690206 -0.6244215 -0.38835123 0.24333592 0.5332338 -0.19939007
-0.1708199 0.3401844 -0.3234235 -0.3100544 0.39771962 -0.5640035 0.08703317 0.5698868
0.1176567 0.17855215 -0.37959197 0.01650596 0.04686435 0.1218151 0.29378358 0.5812021
-0.4628239 0.011272053 -0.3101435 -0.5042053 -0.06366862 -0.5713004 0.44959652 0.067514904
-0.3376019 0.32472017 -0.6186574 -0.26125047 -0.1365571 -0.54119384 -0.40183747 -0.11474404
0.4859357 0.6257856 0.39844987 -0.40278655 -0.44332325 0.55766606 0.2219707 0.0049086055
0.1187624 -0.5255552 -0.22559144 0.620872 -0.14927694 -0.0300996 -0.53810066 -0.36663648
-0.017620048 -0.3960628 -0.07053576 0.27159756 -0.63117415 0.19310233 -0.42039126 -0.31855288
0.24910118 0.49262136 -0.17624551 -0.26818207 -0.5905124 -0.33932704 -0.57439774 -0.1398342
0.12055089 -0.5944165 0.5749758 0.41618425 -0.6213588 -0.3196273 0.19938473 -0.14243093
-0.05815697 -0.29712227 0.5057309 -0.35961324 0.5199089 0.053142156 0.14201334 0.5145956
-0.08703136 -0.35538432 -0.0932875 0.53295827 -0.46733794 0.13660122 -0.6455582 0.3262413
0.2276068 0.03971994 0.2885544 0.013391406 0.34582636 -0.4986578 -0.08901319 0.28716496
0.6579424 0.32168555 -0.47974327 0.48576194 -0.14973801 -0.14980716 -0.598311 -0.11556824
0.4603221 0.0970807 -0.38017184 0.19389194 -0.20801388 0.5956781 -0.5569452 -0.19271447
-0.62946856 -0.24883516 0.20977296 0.61894816 0.13384384 0.6364337 0.1276799 0.37288168
00000000: 2a8b 5ebe f82b 003f 9d11 8e3c f597 063f
00000010: 9acd 253f b140 aebe 3a8e ffbe a7d7 0a3f
00000020: 3572 033f 58b1 f2be 7838 08bd 7e6e 1dbf
00000030: d24f 03bf 1470 bc3d 84d2 343e 2b5e 243e
00000040: ba8f 47be 3fa6 143f 93c1 ea3d 5bd5 b6be
00000050: 6d5d 28bd edf2 283e 8ee6 6a3e 425e e8be
00000060: 1eff 7b3e d335 abbe ca79 0abf 741d b7be
00000070: 457a 203f de8f 0a3f 8f13 133f 892b bb3e
00000080: 7d1c f63e 6fe0 a7bd 7366 b3be da64 a93e
00000090: 4fd6 adbe e690 dcbe 8e92 4ebe 3c3a 133e
000000a0: c4de a33e f55f 71be bc39 bbbe 0d72 cc3d
000000b0: af2a bbbe f151 dcbe a7a5 a53e b263 bdbd
000000c0: 6e83 1a3f 5491 193f 40d5 593e 16ab 793e
000000d0: d105 243e 063f 8a3c 77f0 febc b9a9 cd3c
000000e0: b75c 523e 9022 1c3f 9b26 1fbe 5705 8abe
000000f0: 10f9 28be 6062 99be 400c f33d 7fd6 fa3e
00000100: 3faa 033f 0b8a 933e 72ee f7be 4f8e b4be
00000110: cbe1 06be 82d7 05be 1593 653d 7b41 19bf
00000120: d5ce 473e 33a4 f8be 4a2e cbbe 767c 06bf
00000130: 9d40 0a3f e075 19bf 41aa fd3e e96b 83bc
00000140: bf56 a0bd 60e9 ca3e 35a6 6abd 3094 d23e
00000150: 8394 ef3e a561 10bf 5cdf 7b3e 5cb2 003e
00000160: e7ac 0d3e 1aac ec3d a136 323e 534b 98be
00000170: b6df aebd a709 1d3f 5b34 dc3e a51f d5bc
00000180: c0fa 19bf db94 bf3c ab47 dfbe ab7a 083f
00000190: 69ce d1be bdf8 e8bc 684c 00be 4411 0a3e
000001a0: 572f 203f 4f94 383d cafa b63e d4e6 003f
000001b0: 484f 093f b755 64be 6757 04be a9eb a83e
000001c0: dfc2 31be ccc0 9f3e f221 ffbd 566b d6be
000001d0: 1656 693e 5489 e83d 6c72 9c3e 42d3 273f
000001e0: dc44 e43e a9b5 1a3f 3931 fb3c 123a 0fbf
000001f0: 9e6f eabe 1daa cabe 155a 10bf f745 a5be
00000200: 0051 19bf faef 15bf 0718 c6be 16da 1fbf
00000210: f9d5 c6be 0d2d 793e 0382 083f e92c 4cbe
00000220: 69eb 2ebe a62c ae3e c497 a5be 73bf 9ebe
00000230: e8a1 cb3e 8962 10bf 723e b23d 1ae4 113f
00000240: fff5 f03d 60d6 363e e159 c2be 8237 873c
00000250: d5f4 3f3d 327a f93d cd6a 963e a9c9 143f
00000260: 41f7 ecbe 6bae 383c 21cb 9ebe 9913 01bf
00000270: b264 82bd be40 12bf 8431 e63e 4145 8a3d
00000280: 28da acbe b941 a63e 5560 1ebf 9fc2 85be
00000290: a0d5 0bbe ae8b 0abf a4bd cdbe ecfe eabd
000002a0: 90cc f83e 7c33 203f 9f01 cc3e 0a3a cebe
000002b0: 44fb e2be 34c3 0e3f 4a4c 633e 5ed8 a03b
000002c0: b339 f33d c98a 06bf 7101 67be 78f1 1e3f
000002d0: 0edc 18be 7093 f6bc f7c0 09bf c7b7 bbbe
000002e0: eb57 90bc bec8 cabe 0d75 90bd d60e 8b3e
000002f0: a194 21bf 9ebc 453e 863d d7be 5d19 a3be
00000300: 6114 7f3e de38 fc3e b479 34be 294f 89be
00000310: d22b 17bf 46bc adbe bb0b 13bf b230 0fbe
00000320: 63e3 f63d ae2b 18bf 9d31 133f 1a16 d53e
00000330: 5f11 1fbf 31a6 a3be 832b 4c3e 6ad9 11be
00000340: 0136 6ebd 6920 98be 9577 013f 3a1f b8be
00000350: c018 053f 97ab 593d f26b 113e 8abc 033f
00000360: 7f3d b2bd eff4 b5be 840d bfbd f46f 083f
00000370: eb46 efbe 31e1 0b3e 4d43 25bf 1a09 a73e
00000380: c211 693e 60b1 223d 67bd 933e a167 5b3c
00000390: 2710 b13e 1350 ffbe 8c4c b6bd 4907 933e
000003a0: ea6e 283f f8b3 a43e e9a0 f5be cab5 f83e
000003b0: ec54 19be 0c67 19be e92a 19bf 0baf ecbd
000003c0: 57af eb3e 3fd2 c63d e2a5 c2be 9c8b 463e
000003d0: 9701 55be 5c7e 183f f693 0ebf f156 45be
000003e0: da24 21bf a5ce 7ebe b9ce 563e 6373 1e3f
000003f0: 5c0e 093e 52ed 223f 85be 023e 59ea be3e

hidden_layers.1.bias f4 [20]
-0.021356417 -0.0043829354 -0.011678064 -0.008393611 -0.004009435 -0.01792295 0.0049344134 0.0013978934
0.010305052 0.0098931305 -0.011100804 0.011650927 0.003938046 -0.0028251268 -0.017945984 0.0033777447
-0.017776797 -0.0061685387 -0.014616477 0.031199954
00000000: a7f3 aebc ba9e 8fbb 5a55 3fbc 5b85 09bc
00000010: 9461 83bb 27d3 92bc dcb0 a13b 8539 b73a
00000020: 85d6 283c cc16 223c 26e0 35bc 88e3 3e3c
00000030: b90a 813b c325 39bb 7503 93bc 275d 5d3b
00000040: a5a0 91bc 7421 cabb f379 6fbc 0c97 ff3c

hidden_layers.2.weight f4 [20, 20]
0.20384292 -0.6241855 -0.4804028 -0.58645505 -0.17818874 -0.2179128 0.10048589 -0.14179341
0.3222725 0.5731215 0.22113892 -0.29018378 -0.6599493 0.21706894 -0.2997696 0.3381489
0.4128596 0.23260136 0.6241672 0.5922449 0.14732665 -0.4604576 0.5646754 -0.3243384
-0.29443553 0.54780227 0.51395327 0.1767617 0.04775589 -0.55364746 -0.074703805 0.6281081
0.14746848 0.045223266 -0.120538816 -0.24276745 0.37449056 0.028926006 0.4297239 -0.1226871
0.27423054 0.26047567 0.1194715 0.43479005 0.40007392 0.59657377 0.48068509 -0.14383312
-0.54481834 0.1273433 -0.008534497 -0.19545542 -0.1088719 0.03679034 0.46038464 0.23732615
-0.22104044 -0.25088796 -0.16809058 -0.24832064 0.56437737 0.31480527 0.59035695 0.017180165
0.113446504 0.21040079 -0.6221238 0.07600497 -0.06002631 -0.34583476 -0.49887973 0.58148223
0.5350935 0.3162789 0.5957576 -0.26275066 -0.09672173 0.26030186 -0.121709056 -0.114891164
-0.52662134 0.17893462 -0.40161574 0.0140396245 0.6368883 -0.19301978 -0.18890518 0.37812912
-0.22995178 -0.062120676 0.59690756 -0.25635096 -0.47287196 -0.36825162 -0.1666487 -0.31970116
-0.3416102 0.25250247 0.116111994 -0.21044862 -0.49410465 -0.19736858 -0.28175786 -0.22383241
-0.5749496 0.14466156 -0.46272138 -0.5147894 -0.52254105 0.26222742 -0.3991379 -0.24692139
0.49723744 0.33569673 0.37863597 -0.6367329 -0.47002786 -0.25216767 0.5400001 0.060345404
-0.4875789 -0.0049242554 -0.4888599 -0.1274598 -0.18381335 0.557125 0.17030814 -0.09384405
0.10408182 -0.18239142 0.24664423 0.24839701 0.18888079 -0.24735422 0.52942127 -0.08313449
-0.24764849 0.41287646 0.5231759 0.6413783 0.20218612 -0.20853046 0.3152359 0.5411377
-0.62240195 -0.07036079 -0.430182 0.10757689 0.2763716 -0.1443872 -0.06102067 0.30371657
-0.11344188 -0.55252767 0.52842593 -0.34555763 -0.0816715 0.049679596 -0.028301911 -0.61667466
0.299652 -0.2909153 -0.32815188 0.1492524 -0.33583176 -0.29303592 -0.24163589 -0.22633016
-0.26930317 -0.17989723 0.166555 -0.5283035 -0.35943323 0.003506458 0.08128792 0.35272917
-0.45936084 0.19674739 0.37388197 0.35328037 -0.60605043 -0.25310847 -0.5348255 -0.38319954
0.35465544 -0.0975471 0.25872567 -0.3591507 0.10089389 -0.38549018 0.31677774 -0.3112606
-0.15771592 -0.5569842 -0.009892715 0.64943147 0.3183152 -0.33513984 0.0048825084 -0.069389075
-0.50944865 0.51650214 -0.007047804 0.122036874 -0.25062454 -0.29264238 0.11627663 0.22534758
0.152603 -0.32167333 0.61941576 -0.061000723 -0.39137566 -0.31163913 0.6471894 -0.0369304
-0.09831591 -0.2802987 -0.1588725 -0.55238307 -0.4997759 0.3816737 0.5629986 0.56788075
-0.45671472 0.35897267 -0.394545 0.36713198 0.47078836 0.48108795 0.45614028 0.38982674
0.008868724 0.2732531 -0.2259856 0.26436254 -0.22561464 -0.03695558 -0.5392267 -0.17869458
-0.34762815 -0.22510606 -0.40062055 -0.56827915 0.034148935 0.4140846 0.56758285 0.3941386
-0.3419702 -0.6301621 0.25038937 0.35736808 -0.5420393 0.23992172 0.53184146 0.051261943
00000000: 33bc 503e 9fca 1fbf 5bf7 f5be eb21 16bf
00000010: 1c77 36be 8824 5fbe 8ccb cd3d 4b32 11be
00000020: e700 a53e 17b8 123f 3e72 623e f892 94be
00000030: 70f2 28bf 5247 5e3e 677b 99be da21 ad3e
00000040: 5562 d33e 0d2f 6e3e 6cc9 1f3f 5d9d 173f
00000050: ccdc 163e 19c1 ebbe 918e 103f af0f a6be
00000060: 41c0 96be c53c 0c3f 7192 033f 0501 353e
00000070: ae9b 433d d7bb 0dbf 4ffe 98bd b1cb 203f
00000080: fa01 173e 083c 393d 0edd f6bd 0898 78be
00000090: 3abd bf3e 3bf6 ec3c c504 dc3e 6043 fbbd
000000a0: f267 8c3e 115d 853e 79ad f43d cd9c de3e
000000b0: 7dd6 cc3e 0fb9 183f 5b1c f63e fd48 13be
000000c0: 3779 0bbf 4866 023e 46d4 0bbc 7725 48be
000000d0: 3bf8 debd 78b1 163d 89b7 eb3e a005 733e
000000e0: 6d58 62be 6374 80be f01f 2cbe c447 7ebe
000000f0: 097b 103f 282e a13e a221 173f 6bbd 8c3c
00000100: a456 e83d 4e73 573e 8143 1fbf 7ea8 9b3d
00000110: 26de 75bd 4111 b1be 2a6d ffbe 05dc 143f
00000120: e3fb 083f 4fef a13e 9283 183f 4187 86be
00000130: 0b16 c6bd 4946 853e 9942 f9bd 0f4c ebbd
00000140: a8d0 06bf a33a 373e 94a0 cdbe 7406 663c
00000150: 1d0b 233f faa6 45be 5c70 41be 249a c13e
00000160: 7b78 6bbe 4072 7ebd efce 183f 6f40 83be
00000170: 461c f2be 7a8b bcbe f5a5 2abe dfaf a3be
00000180: 88e7 aebe 0148 813e 20cc ed3d d87f 57be
00000190: 49fb fcbe fd1a 4abe 9142 90be 5334 65be
000001a0: e62f 13bf 2922 143e d1e9 ecbe 3dc9 03bf
000001b0: 40c5 05bf ac42 863e ce5b ccbe f6d8 7cbe
000001c0: e895 fe3e 71e0 ab3e 93dc c13e ed00 23bf
000001d0: 7ea7 f0be 1f1c 81be 723d 0a3f be2c 773d
000001e0: f1a3 f9be a65b a1bb d84b fabe d284 02be
000001f0: 9139 3cbe be9f 0e3f 4265 2e3e 4f31 c0bd
00000200: d928 d53d d1c4 3abe 4e90 7c3e c95b 7e3e
00000210: f769 413e 6d4a 7dbe 2788 073f 6a42 aabd
00000220: 9197 7dbe 8b64 d33e dbee 053f 5e31 243f
00000230: e109 4f3e 0289 55be 9a66 a13e 0088 0a3f
00000240: bc55 1fbf 5119 90bd d140 dcbe 4651 dc3d
00000250: 9480 8d3e 3dda 13be cff0 79bd bd80 9b3e
00000260: 3754 e8bd 7472 0dbf ec46 073f eeec b0be
00000270: 6343 a7bd d57c 4b3d 69d9 e7bc 64de 1dbf
00000280: fd6b 993e daf2 94be 8603 a8be 9fd5 183e
00000290: 24f2 abbe ce08 96be 666f 77be 18c3 67be
000002a0: 1be2 89be fb36 38be 658d 2a3e e63e 07bf
000002b0: a207 b8be 9acc 653b 487a a63d eb98 b43e
000002c0: 5831 ebbe 2678 493e 756d bf3e 2ae1 b43e
000002d0: 1f26 1bbf 6f97 81be 53ea 08bf bb32 c4be
000002e0: 6695 b53e c6c6 c7bd b177 843e 9ae2 b7be
000002f0: 75a1 ce3d f85e c5be b130 a23e 8d5d 9fbe
00000300: 4880 21be 8496 0ebf 0e15 22bc 2441 263f
00000310: 36fa a23e 7397 abbe 73fd 9f3b dc1b 8ebd
00000320: 3a6b 02bf 7c39 043f 44f1 e6bb 78ee f93d
00000330: dc51 80be 39d5 95be 7122 ee3d 84c1 663e
00000340: f643 1c3e 5eb2 a4be 0892 1e3f e5db 79bd
00000350: 6462 c8be 2a8f 9fbe 34ae 253f 5544 17bd
00000360: da59 c9bd 5083 8fbe 79af 22be fa68 0dbf
00000370: a0e2 ffbe bc6a c33e ad20 103f a260 113f
00000380: 83d6 e9be 44cb b73e cd01 cabe b9f8 bb3e
00000390: 2c0b f13e 2951 f63e 388b e93e 5f97 c73e
000003a0: 204e 113c d5e7 8b3e c568 67be 875a 873e
000003b0: 8607 67be bc5e 17bd c30a 0abf b6fb 36be
000003c0: 51fc b1be 3482 66be 231e cdbe be7a 11bf
000003d0: c1df 0b3d e602 d43e 1c4d 113f 89cc c93e
000003e0: b816 afbe 4e52 21bf 0933 803e f3f8 b63e
000003f0: 16c3 0abf 0aae 753e c326 083f 0bf8 513d

hidden_layers.2.bias f4 [20]
-0.016903892 -0.009350635 0.0021085313 0.01547874 -0.0066210055 -0.006786631 0.0036180452 -0.010271041
-0.0023660876 0.0028948835 -0.009628643 -0.00838321 0.0063632503 -0.004609095 0.00828099 -0.0005782872
-0.010094356 -0.00055192236 0.007741304 -0.010171743
00000000: 087a 8abc 6833 19bc 492f 0a3b 8b9a 7d3c
00000010: 05f5 d8bb 6362 debb ba1c 6d3b de47 28bc
00000020: 5d10 1bbb 16b8 3d3b 75c1 1dbc bb59 09bc
00000030: d082 d03b e407 97bb fdac 073c 3298 17ba
00000040: cc62 25bc e2ae 10ba c4aa fd3b 62a7 26bc

output_layer.weight f4 [3, 20]
-0.430796 -0.05065469 0.1457503 -0.24080858 0.5764288 0.07845925 -0.801397 -0.1097718
-0.37948895 0.071815915 -0.10145979 -0.8256752 -0.14241101 -0.0626886 -0.23028448 0.7975531
-0.18204384 0.5124522 0.22484596 -0.7059806 0.19276902 0.7114861 -0.54700524 -0.54327965
0.8311467 0.68747544 -0.46251014 0.51824003 -0.10454239 -0.82542247 0.0772942 0.2614702
-0.23699082 0.28539354 -0.7146365 0.5808109 0.71250665 0.47558257 0.13450766 0.27360785
-0.7175028 -0.10346493 0.012528968 -0.37017983 -0.5277619 0.59976184 0.6806609 -0.6781692
0.37405673 0.24401154 0.9112362 0.38528988 0.8891537 -0.37787437 0.585256 0.5951
-0.70895267 -0.5842549 0.071918875 0.5692061
00000000: 4b91 dcbe 4b7b 4fbd 913f 153e 8696 76be
00000010: d690 133f 3eaf a03d 5b28 4dbf 0ad0 e0bd
00000020: 604c c2be 3914 933d 26ca cfbd 735f 53bf
00000030: 31d4 11be e162 80bd b2cf 6bbe 712c 4c3f
00000040: b369 3abe 1130 033f 053e 663e 25bb 34bf
00000050: 3e65 453e f423 363f 8908 0cbf 6014 0bbf
00000060: 08c6 543f 64fe 2f3f 21ce ecbe 61ab 043f
00000070: 521a d6bd e34e 53bf 6c4c 9e3d 6cdf 853e
00000080: b9ad 72be 1a1f 923e 6bf2 36bf 06b0 143f
00000090: d666 363f 8f7f f33e 60bc 093e 5416 8c3e
000000a0: 43ae 37bf 6ce5 d3bd 4d46 4d3c 3688 bdbe
000000b0: 671b 07bf fe89 193f cb3f 2e3f 7f9c 2dbf
000000c0: 5d84 bf3e 29de 793e c746 693f b744 c53e
000000d0: 949f 633f c078 c1be 56d3 153f 7958 183f
000000e0: ec7d 35bf bb91 15bf 344a 933d 7eb7 113f

output_layer.bias f4 [3]
0.015853364 -0.008556499 -0.09780349
00000000: eade 813c 8f30 0cbc 324d c8bd
