results/ADAM_sqloss.pt (torch, 9143 bytes, 10 tensors)

input_layer.weight f4 [20, 3]
000000 22 03 29 3f a7 a9 36 3f d1 d1 43 be 06 9f 45 3f
       0.66020405 0.7135262 -0.19123007 0.77195776
000010 cf 07 46 be bf 5e 2a 3e e8 ea d0 be 08 e8 01 3f
       -0.19338916 0.16637705 -0.4080422 0.50744677
000020 92 3e 41 3f f2 2c 22 bf 1f 0e 3b 3f 3c 5a 19 3e
       0.754861 -0.6334983 0.7306842 0.14975828
000030 c9 7c 1e 3f b7 bb d7 3d 0d 21 cd 3e aa a9 00 be
       0.6190916 0.10533851 0.40064278 -0.12564722
000040 d4 b3 25 3f 97 b9 f3 3d 35 80 c6 be 9a 91 67 3e
       0.6472752 0.11900633 -0.3876969 0.22614136
000050 18 a7 c5 be f8 45 b8 bd 9b 0c b3 be 9b bf 0f 3f
       -0.38604045 -0.089977205 -0.34970555 0.5615174
000060 b4 8e 2b bf 7c ad c5 be 16 dd 7c be 63 9f 05 bf
       -0.6701462 -0.3860892 -0.24693713 -0.5219633
000070 bc d2 8f 3d c2 a5 54 bf c9 08 43 3f 58 c8 39 bf
       0.07022616 -0.83065426 0.7618528 -0.72571325
000080 0d b3 27 3f 7d b8 18 3e 02 24 89 be 5c d4 08 3f
       0.65507585 0.14914127 -0.26785284 0.53449035
000090 88 ea 00 3e 14 7b 2d 3f 5b 1c bf 3d f1 87 8e be
       0.12589467 0.6776593 0.0933158 -0.2783809
0000a0 d6 ef 5f 3e fa ba 76 be 4c 9c bc 3e 42 25 45 3f
       0.21868834 -0.24094763 0.36837995 0.77009976
0000b0 45 c4 f6 3e 7d da ba be 66 ff fe 3e 6a 4a 12 3e
       0.48196617 -0.36494818 0.4980423 0.14286199
0000c0 dd 6e db 3e 51 75 06 bf 13 82 55 bf b1 7c ad be
       0.4285802 -0.5252276 -0.834016 -0.33884194
0000d0 b6 83 25 bf 31 06 32 3f 94 b8 82 3e a6 55 b9 3e
       -0.646541 0.695407 0.25531447 0.36198157
0000e0 8a d4 8e 3e 21 ab dc bb a6 11 28 3f 69 3e 1d bf
       0.2789653 -0.0067342673 0.6565193 -0.61423355

input_layer.bias f4 [20]
000000 32 a5 f6 3b f3 58 22 bc db e8 d1 3b f6 46 16 bc
       0.007527017 -0.009908902 0.0064059324 -0.009172192
000010 d5 7a 23 bc b3 af ee bb 86 38 85 bb 4d 63 da 3b
       -0.009978016 -0.0072841286 -0.004065576 0.0066646696
000020 35 6e 99 bb 50 00 26 bc 39 6f 19 3c 23 64 15 3c
       -0.004682327 -0.01013191 0.009364896 0.009118113
000030 1c ac 25 bc 69 ce 24 bc 17 8d 5d 3b 87 aa e2 3b
       -0.010111835 -0.010058978 0.003380602 0.006917301
000040 cd e9 a8 ba f4 4c 20 3c 85 8d 0e 3c 7b 8a 11 3c
       -0.0012887061 0.009783972 0.008700733 0.008883114

hidden_layers.0.weight f4 [20, 20]
000000 f2 1b 4f 3d 9a 89 dc be ab e0 55 3e d5 a1 59 be
       0.05056376 -0.43073732 0.20886485 -0.2125314
000010 71 b2 54 3e 38 05 ff bd 67 83 06 3f fc dc be be
       0.20771195 -0.12452167 0.52544254 -0.37277973
000020 98 2f ca be 69 32 ca be 5b 2c 12 3f 9c 09 66 3e
       -0.39489436 -0.39491585 0.5709893 0.22464603
000030 90 8c 21 3f c5 e3 09 bf 74 5d 21 bf 4b 84 fd be
       0.63105106 -0.53863174 -0.63033223 -0.49514994
000040 e9 5d e3 be 4c 97 84 3e ed d7 76 3e 39 9c 09 3f
       -0.44407585 0.2589668 0.24105807 0.53754
000050 a6 c5 af be 42 6e e6 be e2 4e b4 3e 17 73 80 be
       -0.3433048 -0.45005995 0.35216433 -0.25087807
000060 1c 7d c3 3e 88 7d 25 be df 30 c2 3e f2 c3 fb be
       0.38181388 -0.16161168 0.3792791 -0.49172932
000070 0c b0 a1 be 4c b2 53 3e 03 78 01 3e 2d af 32 be
       -0.31579626 0.20673484 0.12643437 -0.17449637
000080 c9 e6 bf 3e 1e d0 e5 3e 1f c3 f4 be 0d 4f ab be
       0.37480763 0.44885343 -0.47805116 -0.33458748
000090 d2 ce 14 3f 7d d0 54 be 30 86 74 be cb 54 1d bf
       0.5812808 -0.20782657 -0.23879313 -0.6145751
0000a0 a0 44 b8 be f5 22 2f 3e c2 81 9a bd de e5 ea be
       -0.35989857 0.17103179 -0.075442806 -0.458785
0000b0 ae fb cb 3c ba c1 dc be 32 b0 0e bf 65 96 b7 be
       0.024900284 -0.43116552 -0.557376 -0.3585693
0000c0 ed 1f 13 bf 59 6f d7 be 3e a1 22 3f 3a 08 05 3e
       -0.5747059 -0.4207714 0.63527286 0.1299142
0000d0 f9 ae 55 3e c8 94 1c bf 45 10 d4 be 18 04 52 be
       0.20867528 -0.6116452 -0.41418663 -0.20509374
0000e0 07 bc ba 3d 82 db 13 bf 93 67 89 be 1c 56 c1 be
       0.091178946 -0.5775682 -0.26836833 -0.3776101
0000f0 25 b2 15 3c a7 6c 6e be a7 2d 3c bd ad 9b dc be
       0.009136711 -0.23283635 -0.045941975 -0.4308752
000100 6a 16 df be a6 48 bd be 8e b7 69 be 8a 9b 04 bf
       -0.43571788 -0.3696949 -0.22823927 -0.51799834
000110 73 ac 08 3f 5d b2 0a be ec 0d 10 3f 62 35 4f 3e
       0.53388137 -0.13544603 0.56271243 0.20235208
000120 cd 0c 0a bf 55 e8 e0 3e d6 57 2e be 53 e9 75 be
       -0.5392578 0.43927255 -0.17025694 -0.24014787
000130 32 67 08 bf 9f 35 26 bf 00 a4 44 3e 99 a7 07 be
       -0.53282464 -0.6492557 0.19203186 -0.13247527
000140 d5 be 83 3e 51 fd 05 bf e1 3c f9 3e c2 ba f4 be
       0.2573153 -0.52339655 0.4867926 -0.47798735
000150 e4 f6 d7 bd 81 65 0d 3e 77 95 a7 3e e1 01 03 3f
       -0.105451375 0.13808252 0.3273122 0.5117474
000160 c5 fe 14 3f 42 8e 04 bf d0 a3 2a 3e ed 39 8b be
       0.5820125 -0.5177957 0.16664052 -0.2719263
000170 94 90 84 bd 5e 4f fa be 23 0e 18 3f 64 5e f4 be
       -0.064728886 -0.48888677 0.5939657 -0.47728264
000180 2f b7 ac 3e 72 8c 5f 3e fc f1 5c 3e 34 2c ae be
       0.33733508 0.2183092 0.21576685 -0.340181
000190 48 06 18 3f e8 5b 18 3e fd 45 9c 3d ef db 12 bf
       0.59384584 0.1487881 0.07630537 -0.5736684
0001a0 d0 61 8e 3e bb 1b c1 bd 38 ea 9a be 5e de 0c 3f
       0.27809 -0.09429117 -0.3025682 0.55026805
0001b0 04 14 0c 3e 4e 6a ba be dc 78 a4 be a7 51 e8 bc
       0.1367951 -0.3640923 -0.32123458 -0.028359247
0001c0 f3 2d bc 3e 5c fa 2f be 75 ed b8 be 3b cc 65 be
       0.36753806 -0.17185348 -0.36118665 -0.22441189
0001d0 6c 3f f3 be 46 6c 64 3e ea ba 01 3f c9 e1 19 bf
       -0.47509325 0.22306928 0.50675833 -0.60110146
0001e0 d9 8e 1f 3e cc e2 ad 3e 0d b5 fb 3d 4c d1 64 be
       0.15581836 0.33962095 0.12290392 -0.22345465
0001f0 22 86 af 3e 02 b1 b1 3e 87 0d 71 3e 24 cf fa bd
       0.34282023 0.3470536 0.23540317 -0.1224654
000200 9e 14 35 be ef 51 81 3d dd b7 db bd 09 05 40 be
       -0.17683646 0.06314456 -0.107284285 -0.18751921
000210 c8 47 d6 3e 7d 65 0c 3f b0 8b 6d bd 92 ed 0c be
       0.4185164 0.5484236 -0.057994545 -0.13762501
000220 5e ec 43 3b 4b 82 29 bd a0 f5 24 3e 81 88 40 3e
       0.0029895524 -0.041384023 0.16109324 0.18802072
000230 c2 a5 13 bf fe 43 6a be cb ab 0d 3f 43 e7 7b 3e
       -0.576748 -0.228775 0.5534026 0.24599938
000240 1c f0 b8 bc bb 71 c2 be 7a 13 cf be 5d 5f 15 bf
       -0.02257543 -0.37977394 -0.40444547 -0.5834864
000250 67 37 61 be 2b 77 55 3e 6a 2f d7 3e b2 8c 9d 3e
       -0.2199379 0.2084624 0.42028362 0.30771405
000260 37 a1 0f bf 3d 92 cb be d5 1c bd bd 5c 96 20 3f
       -0.5610537 -0.39760008 -0.09234015 0.6272943
000270 68 8f ab 3d b2 23 35 be 29 9c 8d 3e de 19 72 be
       0.08376962 -0.17689398 0.27658203 -0.2364268
000280 58 67 d5 be 16 e3 f1 3e f8 44 93 be 85 e0 fa bd
       -0.41680408 0.47243565 -0.28763556 -0.12249855
000290 86 22 24 bf e7 3b de 3e 47 e8 f9 3e 2a 22 77 3e
       -0.6411518 0.43405077 0.48810026 0.24134126
0002a0 fa f3 e6 be 8f 52 23 bf 7e 48 05 bf 61 b8 f7 3e
       -0.45108014 -0.6379785 -0.5206374 0.48382857
0002b0 0b 2e 9f 3e 0f 5d 0a 3f c7 a4 ad 3e d4 0a 2e 3e
       0.31089815 0.54048246 0.33914778 0.16996318
0002c0 72 ac 43 bc e7 43 fc be 52 53 0d bf 5b bb 18 bf
       -0.01194297 -0.49270555 -0.5520526 -0.5966088
0002d0 ec 44 85 3e d6 19 a4 be 43 88 01 be 48 6d ba be
       0.26029146 -0.3205096 -0.12649636 -0.364115
0002e0 96 fc f8 bd 70 62 ea be 58 10 d6 be b8 ba 64 3e
       -0.12157552 -0.45778227 -0.41809344 0.22336853
0002f0 f0 65 40 be 67 f9 cd 3e 02 3f 4c be 28 da ef be
       -0.18788886 0.4022934 -0.1994591 -0.46846128
000300 fc 52 f1 bd 1b a9 9f be 16 45 4e be 79 25 1b bf
       -0.11783406 -0.31183705 -0.20143542 -0.60604054
000310 79 fd b7 3e 9b f0 e3 be 38 17 a4 3e 06 79 94 3e
       0.35935572 -0.44519505 0.32048965 0.28998584
000320 1f bb ea 3e 0a e1 fe be 01 48 f2 3e ca 92 97 be
       0.45845887 -0.49781066 0.4732056 -0.2960418
000330 3c 7f 72 3e a3 9b 1d 3f 87 e0 b4 bd 60 6b 8c 3b
       0.23681349 0.6156561 -0.08831888 0.004285261
000340 b6 67 15 be a5 48 09 bf c4 e6 9b 3e 4b b0 24 bf
       -0.14590344 -0.5362647 0.30449498 -0.643315
000350 53 c8 cb 3e 82 e2 f8 3e d5 94 1b 3f 5a 90 12 be
       0.39801273 0.48610312 0.60773975 -0.14312878
000360 55 ff 09 bf 6b 37 18 3e b4 2f b5 3e b3 2e 22 bf
       -0.5390523 0.1486489 0.35387957 -0.6335251
000370 cb 38 0c be 91 73 c1 be 30 3b 3e bd 18 8c 9d be
       -0.1369354 -0.37783483 -0.046443164 -0.30770946
000380 fc 32 82 be e7 0d 48 be ad 77 1f bf 33 2d 0a 3f
       -0.25429523 -0.19536553 -0.62291986 0.5397522
000390 70 15 08 3f 1a f6 e2 bd 70 e4 91 bd 55 e0 81 be
       0.5315771 -0.110820964 -0.07123649 -0.25366464
0003a0 be c7 12 bf fb 17 22 bf 7a 74 7f 3e 41 4e b0 be
       -0.5733603 -0.6331784 0.24946776 -0.34434703
0003b0 57 9d d9 be 56 07 40 bd eb 52 52 be 4e 7b 5e be
       -0.42502853 -0.046881996 -0.20539443 -0.21726725
0003c0 2d d5 f6 3c 1f d5 02 be 3c ed 59 be 8a fd a1 be
       0.030130947 -0.12776612 -0.21281904 -0.31638747
0003d0 41 14 04 bf 95 d3 0c 3f ba 0e 89 be f1 59 33 3e
       -0.51593405 0.5501035 -0.26769048 0.17514779
0003e0 97 f4 6e be 6b 64 30 3d 2b 0e 1c 3f 35 fa 9c 3e
       -0.23335491 0.043064516 0.6095912 0.30659643
0003f0 c5 cc 0c bf 8a 2c 7d 3e 74 43 1f 3f 7b 9e 24 3e
       -0.54999954 0.24724022 0.622123 0.1607608

hidden_layers.0.bias f4 [20]
000000 1e 8c 22 3c cd 14 23 bc ea e3 1f 3c 43 d0 f0 3b
       0.009921102 -0.00995369 0.009758929 0.0073490455
000010 4d e7 c4 3b aa 3a e9 3b 48 99 c1 3b de 23 1c 3c
       0.0060090185 0.007117589 0.005908165 0.009530036
000020 66 05 82 3a bb 6d 81 bb 78 6a 31 bb aa af 1c 3c
       0.0009919822 -0.0039498485 -0.0027071517 0.009563366
000030 9a d5 19 3c f7 5f c9 ba e2 ba 18 3c 6b f0 02 3c
       0.0093893055 -0.0015363683 0.0093219 0.00799189
000040 49 60 20 3c 9c c3 80 b8 04 55 07 3c 02 b0 05 3c
       0.009788581 -6.139951e-05 0.008260015 0.008159639

hidden_layers.1.weight f4 [20, 20]
000000 a7 d4 3c bd d1 ac 28 3e 0a ca 5d 3e e0 c2 e4 be
       -0.04610124 0.16472174 0.21659103 -0.44679928
000010 f3 39 6e 3e 86 da ad be 0c b6 0b bf 8d b7 b0 be
       0.23264293 -0.33955783 -0.54574656 -0.34515038
000020 57 f8 20 3f 84 91 0b 3f 97 7d 11 3f 7f e2 c6 3e
       0.62878937 0.54518914 0.5683226 0.38844678
000030 62 e7 f4 3e 3f 29 9e bd 0d 60 b3 be da 4a a1 3e
       0.4783278 -0.07722711 -0.35034218 0.3150242
000040 b1 26 b0 be d3 50 da be f5 3a 4e be 23 f9 10 3e
       -0.3440452 -0.4263979 -0.20139678 0.14157538
000050 27 46 ae 3e 07 38 82 be db d6 bd be 21 ab ab 3d
       0.34037897 -0.2543337 -0.37077984 0.083822496
000060 ee da c6 be cf 1a d6 be 90 3b af 3e 4b 0b d2 bd
       -0.38838905 -0.41817328 0.3422513 -0.1025606
000070 47 c1 14 3f bf 0f 21 3f a4 2e 49 3e 56 fd 5d 3e
       0.5810742 0.6291465 0.19646698 0.21678671
000080 f6 11 0f 3e 3d ed 55 3b e0 d8 42 bd d8 a7 65 ba
       0.13971695 0.0032642626 -0.04757011 -0.00087606674
000090 dd c7 77 3e 22 0f 17 3f 6a 67 23 be b6 a4 90 be
       0.24197336 0.59007466 -0.15957418 -0.28250664
0000a0 96 78 16 be 97 6a a2 be 1c a6 f3 3d 7e df fb 3e
       -0.14694437 -0.31721947 0.11896917 0.49193949
0000b0 4e c0 03 3f 59 9b 9b 3e d1 96 ee be da 46 b6 be
       0.5146531 0.30391958 -0.4659944 -0.3560093
0000c0 c2 2e 1b be c2 72 df bd 24 cd 77 3d 8c a8 17 bf
       -0.15154555 -0.1091056 0.06049837 -0.5924156
0000d0 ea e4 43 3e be ff f6 be 3d f3 cb be 1e 01 07 bf
       0.19130293 -0.4824199 -0.39834014 -0.5273608
0000e0 59 9f 11 3f 21 e7 19 bf 17 ba f4 3e 32 8a 01 bd
       0.5688377 -0.601183 0.47798225 -0.031625934
0000f0 4c 61 92 bd e7 70 cf 3e f7 34 6b bd b9 10 d4 3e
       -0.07147464 0.40515825 -0.057423558 0.41419008
000100 48 58 ea 3e 9a fa 11 bf 8b 34 81 3e 57 95 f4 3d
       0.45770478 -0.5702301 0.252354 0.11942547
000110 13 e3 03 3e ec d7 cc 3d 24 77 30 3e 14 c3 a0 be
       0.1287959 0.10002121 0.17232949 -0.31398833
000120 6e ec a2 bd 3b 97 1f 3f 3a 70 e1 3e 3c 29 a2 bc
       -0.07955252 0.62340134 0.44030935 -0.019795053
000130 b9 e5 19 bf ac 65 c4 3c 3d f9 db be c7 d2 03 3f
       -0.60116154 0.023974262 -0.4296359 0.51493496
000140 f3 7f c3 be e5 d6 67 bd b4 67 08 be 93 1e d8 3d
       -0.38183555 -0.056601424 -0.1332081 0.105527066
000150 ac 24 19 3f 4b 19 92 3d 7b 8f c4 3e db 42 fc 3e
       0.5982158 0.071337305 0.38390717 0.49269757
000160 b4 3e 05 3f fc 43 6e be f0 8f 09 be 12 27 9a 3e
       0.520488 -0.23268121 -0.13433814 0.30107933
000170 28 70 3e be a9 a1 96 3e 82 a1 1a be 6f 2a e5 be
       -0.18597472 0.29420212 -0.15100673 -0.44758937
000180 c7 89 8b 3e 64 65 b8 3d 94 3c 8e 3e 21 7a 24 3f
       0.27253553 0.09003714 0.27780592 0.64248854
000190 3a a6 dd 3e fa 99 1e 3f 00 99 de 3c 32 2a 0c bf
       0.43290883 0.619537 0.027172565 -0.54751885
0001a0 38 28 e4 be 08 40 d1 be 3e a8 13 bf 2c 71 a9 be
       -0.44561934 -0.40869164 -0.5767859 -0.33094156
0001b0 ac 66 16 bf e7 8a 16 bf e7 5a c9 be 69 fa 20 bf
       -0.58750415 -0.588057 -0.39327165 -0.62882096
0001c0 14 9e c6 be 8c d6 75 3e b1 b9 0b 3f 35 af 3c be
       -0.3879248 0.24007624 0.5458022 -0.18426211
0001d0 97 da 47 be a3 35 b4 3e a4 cf a0 be 67 a5 9a be
       -0.19516979 0.35197172 -0.31408417 -0.30204317
0001e0 0a 44 c7 3e b8 26 0e bf 5a f3 8e 3d f0 67 0f 3f
       0.38919097 -0.5552783 0.069800094 0.5601797
0001f0 63 54 ec 3d 19 96 2b 3e ea f6 c4 be 54 93 5c 3a
       0.11539533 0.16756476 -0.3846963 0.00084142876
000200 6d 62 29 3d 52 18 18 3e ef b9 78 3e c6 31 11 3f
       0.04135363 0.14853027 0.24289678 0.56716573
000210 b2 26 f7 be 98 87 4f 3c 40 78 a2 be aa 2f 04 bf
       -0.4827171 0.012666605 -0.31732368 -0.5163523
000220 40 9c 6f bd 8a ff 0e bf a7 61 eb 3e a7 09 ad 3d
       -0.05849862 -0.5585867 0.4597294 0.08449107
000230 1c 43 af be 53 90 aa 3e af 7d 1a bf ed 86 81 be
       -0.34230888 0.33313236 -0.6034803 -0.25298253
000240 c8 f5 07 be ca 53 0c bf fd b7 d0 be 93 17 c9 bd
       -0.13277352 -0.5481535 -0.40765372 -0.098189496
000250 91 ef f6 3e 94 52 1e 3f 6c 82 d3 3e 2e 31 c7 be
       0.4822965 0.61844754 0.41310441 -0.3890471
000260 d8 b2 db be 89 ba 0d 3f a6 19 67 3e cf a1 19 3c
       -0.42909884 0.55362755 0.22568378 0.009376957
000270 28 f5 b9 3d 94 3f 07 bf f0 89 52 be 93 c0 1f 3f
       0.09079963 -0.5283139 -0.20560431 0.6240322
000280 f9 5c 2b be 0f 05 be bc 6f 1c 0b bf 25 b2 b4 be
       -0.16734685 -0.023195772 -0.5434026 -0.35292163
000290 4b ca d9 bb 9e f7 d1 be 7e 1b b5 bd 3d 45 82 3e
       -0.0066464297 -0.4100923 -0.08843134 0.2544345
0002a0 e7 1d 1f bf 83 1a 4d 3e 82 d5 de be ac bb 9c be
       -0.62155 0.20029645 -0.4352227 -0.30611932
0002b0 5f c6 78 3e 6c e2 00 3f b5 e8 2b be f7 a1 8a be
       0.24294423 0.5034549 -0.1678799 -0.27076694
0002c0 ba c4 17 bf 8c 55 af be 6a a0 12 bf 5e 2b 14 be
       -0.59284556 -0.34244955 -0.5727602 -0.14469668
0002d0 d8 11 10 3e 99 55 1d bf fc d0 0d 3f dd 40 ca 3e
       0.14069307 -0.61458737 0.5539701 0.39502612
0002e0 68 50 24 bf 89 ce 98 be ce af 61 3e b2 ee 0e be
       -0.6418519 -0.29845074 0.2203972 -0.13958243
0002f0 2f 2a 77 bd aa 46 9a be 9d 3d 07 3f 3c cc bd be
       -0.060342964 -0.30132037 0.5282839 -0.3706988
000300 14 7c 06 3f a5 29 01 3d 09 8b f5 3d 2c bb fc 3e
       0.5253308 0.031533856 0.119894095 0.4936155
000310 a0 87 c5 bd 04 5f b7 be 76 f1 e9 bd 14 97 08 3f
       -0.09645009 -0.3581468 -0.11423008 0.53355527
000320 84 36 fa be d0 11 20 3e 3e d5 24 bf c6 51 b2 3e
       -0.48869717 0.15631795 -0.6438788 0.34828013
000330 19 49 6a 3e 2c 29 8f 3c ea de 88 3e 65 76 9f bb
       0.22879447 0.017475687 0.2673257 -0.0048664086
000340 fa e5 b9 3e 2d 59 00 bf b7 50 d6 bd 09 8f 97 3e
       0.3630827 -0.5013607 -0.10464614 0.29601315
000350 8c 42 23 3f e9 89 a3 3e 7b 48 eb be 9d 77 f9 3e
       0.6377342 0.31941155 -0.45953736 0.4872407
000360 fd 6f 1d be 78 57 17 be a0 a8 13 bf 29 bd cb bd
       -0.15374751 -0.1477946 -0.57679176 -0.09948189
000370 94 90 e8 3e 91 92 b5 3d bc 04 c4 be ab 9e 47 3e
       0.45422804 0.08865846 -0.38284862 0.19494121
000380 95 84 4e be 1e 9e 18 3f 3d 08 0f bf e3 b5 55 be
       -0.20167764 0.5961627 -0.55871946 -0.20870166
000390 e1 10 1d bf ff fe 82 be d7 8d 52 3e ef c6 1e 3f
       -0.6135388 -0.25585172 0.2056192 0.620223
0003a0 07 73 e1 3d ea 72 1f 3f 64 30 00 3e fd fd bc 3e
       0.11008268 0.6228472 0.1251846 0.36912528
0003b0 e1 8e 04 3f 12 17 0a 3f db 03 be be fd 78 1a 3f
       0.51780516 0.5394145 -0.37112316 0.60340863
0003c0 85 28 ca 3e 03 0b 9e be a1 84 9f be ff 48 09 bf
       0.3948404 -0.30867776 -0.31155875 -0.5362701
0003d0 c7 d3 28 3e 48 7e 03 bf 52 7f 90 3e c8 0e 49 3e
       0.16487037 -0.51364565 0.28222138 0.19634545
0003e0 a2 23 0d bf 28 7d 36 3e ef 9e 31 bd 8f ec 93 3e
       -0.55132496 0.17821181 -0.04336446 0.28891417
0003f0 b3 9d b8 3e 84 86 22 bf 40 30 15 3f b4 f5 0a 3f
       0.36057815 -0.63486505 0.5827675 0.54281163

hidden_layers.1.bias f4 [20]
000000 c0 09 1e bc 80 34 87 3b ae 46 ec 3b 4e 02 95 bb
       -0.009645879 0.0041261315 0.007210574 -0.004547394
000010 b5 69 24 3c 3f ae fa bb 8b 9f ff bb 0e f3 15 3b
       0.010034968 -0.0076501663 -0.0078010014 0.0022880468
000020 63 5d 10 bc 8b 97 20 3c 90 1f 21 bc f0 98 0d 3b
       -0.008811328 0.009801756 -0.009834185 0.002160605
000030 b9 98 e1 3b 0c 9d 79 3b 22 8a 9a bb dd 7d ee bb
       0.006884661 0.0038087992 -0.0047161737 -0.0072781877
000040 2d 40 82 ba e3 a1 e8 bb 6b 98 1d bc dd 33 ca 3b
       -0.0009937339 -0.0070993765 -0.009618859 0.0061707334

hidden_layers.2.weight f4 [20, 20]
000000 bb 46 12 3e c5 40 ec be f7 6f 11 3f 54 84 98 be
       0.14284794 -0.46143165 0.5681147 -0.29788458
000010 ec 3c a1 be 6b 0c 0a 3f 5c 60 fb 3e 39 e1 4f 3e
       -0.31491792 0.539252 0.49096954 0.2030076
000020 dc 14 4c 3d de 11 0d bf 4f bd 6d bd 07 fa 20 3f
       0.04982458 -0.5510539 -0.058041867 0.6288151
000030 f6 d6 22 3e c8 dc 85 3d 04 7c 00 be 06 e3 61 be
       0.15902314 0.06536251 -0.12547308 -0.22059259
000040 89 8a c8 3e 32 93 44 3d 42 1a d2 3e a3 7a fa bd
       0.39168194 0.04799194 0.41035658 -0.12230422
000050 22 00 95 3e 91 92 8d 3e 84 61 bf 3d d2 ee d3 3e
       0.29101664 0.27650884 0.093447715 0.41393143
000060 d3 eb c9 3e e8 b9 16 3f c6 e8 f8 3e 49 78 20 be
       0.39437732 0.5887742 0.48615092 -0.15670885
000070 3f 61 09 bf 41 3e e6 3d f7 52 93 3b f0 aa 2a be
       -0.5366401 0.11242343 0.004495974 -0.1666677
000080 47 80 c9 bd 57 c9 25 3d aa 3a f1 3e 61 15 53 3e
       -0.0983892 0.040475216 0.4711507 0.20613624
000090 d4 3a 72 be 77 3b 83 be c0 11 2e be 80 b9 84 be
       -0.23655254 -0.25631306 -0.16998959 -0.25922775
0000a0 23 22 12 3f de 13 b4 3e 5c a0 15 3f b6 30 f6 3a
       0.5708334 0.35171407 0.58447814 0.0018782828
0000b0 e6 5b f6 3d f0 fe 6b 3e 30 e1 19 bf f4 10 6c 3d
       0.12029247 0.2304647 -0.60109234 0.057633355
0000c0 9c c7 36 bd e9 c8 b9 be ee c9 02 bf df 09 11 3f
       -0.044623956 -0.36286095 -0.5108937 0.5665569
0000d0 5d eb 03 3f be 51 9e 3e f7 42 20 3f f6 eb 80 be
       0.5153101 0.3092174 0.6260218 -0.25180024
0000e0 e1 bf e2 bd 4c 2d 73 3e a2 a0 c5 bd ca a7 03 be
       -0.11071754 0.23747748 -0.09649779 -0.12856975
0000f0 e2 17 0b bf 9f cf 34 3e 33 c2 c2 be bb ff 61 3c
       -0.5433332 0.17657326 -0.38038787 0.013793881
000100 b7 4f 21 3f c9 19 55 be 9b 13 46 be 3f 96 c2 3e
       0.6301226 -0.20810618 -0.19343416 0.38005254
000110 9b 1e 7d be 4e e6 3b bd 6a c8 17 3f af a0 8c be
       -0.24718706 -0.045873933 0.5929018 -0.27466342
000120 9a 5a ef be 5c 16 be be 6e 1f 38 be a8 b1 97 be
       -0.4674881 -0.37126434 -0.1798074 -0.29627728
000130 ff 49 b0 be ee 86 80 3e 5c f3 f4 3d 8a af 49 be
       -0.34431455 0.25102943 0.119604796 -0.19695869
000140 08 4d fd be 39 61 46 be a6 6c 86 be 97 40 61 be
       -0.49472833 -0.19373025 -0.26254767 -0.21997295
000150 9e 7d 12 bf 40 2f 04 3e 99 03 f8 be 4d ba fe be
       -0.57222927 0.1290865 -0.48440245 -0.4975151
000160 49 88 09 bf b0 31 8d 3e 53 cd c1 be 0f c7 85 be
       -0.5372358 0.2757697 -0.37851962 -0.26128432
000170 38 bb fe 3e 69 6b aa 3e cb 5c b8 3e 95 ac 1a bf
       0.49752212 0.33285072 0.36008295 -0.6041959
000180 fa 1b f2 be 82 dd 71 be 18 05 06 3f 49 ba 9b 3d
       -0.4728697 -0.23619655 0.5235152 0.076038904
000190 97 cd f2 be 5e f0 44 3c b0 f7 01 bf e4 7d 0a be
       -0.47422478 0.012020199 -0.50768566 -0.13524586
0001a0 0d d4 3f be f1 ca 0c 3f 7f 7e 43 3e 60 8f d7 bd
       -0.18733235 0.54997164 0.19091223 -0.105253935
0001b0 1b 5d eb 3d 66 c0 45 be 1e 0b 86 3e 3e 36 7e 3e
       0.11492368 -0.19311675 0.26180357 0.24825379
0001c0 6b 04 3b 3e d6 89 85 be 47 94 0d 3f a8 84 b0 bd
       0.18263404 -0.26081723 0.5530438 -0.08619052
0001d0 2f 39 7b be 70 a2 d2 3e 9a d1 04 3f 0d 9a 22 3f
       -0.24533533 0.41139555 0.51882327 0.6351631
0001e0 6e 5e 4a 3e e2 2d 57 be 36 c6 a2 3e e5 4c 10 3f
       0.19762585 -0.21013597 0.31791848 0.5636733
0001f0 b2 8a 24 bf 69 4e 8f bd e5 42 dc be 42 68 05 3e
       -0.6427413 -0.069973774 -0.43019786 0.13028052
000200 f7 c5 8d 3e c1 ba 12 be 3e 41 82 bd 5d 9d 8f 3e
       0.27690098 -0.14329053 -0.063601 0.28049746
000210 ec b3 ca bd a1 b7 08 bf bf c8 06 3f 65 2f a1 be
       -0.098975986 -0.53405195 0.52650064 -0.31481472
000220 a7 56 79 bd 47 3c 89 3d 60 a4 ea bc cb f8 1d bf
       -0.060873654 0.0670095 -0.028642833 -0.6170775
000230 be 61 95 3e 51 48 98 be 4d 55 aa be 1a 42 1b 3e
       0.29176134 -0.29742673 -0.33268204 0.15161934
000240 2c a8 b1 be 9d e6 93 be 56 39 60 be 44 d0 79 be
       -0.34698617 -0.2888688 -0.21896872 -0.24395853
000250 45 84 88 be df 03 30 be 36 fe 2e 3e 7d 24 04 bf
       -0.26663414 -0.17188977 0.17089161 -0.51618177
000260 28 5c ca be 19 56 a0 3c d1 a8 ad 3d 5e 35 b2 3e
       -0.39523435 0.019572305 0.08479465 0.3480634
000270 9c 99 e9 be 34 c1 52 3e 13 f6 b6 3e 16 47 b9 3e
       -0.45625007 0.20581514 0.35734615 0.36187047
000280 78 35 18 bf 7a 8f 75 be e0 8e 0f bf b3 1c ce be
       -0.59456587 -0.23980513 -0.56077385 -0.4025627
000290 43 f0 bc 3e dc a3 d5 bd 1c 10 8a 3e cf cf be be
       0.36902055 -0.10431644 0.26965415 -0.3726792
0002a0 5b e6 cf 3d 53 17 cb be d2 8f a7 3e c4 d5 92 be
       0.10151359 -0.39666232 0.32726914 -0.28678715
0002b0 eb 43 21 be 76 e9 11 bf 0b d4 05 3c 6b 07 1f 3f
       -0.15748565 -0.5699686 0.008168231 0.62120694
0002c0 10 8a a3 3e f9 5a ad be 71 c2 12 3c d7 37 9d bd
       0.3194127 -0.3385847 0.008957491 -0.07676666
0002d0 43 2f 05 bf 99 07 fe 3e 30 dd c2 39 f1 7a 15 3e
       -0.5202524 0.49615172 0.0003716736 0.1459768
0002e0 a5 ca 88 be 52 7f 95 be 76 f8 ec 3d 5e c7 6e 3e
       -0.26717106 -0.291987 0.11570828 0.2331824
0002f0 a5 89 1e 3e d4 2d a4 be 4c 4c 1e 3f 96 47 be bd
       0.15482195 -0.32066214 0.6183517 -0.09290998
000300 16 80 c9 be d8 02 97 be 72 37 25 3f 42 33 f0 bb
       -0.39355534 -0.29494357 0.6453773 -0.007330329
000310 3b cf 9e bd c2 48 86 be af ef 34 be 16 bc 0d bf
       -0.0775437 -0.26227385 -0.17669557 -0.5536512
000320 84 33 01 bf 8e 1c c6 3e 26 28 0b 3f fd d2 1f 3f
       -0.5046923 0.3869366 0.54358137 0.6243132
000330 65 7b f3 be 8c 87 b0 3e 43 72 d0 be 51 4c c9 3e
       -0.4755508 0.34478414 -0.40712175 0.39316037
000340 1a 38 f2 3e ee 5e fb 3e 23 ca f0 3e 0a f8 c9 3e
       0.47308427 0.49095863 0.47029218 0.3944705
000350 cd c0 ac 3c 25 b6 9a 3e 2a 49 63 be e6 9c 94 3e
       0.021088028 0.3021709 -0.22195879 0.29025954
000360 7f eb 4b be 8e 19 5a bb 47 2c 0f bf fd c7 35 be
       -0.19914053 -0.0033279392 -0.55926937 -0.1775207
000370 8e 46 a9 be 18 dd 68 be f6 7a d7 be eb 5b 12 bf
       -0.3306164 -0.2274059 -0.42086 -0.57171506
000380 e5 10 52 3d 74 4c db 3e 27 1b 14 3f 91 a0 c5 3e
       0.051285643 0.42831767 0.5785393 0.38599065
000390 7e 77 a6 be f5 cd 25 bf d4 ed 81 3e 4f 5a b4 3e
       -0.3251304 -0.6476739 0.2537676 0.3522515
0003a0 7c 73 0b bf 0c 68 63 3e 04 37 09 3f 7c 1c fb 3c
       -0.5447309 0.2220766 0.5359957 0.03065323
0003b0 c5 53 c2 be 47 e6 09 3f e9 23 88 3e e2 20 d6 3e
       -0.37954536 0.53867 0.26589897 0.41821963
0003c0 a3 91 de be b2 64 bb 3e dc 99 df be 4d 64 22 3f
       -0.43470487 0.36600262 -0.43672073 0.63434297
0003d0 7d 50 8b be 10 4c cb 3e 2d 32 07 3e a0 78 27 3e
       -0.27209845 0.3970647 0.13202734 0.16354609
0003e0 ab 34 cb bd 16 b0 8a 3e 52 83 8c be 9c 42 1a bf
       -0.09922155 0.27087468 -0.2744394 -0.6025789
0003f0 12 03 74 be 18 b7 00 3f fc 8c 33 be 86 c8 45 3e
       -0.23829296 0.5027938 -0.1753425 0.19314775

hidden_layers.2.bias f4 [20]
000000 22 ea 01 bc 1d 61 54 3a b0 49 4b b8 93 77 1e 3c
       -0.007929357 0.0008101629 -4.84676e-05 0.009672063
000010 6e 2e 22 3c ff f9 cf bb 01 88 23 bc b2 9b 3e 3a
       0.009898765 -0.0063469405 -0.009981156 0.0007271125
000020 b5 7b bf bb d4 b6 24 bc 3d 72 0a bc 33 9a 1a bc
       -0.0058436044 -0.010053355 -0.008450088 -0.009436178
000030 9a 94 2e 3b af 47 f2 3b 65 a5 a7 3a 2f 3c db 3b
       0.0026638866 0.0073937993 0.001279038 0.006690524
000040 c8 0b 1d 3c 58 ab b8 bb 1e be ee 3b 6e 7d 0c bb
       0.009585328 -0.00563566 0.0072858473 -0.0021437067

output_layer.weight f4 [5, 20]
000000 4a 66 3a 3e 30 a1 2a 3f 69 27 06 bf 48 a1 04 bf
       0.18203083 0.666522 -0.52403885 -0.51808596
000010 07 0e 4a 3f 36 70 25 3f 7a 0f e4 be ae 29 fa 3e
       0.78927654 0.64624345 -0.44543058 0.48859924
000020 ec 9e ea bd 50 3f 4f bf 7f 45 92 3d d5 10 82 3e
       -0.11456093 -0.8095598 0.071421616 0.25403467
000030 12 9b 70 be 81 75 8c 3e 69 29 30 bf a1 c9 12 3f
       -0.23496655 0.27433398 -0.68813187 0.5733891
000040 12 9f 2f 3f a1 cd e4 3e 35 86 04 3e b7 7d 84 3e
       0.686021 0.44688132 0.12941821 0.25877163
000050 63 a6 14 bf ae 5a 47 be b2 74 91 bd 8a 97 ed be
       -0.58066386 -0.19468185 -0.07102336 -0.46404678
000060 a6 d2 17 bf eb 1d 0a 3f f0 52 0b 3f aa ef 3b bf
       -0.593058 0.539519 0.5442343 -0.73412573
000070 5b e0 85 3e 93 46 a5 3e bf ff 43 3f 9a 0e ed 3e
       0.26147732 0.32280406 0.7656211 0.46300203
000080 11 94 3d 3f a0 11 8d be 28 f4 14 3f 48 00 2b 3f
       0.74054056 -0.2755251 0.5818505 0.66797304
000090 e0 d5 42 bf a9 8a 27 bf d9 64 20 3e 2e 2c e5 3e
       -0.761076 -0.65445954 0.1566347 0.4476027
0000a0 9b 99 d1 be 70 27 a4 3d ce cd 39 bc d3 db 5d 3e
       -0.40937504 0.080153346 -0.011340572 0.21665888
0000b0 62 7b db be 9c d5 e9 3e cb 69 08 3f fc 75 0e bf
       -0.4286757 0.45670784 0.5328643 -0.5564878
0000c0 0a 4e 8b 3c 48 68 00 bc f7 16 81 3e d4 7f 44 3f
       0.017004985 -0.007837363 0.25212833 0.7675755
0000d0 2d e1 70 3e 33 57 48 be bf 4b 3e 3f 9b 39 a4 be
       0.23523398 -0.19564514 0.7433433 -0.320752
0000e0 99 a5 68 be 4c ff 3a 3d 07 94 1c bf b6 85 ca 3d
       -0.2271942 0.045653626 -0.6116337 0.098887846
0000f0 56 d2 0b bf 3e 65 ad 3d 34 f8 92 3d f1 97 d9 3d
       -0.5461782 0.08466576 0.07176247 0.10624684
000100 bf c4 2e bf 2a 08 45 bf 6a ec bc 3e 27 d4 30 3f
       -0.6826896 -0.7696558 0.3689912 0.6907372
000110 a3 c5 37 bf 75 34 97 3e 77 3c 1b bf 31 e4 5a 3d
       -0.71785945 0.2953221 -0.6063914 0.053440277
000120 a3 d4 42 3f de bc 1d 3f 5f e5 16 bf 05 ff fe 3e
       0.7610571 0.61616313 -0.5894374 0.4980394
000130 77 8e dd 3e e0 c1 e3 bb 63 bc 4c 3f 9f c0 a8 be
       0.43272755 -0.006950602 0.79974955 -0.32959458
000140 a6 89 3f be e5 c2 ce be a3 eb e3 3d a2 d3 57 3e
       -0.18704852 -0.40383068 0.111289285 0.21076825
000150 33 d1 92 3d c0 92 e7 be bb 5f bf be fd ce 90 3e
       0.07168808 -0.4522915 -0.37377724 0.2828292
000160 08 7e 35 bf 09 1e 07 be 32 88 d2 bc 23 1a a5 be
       -0.70895433 -0.13195051 -0.025699709 -0.32246503
000170 de 9d 99 3e 1f f0 37 3d df cd 13 3f db 2e a1 bd
       0.30003256 0.04490673 0.5773601 -0.07870265
000180 eb 24 02 bf f0 d8 11 3f 6b 70 f8 3d f7 62 78 be
       -0.5083758 0.56971645 0.12130817 -0.24256502

output_layer.bias f4 [5]
000000 33 c4 25 bc 87 e1 24 3c 27 12 25 3c 9f e1 b2 3b
       -0.010117578 0.0100635355 0.010075129 0.005459025
000010 cc cf ed 3b
       0.0072574373
