results/ADAM_sqloss.pt (torch, 9143 bytes, 10 tensors)

input_layer.weight f4 [20, 3]
00000000: ee8c ad3e 7bae 653e da6d c9bd 2b98 903e
00000010: e2cf b4bd afdc 023e 6689 d0be 7402 033f
00000020: 1b94 3f3f 58cd 18bf 95c1 3a3f 8e86 b83d
00000030: fce9 fd3d 6ad6 033e 5068 823e a1af b2bd
00000040: 3b73 083f c55c 203e 5f82 acbe 7e6f 0d3e
00000050: 1c35 89be 47a6 9abd 955b 97be 2951 033f
00000060: 703d 0fbf 94d4 05be 9c45 d0bd e8dd 43bf
00000070: 1ab5 543d c05d 40bf 44a6 363f b7e1 30bf
00000080: 42fa 1d3f f461 363e 24da 66be b43b b23e
00000090: feab 543d de2a 0b3f d5c7 a33e b0f6 7fbe
000000a0: 8285 3d3e 627e 6cbe 73ac f33d 8229 9a3e
000000b0: 2beb a43f bdf5 c4be 3ee8 f83e 75d8 133e
000000c0: ec21 db3e 14c5 09bf 78c8 4bbf 7aba 9fbe
000000d0: fad4 14bf dfa3 213f 1a4a 2f3d b4d9 983e
000000e0: 5d04 8d3e 32dc 64bc 6e43 1c3f b312 15bf
0.33896583 0.2242984 -0.09835406 0.28241095 -0.08828713 0.12779497 -0.40729827 0.5117562
0.74835366 -0.5968833 0.7295163 0.09010039 0.123981446 0.12874761 0.2547021 -0.08724905
0.5330083 0.15660389 -0.33693215 0.13812062 -0.26798332 -0.07551246 -0.2956206 0.51295716
-0.5595312 -0.13069373 -0.10169527 -0.7651048 0.051930524 -0.7514305 0.7134745 -0.69094414
0.6170999 0.17810804 -0.22544152 0.34811175 0.051921837 0.54362285 0.31988397 -0.24996448
0.1850796 -0.23095086 0.118981265 0.30109793 1.2884268 -0.38468733 0.48614687 0.1443804
0.42799318 -0.5381634 -0.79602766 -0.31196958 -0.58137476 0.6314067 0.042795278 0.29853594
0.2754239 -0.013968514 0.6104039 -0.5823166

input_layer.bias f4 [20]
00000000: ce3f a53e 81d4 143e 4aab 7ebd 9838 2cbd
00000010: 02e7 9cbe 98f2 433e 3b08 32be e16c 72be
00000020: 9b8b f9bd 0290 b2be cc4e 1fbe dd38 d7bb
00000030: 7c56 c6bd 4f79 b1bd df11 a5be 5c7e 83bd
00000040: a591 c1bd 3c87 143c f3e4 1cbc 0f57 a63c
0.32275242 0.14534189 -0.062175073 -0.04204616 -0.30644995 0.19135511 -0.17385952 -0.23674347
-0.12184831 -0.34875494 -0.15557402 -0.006568058 -0.09684464 -0.08665716 -0.32240197 -0.064205855
-0.094516076 0.0090654455 -0.00957607 0.020305185

hidden_layers.0.weight f4 [20, 20]
00000000: c999 d23d 5394 9ebe 4198 923d 5df6 2fbe
00000010: 0023 a53e 715d 8cbd a92e b53e b58d 8ebe
00000020: 6bca f6be 5737 06bf 63ce c93e be78 b03e
00000030: eb29 3f3f 37ad 03bf dadc 03bf 442b 0ebf
00000040: 56cc c1be 23ac 903e b6cf b73e 540f 363f
00000050: 8bf5 cdbe 2d3a e1be 0d8b a03e 2e19 6dbe
00000060: 490f a23e 04bb 1cbe 8561 c53e 8fa3 e4be
00000070: 151e 80be ec2e 813e f67a d13d ecce 2dbe
00000080: 1ef5 9e3e 799f f33e 4630 0bbf d193 a6be
00000090: 38c8 1c3f 8c54 3fbe a1e4 99be 8660 05bf
000000a0: 61c6 92be 631d c5bc c396 dd3d 4ab5 86be
000000b0: 949f 203e cf48 9abe 8f85 e1be 2516 d1be
000000c0: b61e 2abf c10c 06bf ddc8 d13e 7c0a a43e
000000d0: b024 ad3e 5efb fcbe 6341 94be 1f3c eebd
000000e0: 7397 a4bd 40f8 f8be 5073 09be c3c0 2dbf
000000f0: 5d94 0439 c445 71be 3dd4 64be 9f23 e0be
00000100: dbab e2be 265b 8cbe 5ef6 62be 35e4 fabe
00000110: 4476 0a3f f662 fcbd ea19 073f a8bb 433e
00000120: f9b0 0bbf 4c54 e03e 1590 35be 5fa8 b0be
00000130: c380 e8be fe55 14bf dbef 3e3e 31b9 7ebd
00000140: 4ff4 713e f879 d4be aa66 da3e f0a0 bbbe
00000150: 2377 a3bd 610d 683d 4b3e 903e 6f8e a83e
00000160: 5a99 0e3f 7cd5 ffbe 094f 3c3d 0f3e 87be
00000170: 3325 24bd bccc 0bbf 427d 1e3f 6ce7 11bf
00000180: 6dea b83e 388b 623e e13c 793e 9a42 c4be
00000190: f776 2e3f c921 223e beff 2a3e d783 e8be
000001a0: 2380 ba3e bcfc 53bd 1073 8abe 9a2c ee3e
000001b0: 93be 493d 9b96 d2be 03f5 cebe f52e cfbb
000001c0: 2c7e e83e a500 0dbe c689 8cbe 0d28 03be
000001d0: 8bd7 11bf 992c 0e3e d829 183f 6c5d 05bf
000001e0: 78c7 213e 7a03 9f3e e921 313e dfbb 95bd
000001f0: e63a a03e 6c68 e23e 9395 883e c215 f5bd
00000200: cdb6 17be ae1c be3d 001e 9abd 309f 68be
00000210: 3958 c73e f8fb 123f e56e b2bd bf63 23bd
00000220: a277 55bd 2cde 98bd e4a0 053e 9e79 8e3e
00000230: fb9b 07bf e3df 7fbe 2286 0f3f 073a ba3e
00000240: 06bc 583c 4595 a9be 3030 bfbe 209a fbbe
00000250: fab5 83be 07fc 583e 859e a83e 4cd8 2e3e
00000260: 128f 06bf 0331 b3be 17ba 65bd a7ab 373f
00000270: 0339 853d 5962 67be 6846 9f3e 5ac6 14be
00000280: 33fe c3be 37f6 e23e c079 5cbe 4f28 95bd
00000290: bd7d 1dbf f34a e83e ecc4 f93e e056 653e
000002a0: 5921 f5be ceeb 22bf 1141 ecbe a616 ae3e
000002b0: 073f ad3e cfa2 103f 10bd ba3e 12d1 4c3e
000002c0: f890 88bd e01f c0be 3e30 06bf adad a6be
000002d0: 9eb9 823e 0d8e 9cbe db57 9abd 75b2 edbe
000002e0: 916d fcbd 7b2b e3be f0bc e1be 171a a1bc
000002f0: 7cc7 3ebe 5ff9 c23e bf75 8fbd 69bb b6be
00000300: cb30 f2bd 097b aabe 4d99 4fbe 98f5 22bf
00000310: 0061 d13e 98f9 b8be af10 a33e a35d 413e
00000320: e108 073f 7230 dabe bc14 033f ea74 94be
00000330: f32c 9f3e a8fc d93e 528c 23be 98cb 0a3d
00000340: a17c 5dbe 0d60 1bbf 7084 933e 3cfa 19bf
00000350: 3aa5 f13e 26ac d73e e5ef 2d3f 6907 1cbe
00000360: 93bf 13bf d800 dd3d f645 dd3e f055 1abf
00000370: b6a3 08be 5417 b8be 3131 1cbe 3c1d 7ebe
00000380: f970 7fbe 7c1a ffbd 959d 20bf ceb3 e73e
00000390: e37c 063f cf0c edbd d0ea 8ebc 8901 5bbe
000003a0: c4d1 11bf cef0 22bf c11d 823e c566 a5be
000003b0: 90d4 a3be 9bdc e03c 95a9 4fbe 2b50 85be
000003c0: 0260 3e3d c753 ddbd 649e 4dbe 6a50 8fbe
000003d0: 06c6 ffbe 601c 073f d569 92be 9c1a 413e
000003e0: 19b2 7fbe 7c90 d93c 656f 103f 31a0 b13e
000003f0: 61cc 08bf 4d3c 5e3e ce66 233f 056f bc3d
0.102832384 -0.30972537 0.071579464 -0.17183824 0.32253265 -0.0685376 0.3538716 -0.2784249
-0.48201308 -0.5242819 0.39415273 0.3446712 0.74673337 -0.5143618 -0.5150887 -0.5553477
-0.37851208 0.2825633 0.35900658 0.7111714 -0.40226397 -0.43989697 0.31356087 -0.23154137
0.31652287 -0.15305716 0.38550964 -0.44656035 -0.2502295 0.2523111 0.10228531 -0.16973466
0.31046385 0.47582605 -0.54370534 -0.3253465 0.6124301 -0.18684596 -0.30057243 -0.5210041
-0.28666976 -0.024061864 0.10819771 -0.26310188 0.15685874 -0.30133674 -0.4404721 -0.40837207
-0.6645311 -0.5236321 0.4097356 0.3203925 0.33817053 -0.49410528 -0.28956136 -0.11632561
-0.08036699 -0.486269 -0.13422894 -0.67872256 0.0001264377 -0.2356177 -0.22346587 -0.43777177
-0.4427174 -0.2741329 -0.22164294 -0.49002233 0.5408671 -0.12323563 0.52773917 0.19114554
-0.54566914 0.43814313 -0.17730744 -0.34503457 -0.45410737 -0.57943714 0.18646185 -0.06218833
0.23628353 -0.41499305 0.4265645 -0.36646223 -0.07981708 0.056653384 0.28172526 0.32921168
0.55702746 -0.49967563 0.04597381 -0.26414534 -0.04007454 -0.54609275 0.6190988 -0.56993747
0.36116353 0.2212342 0.2433963 -0.38332063 0.68150276 0.158332 0.1669912 -0.45413086
0.36425886 -0.0517547 -0.2704091 0.46518403 0.04925401 -0.41130528 -0.40421304 -0.0063227364
0.45408762 -0.13769777 -0.27448863 -0.12808247 -0.5696952 0.138842 0.5943885 -0.52095675
0.15798748 0.3105734 0.17298092 -0.07311224 0.31294936 0.44220293 0.26676616 -0.119670406
-0.14815827 0.09282814 -0.07525253 -0.22716975 0.38934496 0.57415724 -0.08712558 -0.039890047
-0.052116044 -0.07464251 0.13049656 0.27827162 -0.5297238 -0.2498775 0.56064045 0.36372396
0.013228422 -0.33121696 -0.37341452 -0.49141026 -0.25724775 0.21189891 0.3293344 0.17074698
-0.5256206 -0.3499833 -0.056085672 0.71746296 0.06505015 -0.2259611 0.31108403 -0.1452879
-0.38279876 0.44328472 -0.21530819 -0.07283079 -0.61519986 0.45369682 0.48783052 0.22396421
-0.47877005 -0.6364106 -0.46143392 0.34001654 0.3383715 0.56498426 0.36472368 0.20001629
-0.066682756 -0.3752432 -0.5241736 -0.3255438 0.2553224 -0.30577126 -0.07536288 -0.46425214
-0.12325586 -0.4436911 -0.4408946 -0.01966576 -0.18630785 0.3808088 -0.0700488 -0.35689858
-0.11825713 -0.33296993 -0.20273323 -0.63655996 0.40894318 -0.36127925 0.31848666 0.18883376
0.52747923 -0.42615086 0.51203513 -0.28995448 0.3108898 0.42575574 -0.15971497 0.03388557
-0.21629573 -0.60693437 0.2881198 -0.6014745 0.4719637 0.42123526 0.67944175 -0.15237202
-0.57714194 0.107911766 0.43217438 -0.6028738 -0.13343701 -0.35955298 -0.1525314 -0.2481584
-0.2494544 -0.12456223 -0.6274045 0.45254368 0.5253431 -0.11574709 -0.017445952 -0.21387304
-0.569607 -0.6364869 0.25413325 -0.3230497 -0.3199811 0.027448943 -0.20279534 -0.26037726
0.04647828 -0.10806995 -0.20079952 -0.2799104 -0.49955767 0.5277767 -0.28596368 0.18857807
-0.24970283 0.026558153 0.56419975 0.3469253 -0.5343686 0.2170269 0.6382874 0.09200863

hidden_layers.0.bias f4 [20]
00000000: 8268 fc3d 4674 9abd 8ccb 263e 05ae 303a
00000010: ec27 f73c ce73 c13d c9b5 bdbc 6c43 393d
00000020: dcf9 d83c 6d46 aabb c7d6 913d b679 683c
00000030: d812 d13c a4a6 5a3d ad70 083d d09f c63c
00000040: 7382 963d b1d8 f0bc ccd1 873d dbe1 363d
0.12324621 -0.07541709 0.16288584 0.0006739798 0.030170403 0.09445916 -0.023157971 0.045230314
0.02648633 -0.0051963837 0.07121044 0.014189174 0.02552168 0.053381577 0.03331058 0.024246126
0.073491 -0.029400202 0.066318125 0.044648986

hidden_layers.1.weight f4 [20, 20]
00000000: 2ecd edbd 675d 743e 90ae e23d 545a 76be
00000010: f139 be3d 2ef9 d2be 2485 0fbf b437 53be
00000020: 3128 da3e 72ab 0e3f 3c88 f83e 1093 a33e
00000030: 7b7b 9b3e 66cc 4f3d 1bbc 8bbe b575 9a3e
00000040: 6e07 e1be 8136 8fbe 1065 e6bd 8dca 773c
00000050: 0523 bd3e e5c4 92be 9462 c7be 1f60 ea3c
00000060: d7df b8be 049c e3be bf2c a23e 1cc4 0bbe
00000070: ef68 083f 4ed9 163f ed98 1e3e cda1 933e
00000080: e711 ff3d 391d fdbd ff6d b3bd 0d1e 98bc
00000090: a6a5 4b3e 4f4d 013f e218 7dbe 024a 3dbe
000000a0: 2dd8 79bd cff0 a3be 85be 413e cc2f f53e
000000b0: 3b15 153f 3e6e c13e b97a e2be 65b9 c1be
000000c0: 70ba 49be b577 dcbd e201 a53d c376 f7be
000000d0: ca83 823d b8e9 bfbe d3b0 efbe 2fed 06bf
000000e0: 8f65 0b3f 4c21 d5be 44e4 b83e 143e 0ebc
000000f0: ee43 b0bd 78f8 063f c713 b1bd 0bbc fd3e
00000100: bea5 cb3e 4a2e 1bbf ed0b 993e f703 133e
00000110: 76e4 ac3d 19cf 1b3e c2a7 0b3e f1c1 cfbe
00000120: d55a b8bd 25de 1f3f df79 e33e c9ea 4bbd
00000130: 2b83 0dbf 5a9a 0e3c 1699 5bbe 299a ec3e
00000140: 4a70 9cbe d5e9 f9bd 2d44 0cbe 7d49 33bc
00000150: 27fb f23e 022c ab3d ccbb f83e 82de d63e
00000160: 4970 cd3e cca7 cbbe 00ce 81bd 6390 633e
00000170: d473 6abe a409 983e cf5d 97be 04f8 06bf
00000180: def8 b43e a540 bebd 1345 bb3e 3d3e 1e3f
00000190: bc21 ab3e b1dd 243f 0908 dbba 0db4 b1be
000001a0: 4da1 abbe 32ed febe 684b 37bf 23ea c6be
000001b0: 9b95 09bf cd91 05bf 7f15 eebe 51ab 0abf
000001c0: 06c6 78be d268 6b3e f00e 163f e2c8 bdbd
000001d0: 6b67 90be 8593 ad3e f4b5 e7be 1731 4bbe
000001e0: e669 d93e 41c2 1ebf a1c9 bb3d cb2c e43e
000001f0: ead2 483e 8c4c 783e 9708 b9be b9a0 353c
00000200: d60b 8f3d 24fa d93d f9f5 a03e f017 f63e
00000210: 99ae b1be e38a 033d 4268 adbe 2511 e6be
00000220: 5e80 2e3d e5e3 d8be 4b8d 053f df3a 273e
00000230: 0fbc bbbe bd9b a33e f908 1bbf 81e7 37be
00000240: 1afe 01be 1d58 1fbf adfc dcbe 40a8 ffbd
00000250: 4ac1 963e 9ecb 293f f85b bf3e 9262 9fbe
00000260: 09f0 c8be 6ddc d93e dcdf 693e 3743 ce3c
00000270: 88dc a23d b238 eabe 4673 a3be 055d 1a3f
00000280: 724f 3fbe a0ae 8a3d 729b 09bf 9f8a 91be
00000290: dc3e f1bc 4938 f0be 7e62 5dbe 2102 873e
000002a0: 2c0c 16bf e482 753e 501c fabe 7ce1 90be
000002b0: 3341 333e 1fbe f53e bf88 a3bd 4357 21be
000002c0: 13d4 3abf 1b8c 2fbe 1c9f 18bf 6b28 f3bd
000002d0: b1c8 123e ad59 26bf 6a37 1a3f 0a54 9d3e
000002e0: dc9c 1bbf 1c2a 81be c048 523e 88bb b2bd
000002f0: 6e9d 7cbd 72c0 90be 3469 103f 7f58 9fbe
00000300: 3ce0 f83e 7a94 2fbd b84c c43d 2982 be3e
00000310: b73e 9bbd 0f15 a2be 9001 33be b418 213f
00000320: 7e89 0ebf 30cb 8c3e 3065 25bf ef34 da3e
00000330: 56e7 2c3e 1ddb 57bd f4ac 293e c5c0 07be
00000340: 9c13 c63e cfe0 aebe 2fb9 2fbe e006 713e
00000350: 9754 313f 5d06 9a3e f90c a6be 2bde e33e
00000360: d13e 75be 6486 59be b40c 08bf 707f 4abe
00000370: 5dd7 113f 2d81 4abd 3212 8dbe 7221 d73d
00000380: 9423 66be 2a1d 3b3f 33ca d2be 166e 34be
00000390: 2cad dcbe 116a 9dbe f125 ad3e 7d68 db3e
000003a0: 2755 403e 91dd 113f 3a6f cd3d 0892 8a3e
000003b0: 73a0 1a3f 1d6e 9c3e e964 8abe 83d3 fb3e
000003c0: a8e0 c93e b9ef 9abe ce97 93be 6d8f d8be
000003d0: 91fa 1e3e 4bf3 ffbe 9189 993e 4147 3b3e
000003e0: a40f 06bf 82d7 573e 722b 1bbd 919a a53e
000003f0: 7e5a 893e 84c4 17bf 26bf 053f fa10 0f3f
-0.116114005 0.23863755 0.110684514 -0.24057895 0.09288395 -0.41205734 -0.5606253 -0.20626718
0.4260879 0.55730355 0.4854144 0.31948137 0.30367646 0.05073204 -0.2729195 0.30167928
-0.4395098 -0.2797127 -0.11249745 0.015123975 0.3694078 -0.28665844 -0.38942397 0.028610287
-0.36108276 -0.44454968 0.31674764 -0.13649029 0.53285116 0.5892533 0.15488024 0.28834382
0.124545865 -0.123590894 -0.087612145 -0.018569017 0.19887409 0.5050859 -0.24716523 -0.18485263
-0.060997177 -0.3201966 0.18920334 0.4788803 0.5823552 0.3777942 -0.44234255 -0.37836757
-0.19700027 -0.1076502 0.08057 -0.48332796 0.06372793 -0.37483 -0.46814594 -0.52705663
0.5445184 -0.41626966 0.36111653 -0.008681793 -0.086067066 0.52722883 -0.0864635 0.49557528
0.3977489 -0.60617507 0.2989191 0.14356981 0.08442013 0.1521572 0.13638213 -0.40577653
-0.090017 0.6244834 0.44428918 -0.049784455 -0.5527827 0.0087037925 -0.21445116 0.46211365
-0.3055442 -0.12202803 -0.13697882 -0.010942814 0.4745724 0.08358003 0.48580778 0.41966635
0.4012473 -0.39776456 -0.063381195 0.22223048 -0.22895747 0.29694855 -0.29563758 -0.5272219
0.3534612 -0.09289674 0.36576137 0.6181372 0.33424175 0.64400774 -0.0016710769 -0.3470768
-0.335215 -0.4979034 -0.71599436 -0.38850507 -0.53743905 -0.521756 -0.46500775 -0.5416766
-0.2429429 0.22989205 0.5861654 -0.09266831 -0.28203902 0.3390161 -0.45256007 -0.19842945
0.42463607 -0.6201516 0.09169317 0.44565424 0.19611707 0.2424795 -0.36139366 0.011085683
0.069846794 0.10643414 0.31437662 0.48065138 -0.3470352 0.032114875 -0.33868605 -0.44934955
0.04260289 -0.4236137 0.5216872 0.16331051 -0.36666915 0.31954756 -0.60560566 -0.17959405
-0.12694588 -0.62243825 -0.43161526 -0.12483263 0.29444343 0.6632632 0.37374854 -0.3112989
-0.39245632 0.42550984 0.22839302 0.025178535 0.07952219 -0.4574638 -0.31923884 0.60298187
-0.1868265 0.06771588 -0.53752816 -0.28426072 -0.029448919 -0.46917942 -0.21619603 0.26368812
-0.5861232 0.23975712 -0.48849726 -0.2829703 0.1750534 0.47996613 -0.079850666 -0.15755944
-0.7297985 -0.1714329 -0.5961778 -0.118729435 0.1433437 -0.64980584 0.60240805 0.3072818
-0.60786223 -0.2522744 0.20535564 -0.08727175 -0.061673574 -0.28271824 0.5641053 -0.31122205
0.48608577 -0.042866208 0.095849454 0.3720868 -0.07580321 -0.3165669 -0.17481065 0.6292832
-0.55678546 0.2749877 -0.64607525 0.4261851 0.16885123 -0.052699197 0.16569883 -0.1325713
0.38686836 -0.3415589 -0.17160486 0.23537779 0.692697 0.3008298 -0.32431772 0.44505438
-0.23949744 -0.21242672 -0.53144383 -0.19775176 0.56969243 -0.049439598 -0.27552944 0.10504426
-0.2247451 0.73091376 -0.4116989 -0.1762012 -0.4310087 -0.30744985 0.3381801 0.42853156
0.18782483 0.5697871 0.100309804 0.27064538 0.60401076 0.3055276 -0.27030113 0.49184808
0.39429212 -0.3026102 -0.28826755 -0.42296925 0.15525271 -0.49990305 0.29987767 0.182889
-0.52367616 0.21078303 -0.03788323 0.32344487 0.26826853 -0.59284234 0.52244794 0.5588528

hidden_layers.1.bias f4 [20]
00000000: 059b b7bd 35f2 cd3b 266e 703d 0d8c 03bd
00000010: d5b2 9d3d fb2a e7bd c6e0 333d 2e1e 03bd
00000020: a1b7 0ebd 1260 363d e034 a7bd 33d7 173e
00000030: 21fa bf3b 6e90 563d 962a b8bd d37b 8abd
00000040: 3320 efbd 1033 f6bd 3235 4cbd 62b2 a93d
-0.089651145 0.006284977 0.058698796 -0.032115985 0.07700125 -0.11287495 0.043915533 -0.032011203
-0.03484309 0.044525214 -0.08164382 0.14828186 0.005858675 0.052383833 -0.089924976 -0.06761899
-0.116760634 -0.12021458 -0.04985542 0.08285977

hidden_layers.2.weight f4 [20, 20]
00000000: baec c13d 5b38 abbe 63a5 f53e 60bd 37be
00000010: ccee d9be 49cc 2c3f e44f c63e 31c6 883e
00000020: 8a88 303e ad91 25bf b9a0 013d f9d3 233f
00000030: 82be 023e 4f51 d43d b607 3ebb a9bd c5bd
00000040: 1cd3 f33e c1b0 1d3e fa1b 993e 19e7 6abe
00000050: 5324 4f3e d062 ba3e d157 543e dde7 d93e
00000060: 2491 a13e d3c3 ff3e 09b0 a43e 72b7 f1bd
00000070: 9b44 c5be 2480 ffbc e43e 8d3d d91a 96bd
00000080: a73d 59bd 0c14 053c 3929 cb3e 05d6 033e
00000090: 5790 5bbe 6f6b e6bd f343 96be 1fc3 a8be
000000a0: 872b ed3e b620 cf3e 9d48 113f 43a9 afbc
000000b0: 6dbc bf3d 9d1b 903e bed8 00bf 90ef 3c3d
000000c0: aeae a6bd 55f0 b4be 9257 0fbf 59f4 043f
000000d0: ce0c d83e 795d d63e 0c1b 243f f434 49be
000000e0: faa3 0bbe 93c6 413e 7777 b4bc dfec ddbd
000000f0: c126 26bf 3451 b53d e60d bebe 7fa7 21bd
00000100: 8a9b f93e 9bb6 cebd 28cd 0fbe a1ba d13e
00000110: 6835 57be f22e 83bd cc27 f33e d61c abbe
00000120: 3064 c7be 5fad 9bbe e6ec 57bd 686b 10be
00000130: 92d6 8dbe ba60 783e e222 053e 2c41 3abe
00000140: 61f7 f3be d1c9 e4bd 0f50 0abe bc60 8cbe
00000150: 9e62 13bf 74e6 533d aa66 07bf 02cf fabe
00000160: d4d5 18bf 6be9 ac3e 9f45 88be 6b84 08be
00000170: fb3a d93e 3ea9 853e 1ad3 8a3e 66a7 08bf
00000180: ef17 05bf 589d 8dbe 3f8e ad3e 27e1 f93d
00000190: c6e2 c2be 7f68 46bc 2be4 f0be d482 edbd
000001a0: a41c 55be 8ea7 f43e 3ece e03d 894e b7bd
000001b0: 52e3 293e 8048 85be 09e3 b13e 069e 5e3e
000001c0: b84b 423e 3376 b2be 1a6a ed3e 1e84 4ebe
000001d0: c403 54be be4d fb3e db2b da3e e88d 0e3f
000001e0: 572f 893e 6de9 80be d64b 903e 76cb 1c3f
000001f0: 3a69 2bbf 89cf a1bd 927b 8abe 4ddc ed3d
00000200: 4f0f 8f3e 1619 edbd 3259 dabd b1f8 3f3e
00000210: 2fbf 98bd 7b22 d4be 0f4c 123f ecdb 56be
00000220: 5701 9dbd 1ecd 593d 9ecb fd3c 86ce 08bf
00000230: ae60 413e e35e 6bbd df8f 99be 0f88 843e
00000240: af74 efbe 2e1b 85be 20bc 9cbe 8762 87be
00000250: d361 60be 011b 42be 2505 623e ad13 c9be
00000260: 5d6f a9be 21d4 173e d2a3 633e 296e d43e
00000270: ab1b d9be 9b86 783e 1565 9c3e 17c4 853e
00000280: ffb2 e3be 2427 82be 5341 0fbf bfcc bebe
00000290: a309 e03e 6e31 72be 01b7 eb3e 9fd7 eabe
000002a0: 15ba 05bd 58e5 92be b876 943e b071 3abe
000002b0: 11c1 33be f845 24bf 8145 a7bc 5f85 e73e
000002c0: c0f4 6c3e 0f54 cabe 4324 ffbb 06c7 a8bd
000002d0: ae50 e8be 5e77 e33e 63fe 87bd 10ae 213e
000002e0: a416 26be d4bd 7bbe 0e9f 383e 001b 603e
000002f0: 01c9 1e3e 6789 98be b9d8 363f e1a1 ecbd
00000300: 5a3d b2be bfdd 89be e15f 253f 9a6b 5ebd
00000310: 5d6b d1bd 506e 8abe a331 e3bd 1db2 08bf
00000320: d794 90be 4f02 bb3e 972e 053f c5b2 2b3f
00000330: 07e3 fabe 6b18 813e 2dac efbe 0201 be3e
00000340: e246 d63e 17ec 043f 0a9f c53e 247e d03e
00000350: 4196 4a3b 0357 183e 26a2 57be 4764 7b3e
00000360: 5404 65be dade 17bd 3f3d 28bf b68c 4ebe
00000370: d9d7 4ebe 1c88 51be 9f1e c5be a6c7 0bbf
00000380: ed43 ea3d e3a6 af3e cb5d 0e3f d2be d43e
00000390: 6acf a3be 11e3 2bbf bc19 843e f6ca 953e
000003a0: 8df1 02bf 169b 203d 28da e63e 973f 63bd
000003b0: c9b9 b2be 1558 0c3f 3a3c 423e a2da c53e
000003c0: 3925 97be db0e c23d 0558 debe 60e3 223f
000003d0: fd13 83be f530 c43e 6007 103e 0be5 0e3e
000003e0: 9c2b 42bd 99fb 833e 2b86 7bbe 8a59 07bf
000003f0: 3d19 e7bd ed3d a43e 9924 57be e510 423e
0.0946898 -0.33441433 0.47977743 -0.17943335 -0.42565 0.67499214 0.38732827 0.26713708
0.17239586 -0.6467541 0.031647418 0.6399532 0.12767985 0.10367071 -0.0028996295 -0.096553154
0.47622 0.15399458 0.29904157 -0.2293972 0.202287 0.36403513 0.20736624 0.4255971
0.31556046 0.4995409 0.32165554 -0.118025675 -0.38528904 -0.031189032 0.06896761 -0.073293395
-0.053037312 0.008122455 0.39679888 0.1287461 -0.2144178 -0.1125096 -0.29348716 -0.32961366
0.4632227 0.40454644 0.56751424 -0.021443015 0.09362111 0.28146067 -0.5033072 0.046126902
-0.08138786 -0.3533961 -0.55992997 0.51935345 0.4219727 0.4186819 0.6410377 -0.19649106
-0.13636771 0.18923406 -0.022029622 -0.10836195 -0.64902884 0.08853379 -0.3711998 -0.039466377
0.4875148 -0.10093423 -0.14043105 0.409627 -0.21016467 -0.064054385 0.474913 -0.33420438
-0.38943624 -0.3040571 -0.05271616 -0.14103472 -0.27702767 0.24255648 0.13001588 -0.18188924
-0.47649673 -0.11171306 -0.13507102 -0.27417552 -0.5757235 0.05173345 -0.5289103 -0.4898606
-0.59701276 0.33771834 -0.26615617 -0.13331763 0.4242781 0.26105684 0.27114183 -0.5338043
-0.51989645 -0.27659106 0.33897588 0.122011475 -0.3806364 -0.012109875 -0.47049078 -0.11597219
-0.20811707 0.47784084 0.109768376 -0.08950526 0.16590622 -0.26031876 0.34743527 0.21739969
0.18974197 -0.34855804 0.46370012 -0.20167586 -0.20704561 0.4908275 0.42611584 0.5568528
0.2679393 -0.2517809 0.28182858 0.61247957 -0.6695744 -0.07900912 -0.27047402 0.11614285
0.27941367 -0.115770504 -0.10661544 0.18747212 -0.074583404 -0.41432557 0.57147306 -0.20982331
-0.07666271 0.05317413 0.030980881 -0.5344013 0.18884537 -0.057463538 -0.29992577 0.25885054
-0.4676871 -0.259973 -0.30612278 -0.26442358 -0.21912317 -0.18955614 0.22072275 -0.39272824
-0.33092776 0.14827015 0.22230461 0.41490296 -0.4240392 0.24270098 0.3054587 0.26126167
-0.444725 -0.25420487 -0.5595905 -0.37265584 0.43757352 -0.23651668 0.46038058 -0.4586763
-0.032648165 -0.286906 0.28996825 -0.18207431 -0.17554118 -0.64169264 -0.020418884 0.45218942
0.2314024 -0.39517257 -0.007786305 -0.08241086 -0.45374054 0.44427007 -0.06640317 0.15789056
-0.16219574 -0.24584132 0.18029425 0.218853 0.15506364 -0.2979233 0.7142444 -0.115543135
-0.34812433 -0.2692699 0.64599425 -0.054301836 -0.10225556 -0.27037287 -0.11093452 -0.5339678
-0.28238556 0.365252 0.52024215 0.67069656 -0.49001333 0.25213942 -0.46811047 0.37110144
0.41850954 0.51922745 0.385979 0.40721238 0.0030912312 0.14876942 -0.21057948 0.24549972
-0.22364932 -0.037077762 -0.65718454 -0.20170864 -0.20199527 -0.20462078 -0.38499925 -0.54601514
0.11438737 0.34307012 0.55611867 0.41551834 -0.31994182 -0.6714335 0.25800884 0.2925641
-0.5114983 0.0392104 0.45088315 -0.055480566 -0.34907368 0.548219 0.18968287 0.38643366
-0.29520586 0.0947549 -0.4342653 0.63628197 -0.25601187 0.383186 0.14065313 0.1395456
-0.04740487 0.2577789 -0.245629 -0.52871 -0.11284111 0.32078496 -0.21010055 0.18951757

hidden_layers.2.bias f4 [20]
00000000: 1c02 ddbd ad92 f0bd 539e d93c 6ab1 5abb
00000010: b626 ac3d 79cb a9bd b1d4 0abc fbbe 09bd
00000020: b046 883d 2a46 37bb 14c3 da3c c445 0dbd
00000030: ead7 12bc 006f 4a3c f37c 233d e97f 88bd
00000040: e7ed 84bd 7c0c 30bd cb7c 4a3d 76bb 193d
-0.10791418 -0.11746726 0.026564753 -0.0033369907 0.08405821 -0.082907625 -0.008473561 -0.0336294
0.066541076 -0.0027965405 0.026704349 -0.03449036 -0.008962611 0.012355566 0.039914083 -0.06665022
-0.06490689 -0.042980656 0.049435418 0.037532292

output_layer.weight f4 [5, 20]
00000000: eb09 f13d 20b6 fa3e 705e d1be 281d b4be
00000010: 3461 203f cc01 033f f2d5 b1be 1327 dc3e
00000020: 36ca 29be f6c5 33bf 0ef3 d23d 4aca 173e
00000030: 05d1 75be e1b7 523e d005 1ebf aa5f fc3e
00000040: bba5 213f a3a0 e23e 13f2 223e 8a16 3f3e
00000050: d510 2bbf 5b1d 44be 00d9 ecbd c757 f6be
00000060: 5cf2 f1be 82b6 bd3e 0e4c b73e 221b 42bf
00000070: 0d10 6d3e 13d4 443e 099a 123f 542f a03e
00000080: c22f 103f de1a 3cbe 008b 2e3f 8bd3 003f
00000090: 0d5b 16bf 24de 47bf e0ac 493e da75 a63e
000000a0: afd6 a1be cf16 39be 3090 4c3d 727c 27be
000000b0: 8829 9abe eea9 a03d 3d43 4b3e 94ec a5be
000000c0: 1b8b 043d 446e 063e de09 3d3e b41e f83d
000000d0: 3603 0c3e 0d66 e7bd 3797 f33e 485a 2fbe
000000e0: 96fa dcbe c5ae bfbe 36d5 5bbe 8a99 593e
000000f0: 0327 81be b89f 20be 0e40 8a3d db3c 6c3d
00000100: c061 04bf c633 17bf f110 833e 1b29 013f
00000110: 5980 eabe 00f0 da3c 9235 12bf 7b65 06be
00000120: 63bd 003f 8719 bf3e d33f a7be 4573 b53e
00000130: 8c78 d43e 258f 0c3e 2ce2 873f 1b13 9dbe
00000140: 9c17 9dbe 0a9c 31bc 2a46 bf3d b7ac 6d3e
00000150: fa0a cf3c 7bdc 08bf 5396 29be 2032 643e
00000160: d4b8 b9be 61fd 8cbe 3813 acbe 9431 5d3d
00000170: c13d 8a3e 2cf6 1c3c 4159 a63e 45ad d9bd
00000180: c5e6 26bf bf6d de3e b2f2 4fbd 3ff9 a1be
0.1176947 0.48967075 -0.40892363 -0.35178494 0.6264832 0.51174617 -0.3473354 0.4299856
-0.16581044 -0.7022394 0.10300265 0.14823261 -0.24005516 0.20577957 -0.6172762 0.49291736
0.6314351 0.4426318 0.15912656 0.18660942 -0.6682256 -0.19151823 -0.11564827 -0.48113844
-0.47255218 0.37053305 0.35800213 -0.7582265 0.23150654 0.19221525 0.5726629 0.31286108
0.5632287 -0.18369624 0.6818085 0.5032279 -0.5873268 -0.78073335 0.19694853 0.3251179
-0.31609103 -0.18075107 0.049942195 -0.16356066 -0.3010981 0.078449115 0.19849868 -0.32407057
0.032359224 0.13128 0.18460795 0.12115231 0.136731 -0.112987615 0.47576305 -0.17124283
-0.43159932 -0.37438026 -0.21468052 0.21249977 -0.25225076 -0.15685928 0.06750499 0.057675224
-0.51711655 -0.59063375 0.25598863 0.50453347 -0.45801046 0.026725769 -0.5711299 -0.13124649
0.5028898 0.37324163 -0.32665882 0.35439506 0.4149822 0.1372648 1.0615897 -0.3067864
-0.30682075 -0.010840425 0.093395546 0.23210417 0.025273789 -0.53461426 -0.1656125 0.22284746
-0.36273825 -0.27537063 -0.33608413 0.05400236 0.2700024 0.009580176 0.3248997 -0.10628752
-0.65195876 0.43443105 -0.05076856 -0.31635472

output_layer.bias f4 [5]
00000000: 6c69 12be d07a 413e 526b f8bc 9280 68bc
00000010: 5f93 5a3e
-0.14298028 0.18894506 -0.030324612 -0.01419081 0.2134528
