results/ADAM_test_1.pt (torch, 8887 bytes, 10 tensors)

input_layer.weight f4 [20, 2]
0	0x3efa0161	0.48829177
1	0x3f8c9179	1.0981895
2	0xbe2ca795	-0.16860802
3	0x3f380b9f	0.7189273
4	0xbe3a64d8	-0.18202531
5	0x3e3ad797	0.18246303
6	0xbeed0672	-0.4629398
7	0x3f0743a9	0.52837616
8	0x3f47ef4b	0.7809951
9	0xbf1e5200	-0.6184387
10	0x3f3af6b2	0.7303268
11	0x3e4b181e	0.19833419
12	0x3f4d9b71	0.8031531
13	0x3e51eb38	0.20499885
14	0x3f01abce	0.5065278
15	0xbd8bd027	-0.06826811
16	0x3f2ae5cd	0.667569
17	0x3e37cded	0.17949648
18	0xbec9d2c7	-0.39418623
19	0x3e923a2b	0.28560004
20	0xbe959181	-0.29212573
21	0x3c96b6b5	0.018397668
22	0xbee32422	-0.44363505
23	0x3f0de42d	0.55426294
24	0xbe9723cc	-0.29519498
25	0xbe07c9d9	-0.13260593
26	0xbda4516e	-0.08023344
27	0xbec56325	-0.38552204
28	0x3df79b5c	0.12090179
29	0xbfada833	-1.3566955
30	0x3f454c5e	0.7706965
31	0xbf4384bf	-0.7637443
32	0x3f339863	0.701544
33	0x3e037235	0.12836535
34	0xbeb4c8aa	-0.35309345
35	0x3f3402a1	0.7031651
36	0x3e9f79d2	0.3114763
37	0x3f7f8b09	0.99821526
38	0x3e20dcdc	0.15709251
39	0xbebbb62d	-0.36662427

input_layer.bias f4 [20]
0	0x3f067b6b	0.5253207
1	0x3e594442	0.21217445
2	0xbe645e52	-0.22301605
3	0x3ed44983	0.41462335
4	0x3e84d5b9	0.25944307
5	0x3e9c20e9	0.30493858
6	0x3ece5574	0.4029957
7	0xbe743920	-0.23849916
8	0x3e2fdb33	0.17173462
9	0xbe3cb6bf	-0.18429087
10	0x3e7d09de	0.24710795
11	0x3e0e48e9	0.13895
12	0x3e9a2b6c	0.30111253
13	0x3f5ba0a3	0.8579199
14	0x3c60d3de	0.013722388
15	0x3ea3559e	0.31901258
16	0xbdca735e	-0.09885286
17	0x3e84ce28	0.25938535
18	0x3ea3edee	0.32017463
19	0xbe346aa2	-0.17618802

hidden_layers.0.weight f4 [20, 20]
0	0x3e6fabff	0.23405455
1	0xbe016a87	-0.12638293
2	0x3e9ec2d7	0.31008026
3	0x3f1914c3	0.59797305
4	0x3eaa45be	0.33256334
5	0xbe677013	-0.22601347
6	0x3edbfdd1	0.42967084
7	0x3dd04e5e	0.10171197
8	0x3ec46476	0.38357896
9	0xbeb1d241	-0.34730724
10	0xbf3573d2	-0.7087985
11	0xbe698be3	-0.22807269
12	0xbf0d8685	-0.55283386
13	0x3eedc5fe	0.4644012
14	0x3e1d19c0	0.15341854
15	0x3e6f0582	0.23341945
16	0x3e850b17	0.25985023
17	0x3c9e81c6	0.01934899
18	0x3f10cf99	0.5656677
19	0xbef2505a	-0.47326928
20	0x3db302aa	0.087407425
21	0xbea85e45	-0.32884422
22	0x3d980ea4	0.074246675
23	0xbe843bc2	-0.25826842
24	0x3e026521	0.1273389
25	0xbdb2fcdc	-0.08739635
26	0x3f15081b	0.5821549
27	0xbebd0e24	-0.3692485
28	0xbead20cf	-0.33814093
29	0xbeeae8a6	-0.45880622
30	0x3f0cb819	0.5496841
31	0x3e4d6f3d	0.20061965
32	0x3f1608a3	0.5860693
33	0xbf157780	-0.5838547
34	0xbf409f47	-0.7524304
35	0xbf0e5df1	-0.55612093
36	0xbec67a33	-0.38765106
37	0x3ea472cd	0.32118836
38	0x3e8e789f	0.27826402
39	0x3f291424	0.6604636
40	0xbeb5e102	-0.3552323
41	0xbef6e7e8	-0.48223805
42	0x3e9ce02e	0.30639786
43	0xbe8e5067	-0.27795717
44	0x3ee3c29b	0.4448441
45	0xbe3229df	-0.17398785
46	0x3eb219a5	0.3478519
47	0xbed15195	-0.40882555
48	0xbeb14426	-0.34622306
49	0x3e0badb3	0.1364048
50	0x3e073008	0.13201916
51	0xbe404d84	-0.1877957
52	0x3ecfe719	0.40606
53	0x3eedb522	0.46427256
54	0xbee4242b	-0.44558844
55	0xbea6d6fb	-0.32585892
56	0x3f11fd9e	0.57027614
57	0xbe889058	-0.26672626
58	0xbe805c46	-0.250704
59	0xbf13ae03	-0.57687396
60	0xbeb7fc49	-0.35934666
61	0x3e83a19e	0.25709242
62	0xbdbb17e2	-0.09135415
63	0xbf1044e7	-0.56355137
64	0x3e25e796	0.16201624
65	0xbed50e23	-0.41612348
66	0xbf069842	-0.52576077
67	0xbe75943b	-0.23982327
68	0xbf09d892	-0.53846085
69	0xbf0db9af	-0.55361456
70	0x3f0a0703	0.5391695
71	0x3c991140	0.018684983
72	0x3e15f695	0.14644845
73	0xbf48f41c	-0.7849748
74	0xbf126f5e	-0.5720118
75	0xbe35a59d	-0.17738958
76	0x3e01df9d	0.12682958
77	0xbf2e8d13	-0.6818401
78	0xbe8852eb	-0.2662576
79	0xbf388764	-0.7208159
80	0x3cb3cb31	0.021947475
81	0xbe93e627	-0.2888653
82	0xbdb7b334	-0.08969727
83	0xbefd259e	-0.49442762
84	0xbebd4f07	-0.36974356
85	0xbeb640f8	-0.35596442
86	0xbe4cb865	-0.19992216
87	0xbef259a3	-0.47334012
88	0x3f0fca42	0.56167996
89	0xbe4419d6	-0.1915048
90	0x3f058eef	0.52171224
91	0x3e0eb651	0.13936736
92	0xbf0fc771	-0.561637
93	0x3f05f828	0.5233178
94	0xbe061da8	-0.1309725
95	0xbe3af74e	-0.18258402
96	0xbf03d87a	-0.5150219
97	0xbf32c6e5	-0.6983474
98	0x3e51488e	0.20437834
99	0xbe3ba8f8	-0.18326175
100	0x3e249d67	0.16075669
101	0xbf291e67	-0.66062015
102	0x3f1aefcb	0.60522145
103	0xbf0b1779	-0.5433269
104	0xbeac5aa6	-0.3366291
105	0x3d30ba7e	0.043146603
106	0x3e772bcd	0.24137802
107	0x3efd3183	0.49451837
108	0x3efe03fa	0.4961241
109	0xbeb141df	-0.34620568
110	0x3e84e428	0.2595532
111	0xbeeba654	-0.46025336
112	0x3d0a1282	0.033709057
113	0xbeb26d6e	-0.34849113
114	0x3f2f1142	0.6838571
115	0xbf33b3e4	-0.70196366
116	0x3e81560c	0.2526096
117	0x3dfcb6b3	0.123395346
118	0x3df3c250	0.119022965
119	0xbe21cfc4	-0.15801913
120	0x3f10d682	0.5657731
121	0x3df99bc5	0.12187914
122	0x3d6c34c0	0.057667494
123	0xbf168c9a	-0.5880829
124	0x3e91125f	0.2833433
125	0xbdefec60	-0.11715007
126	0xbea2197b	-0.31660065
127	0x3f1b8283	0.6074602
128	0x3dfdedf1	0.12398899
129	0xbec031a4	-0.37537873
130	0xbe9ebd87	-0.31003973
131	0xbd49f7c6	-0.04930856
132	0x3ec23710	0.37932634
133	0xbe2207c6	-0.15823278
134	0xbea8637e	-0.32888407
135	0xbe52c0cc	-0.20581359
136	0xbf00a6e0	-0.5025463
137	0x3e571969	0.21005787
138	0x3ef5228d	0.47877923
139	0xbf149815	-0.5804456
140	0x3e2f9827	0.17147885
141	0x3eb3bd73	0.35105476
142	0x3ddbad57	0.10726421
143	0xbe8a246f	-0.26980922
144	0x3eb261a6	0.34840125
145	0x3eb86976	0.3601796
146	0x3e867f80	0.2626915
147	0xbe2d053e	-0.16896531
148	0xbe19ec19	-0.1503147
149	0x3d846b09	0.06465728
150	0xbe053e40	-0.13012028
151	0xbe5384f6	-0.2065619
152	0x3ec94256	0.39308423
153	0x3f0c3e24	0.5478232
154	0xbd345e6f	-0.04403537
155	0xbe035ea6	-0.12829074
156	0x3cf8e78f	0.030383853
157	0xbc290a29	-0.010317364
158	0x3e34bd20	0.1765027
159	0x3e256117	0.16150318
160	0xbf1959eb	-0.5990283
161	0xbe88983a	-0.2667864
162	0x3f1216af	0.5706586
163	0x3e73ac24	0.23796135
164	0x3cdcc1cf	0.026947884
165	0xbecdc056	-0.40185803
166	0xbed0c3e9	-0.40774468
167	0xbf2b435b	-0.6689965
168	0xbe642f71	-0.22283722
169	0x3e57220d	0.21009083
170	0x3ef69782	0.48162466
171	0x3e98d8b7	0.2985284
172	0xbf0eaa62	-0.55728734
173	0xbec128cd	-0.3772644
174	0xbd95db89	-0.07317264
175	0x3f24ee7f	0.64426416
176	0x3da45359	0.0802371
177	0xbe3c3897	-0.18380962
178	0x3e823aca	0.25435477
179	0xbe73dc22	-0.23814443
180	0xbecb5409	-0.3971255
181	0x3ef33604	0.47502148
182	0xbe92c573	-0.28666267
183	0xbda14fe3	-0.07876565
184	0xbf1b234b	-0.6060073
185	0x3ee7c719	0.45269087
186	0x3f0282c0	0.5098076
187	0x3e971fb4	0.29516375
188	0xbedbb48d	-0.42911187
189	0xbf274a89	-0.65348107
190	0xbf0d2a8c	-0.55143046
191	0x3efa324e	0.48866504
192	0x3e931e52	0.2873407
193	0x3f0219cf	0.5082063
194	0x3ecc2b88	0.39876962
195	0x3e4930d7	0.19647537
196	0x3c69ce3b	0.014270361
197	0xbefdb6e5	-0.495536
198	0xbf084731	-0.5323363
199	0xbf2eccdc	-0.6828134
200	0x3e8283ee	0.2549128
201	0xbe9efd59	-0.31052664
202	0xbde34e1f	-0.11098885
203	0xbeb34c2e	-0.35019058
204	0xbe3c296d	-0.18375178
205	0xbeecffbe	-0.46288866
206	0xbedc7ef9	-0.43065622
207	0x3e93e61c	0.28886497
208	0xbe4d028a	-0.200205
209	0x3ef597f1	0.47967485
210	0xbe4ad05c	-0.19806045
211	0xbee4e25b	-0.44703946
212	0xbdd97a0d	-0.106189825
213	0xbe9ec49b	-0.31009373
214	0xbe53c2e0	-0.20679808
215	0xbf24ed1f	-0.6442432
216	0x3eb49232	0.35267788
217	0xbeeda2e9	-0.46413353
218	0x3ea15e60	0.31517315
219	0x3e9264cb	0.28592524
220	0x3ed46b1d	0.4148797
221	0xbe245058	-0.16046274
222	0x3ea63082	0.32458884
223	0xbf275659	-0.6536613
224	0x3e324b26	0.1741148
225	0x3f0ded4d	0.5544022
226	0xbe11771a	-0.1420559
227	0xbda60d32	-0.081079856
228	0xbe4d8f4b	-0.20074193
229	0xbed7617b	-0.4206656
230	0x3eb1619c	0.34644783
231	0xbf8631e4	-1.0483975
232	0x3ee206ec	0.44145906
233	0x3ed23f1b	0.4106377
234	0x3f542d5e	0.82881725
235	0xbdb4310b	-0.08798417
236	0xbf154239	-0.5830417
237	0x3ea8f533	0.32999572
238	0x3e9e5cc4	0.3093015
239	0xbf55fcfe	-0.8358916
240	0xbe0749ef	-0.13211797
241	0xbec8870a	-0.39165527
242	0xbc1f1d6a	-0.009711603
243	0xbeb393bd	-0.35073653
244	0xbe96df72	-0.2946735
245	0xbe442041	-0.19152929
246	0xbf19866a	-0.59970725
247	0x3ef97c30	0.4872756
248	0x3f0de131	0.5542174
249	0xbbb028af	-0.0053759436
250	0xbda912d1	-0.08255542
251	0xbe84de00	-0.25950623
252	0xbf18f2b6	-0.5974535
253	0xbf220839	-0.63293797
254	0x3e7bbe5e	0.24584338
255	0xbeb8ba44	-0.3607961

hidden_layers.0.bias f4 [20]
0	0x3d75b9ad	0.059991527
1	0x3d3f51d4	0.046708897
2	0xbcb4b0b4	-0.022056915
3	0x3b8acc97	0.004235815
4	0x3ca5a98f	0.020222453
5	0xbdb87e1b	-0.09008428
6	0xbcad6b5c	-0.021169357
7	0x3cb22104	0.021744259
8	0xbc5804f1	-0.013184772
9	0x3cab6e83	0.02092672
10	0xbc1cff6d	-0.009582383
11	0xbd353050	-0.044235528
12	0x3c7044d1	0.014664845
13	0xbc2b5b87	-0.010458834
14	0x3c031204	0.007999901
15	0x3dbdd56e	0.09269224
16	0x38d5ea78	0.00010200305
17	0xbc113fb0	-0.008865282
18	0xbcaff93a	-0.021481145
19	0xbd9e8bf8	-0.07741541

hidden_layers.1.weight f4 [20, 20]
0	0xbe69588e	-0.22787687
1	0x3f0d2ca1	0.55146223
2	0x3d96ce03	0.07363512
3	0x3f0afb50	0.5428972
4	0x3f2e766e	0.6814946
5	0xbeb93598	-0.361737
6	0xbf0f870e	-0.5606545
7	0x3f196551	0.5992022
8	0x3f2576e8	0.6463456
9	0xbef1476c	-0.47124803
10	0xbd7e93c3	-0.062152635
11	0xbf1ab6b0	-0.6043501
12	0xbf137177	-0.5759501
13	0xbc461ee9	-0.0120923305
14	0x3ebcb5e2	0.36857516
15	0x3e3d19af	0.18466829
16	0xbe5694b7	-0.20955168
17	0x3f1ca789	0.6119314
18	0x3dfebdb2	0.12438525
19	0xbeaf28d1	-0.34210828
20	0xbcaef2b6	-0.021355968
21	0x3deb2f6d	0.11483655
22	0x3e88a85d	0.2669095
23	0xbec9df55	-0.394282
24	0x3e9a184b	0.3009666
25	0xbe8955f0	-0.26823378
26	0xbf04567a	-0.5169445
27	0xbef42cab	-0.4769033
28	0x3f207f66	0.62694395
29	0x3f2ee7b3	0.68322295
30	0x3f2bdf9e	0.6713809
31	0x3eebbe4e	0.46043628
32	0x3f1ad8fa	0.6048733
33	0xbe304c9b	-0.17216723
34	0xbebcda29	-0.36885193
35	0x3e8cd56d	0.2750658
36	0xbe8ba681	-0.2727547
37	0xbed6474b	-0.41851267
38	0xbe5ac967	-0.21365891
39	0x3e396386	0.18104371
40	0x3eac8259	0.33693197
41	0xbeadca7b	-0.33943543
42	0xbebcd153	-0.36878452
43	0x3e1bf23a	0.15229121
44	0xbec19581	-0.37809375
45	0xbecd544e	-0.40103382
46	0x3e801447	0.2501547
47	0xbe1433c5	-0.14472874
48	0x3f34124d	0.70340425
49	0x3f137cac	0.5761211
50	0x3e8a4e14	0.27012694
51	0x3eabcfd6	0.33557004
52	0x3e8d27f8	0.27569556
53	0x3db32ea1	0.08749128
54	0x3d0b8754	0.034064606
55	0xbd24cada	-0.040232517
56	0x3e2eac2c	0.17057866
57	0x3f0d17a5	0.55114204
58	0xbe324857	-0.17410408
59	0xbec2c399	-0.38039854
60	0xbe1317c8	-0.1436454
61	0xbecb9c30	-0.397676
62	0x3de20fc8	0.11038166
63	0x3ef8fa5d	0.48628512
64	0x3f035cb5	0.51313335
65	0x3eaccc92	0.33749825
66	0xbeeb3728	-0.45940518
67	0xbec0f07e	-0.3768348
68	0xbe1a4751	-0.15066268
69	0x3ced02fe	0.02893209
70	0x3cbb390b	0.022854349
71	0xbef6596a	-0.48115093
72	0x3e6b8c6f	0.2300279
73	0xbf1c4c90	-0.61054325
74	0xbee4e6c8	-0.44707322
75	0xbf327476	-0.69708955
76	0x3f08481d	0.53235036
77	0xbf2239ab	-0.63369244
78	0x3ef4fa70	0.4784732
79	0xbceab08b	-0.028648635
80	0xbddf5535	-0.10904924
81	0x3e960fa3	0.29308805
82	0xbda7e6c0	-0.08198309
83	0x3ee917b8	0.45525908
84	0x3eeb500d	0.4595951
85	0xbf2951ba	-0.6614033
86	0x3e8d8656	0.27641553
87	0x3e494a68	0.1965729
88	0xba9c72e4	-0.0011936096
89	0x3ec7a7b2	0.3899513
90	0x3d84db07	0.06487089
91	0xbeba58c9	-0.36395863
92	0xbcd2c2fc	-0.025727741
93	0x3f244286	0.64164007
94	0x3ea40abb	0.32039437
95	0xbdd43976	-0.10362522
96	0xbf29714a	-0.6618849
97	0xbd2e7b89	-0.04259828
98	0xbed057c1	-0.4069195
99	0x3f1c0bf3	0.60955733
100	0xbed12b9d	-0.40853587
101	0xbd71ba98	-0.05901584
102	0xbe18336c	-0.14863366
103	0x3e0edf5d	0.13952394
104	0x3f195f5b	0.59911126
105	0x3d5d5094	0.054031923
106	0x3ec1ad77	0.37827656
107	0x3ef8559c	0.48502815
108	0x3f000469	0.5000673
109	0xbe0468b2	-0.12930563
110	0xbe41ac24	-0.18913323
111	0x3ebad6a2	0.36491877
112	0xbdf4b43e	-0.11948441
113	0x3eb39996	0.35078114
114	0xbe2ebe43	-0.17064767
115	0xbeeb9d89	-0.46018627
116	0x3e861702	0.2618943
117	0x3d951e0f	0.07281124
118	0x3e9c8b16	0.30574864
119	0x3f2051d9	0.6262489
120	0x3ee02266	0.43776244
121	0x3f2e3ead	0.68064386
122	0x3b9e86f8	0.004837867
123	0xbf2361e8	-0.6382127
124	0xbef58aa5	-0.4795734
125	0xbee96ae2	-0.45589358
126	0xbf135195	-0.5754636
127	0xbee6083a	-0.4492815
128	0xbf1906d9	-0.59776074
129	0xbf3c4d06	-0.7355503
130	0xbee3d57a	-0.44498807
131	0xbf5f3f9b	-0.8720643
132	0xbee51281	-0.4474068
133	0x3ea0eb1b	0.3142937
134	0x3f087fd1	0.5332003
135	0xbe2cd8f3	-0.16879635
136	0xbe085491	-0.1331351
137	0x3eab2e94	0.33433974
138	0xbea45ae5	-0.32100597
139	0xbe982a98	-0.29719996
140	0x3eda7a21	0.42671302
141	0xbf3912c6	-0.7229427
142	0x3d372590	0.044713557
143	0x3f1094e1	0.5647717
144	0x3d7c691c	0.061623678
145	0x3e73f5fd	0.23824306
146	0xbeb61abb	-0.3556727
147	0xbdeef561	-0.11667896
148	0xbae81788	-0.0017707208
149	0x3e4dcd08	0.20097744
150	0x3e80a686	0.25127047
151	0x3f24a464	0.6431334
152	0xbea5ba6a	-0.32368785
153	0x3d006b34	0.031352237
154	0xbec262b4	-0.3796593
155	0xbf208519	-0.6270309
156	0xbc734ab2	-0.014849352
157	0xbf2024c3	-0.62556094
158	0x3ed8af6b	0.42321333
159	0x3c85d8e6	0.016338777
160	0xbeba0ef1	-0.36339524
161	0x3e8bdef9	0.27318552
162	0xbf168aab	-0.5880534
163	0xbe97f9bc	-0.2968272
164	0xbdf5edb4	-0.12008229
165	0xbf19274b	-0.5982558
166	0xbee4a21e	-0.44654936
167	0xbe8da0b8	-0.2766168
168	0x3efef68e	0.4979748
169	0x3f3c85fb	0.7364194
170	0x3e87382d	0.26410046
171	0xbeeb1f2c	-0.4592222
172	0xbeee12eb	-0.46498808
173	0x3f2b87bb	0.67003983
174	0x3e853556	0.26017255
175	0xbd7221fd	-0.059114445
176	0x3e646dcc	0.22307509
177	0xbf009c21	-0.50238234
178	0xbe4bd620	-0.19905901
179	0x3f35d9b2	0.710353
180	0xbe126a7d	-0.14298435
181	0xbc63828a	-0.013886103
182	0xbf092144	-0.53566384
183	0xbebfc2d1	-0.3745332
184	0xbc83bb44	-0.016080506
185	0xbec09313	-0.3761221
186	0xbd63f438	-0.055652827
187	0x3e910be8	0.28329396
188	0xbf20f07d	-0.62866956
189	0x3e373351	0.1789067
190	0xbed8e8c2	-0.4236508
191	0xbe9dde2e	-0.30833572
192	0x3e7eb09d	0.2487206
193	0x3eeb27f9	0.45928934
194	0xbe2818c5	-0.16415699
195	0xbe8b262a	-0.27177554
196	0xbf154907	-0.58314556
197	0xbead7ddf	-0.33885095
198	0xbf14440b	-0.57916325
199	0xbe1f2de8	-0.15544856
200	0x3ddc702f	0.10763585
201	0xbf0c9d3d	-0.54927427
202	0x3f18cc6b	0.5968692
203	0x3ed1c0b9	0.40967348
204	0xbf1694ca	-0.58820784
205	0xbead574a	-0.3385566
206	0x3e3f3e1d	0.18676038
207	0xbe88415e	-0.2661237
208	0xbc3e6216	-0.011620065
209	0xbeac0aff	-0.3360214
210	0x3f22b234	0.63553166
211	0xbee66660	-0.4499998
212	0x3efc75a1	0.49308494
213	0x3d07b7c1	0.033134226
214	0x3e321943	0.17392449
215	0x3f1a40ab	0.60254925
216	0xbdee35b0	-0.11631334
217	0xbeab8f6b	-0.33507857
218	0xbda9f792	-0.082991734
219	0x3f12ded1	0.5737124
220	0xbf0bf73a	-0.5467411
221	0x3dc8e45c	0.09809181
222	0xbf0e14b7	-0.5550036
223	0x3eddd40b	0.43325838
224	0x3e91a664	0.28447258
225	0x3d3aeaa0	0.045633912
226	0x3e4158be	0.18881509
227	0xbd963680	-0.07334614
228	0x3ed78aa5	0.42097965
229	0xbee7b6f9	-0.45256785
230	0xbd4775af	-0.048696216
231	0x3ef6545b	0.48111233
232	0x3f5a5e90	0.8530054
233	0x3ee67598	0.45011592
234	0xbed1ac14	-0.40951598
235	0x3ee57764	0.4481765
236	0xbdd22b5e	-0.10262178
237	0xbde7c921	-0.11317659
238	0xbf058c58	-0.5216727
239	0xbdc0715f	-0.09396624
240	0x3ee79c79	0.45236567
241	0x3da44b03	0.0802212
242	0xbeadd32d	-0.33950177
243	0x3e50a8bd	0.20376869
244	0xbe4d1b00	-0.20029831
245	0x3f1f5dc2	0.6225244
246	0xbf140a5c	-0.5782831
247	0xbe2cf5d1	-0.16890647
248	0xbf101e15	-0.562959
249	0xbead8a8d	-0.33894768
250	0x3e85e0ea	0.26148158
251	0x3f29432f	0.6611814
252	0x3e38ed34	0.18059236
253	0x3f2ad646	0.66733205
254	0x3e39ccdd	0.18144555
255	0x3eb9f739	0.36321428

hidden_layers.1.bias f4 [20]
0	0xbcf9c0c6	-0.03048743
1	0x3c02cd50	0.007983521
2	0x3c0b4178	0.008499496
3	0x3c004462	0.007828804
4	0xbd17c596	-0.037053667
5	0xbcaca93c	-0.021076791
6	0x3adb2c16	0.0016721513
7	0x3cdb88ce	0.026798632
8	0xbc7b52e5	-0.015339588
9	0x3c7c760c	0.015409004
10	0xbcae0087	-0.021240486
11	0xbd83807f	-0.06420993
12	0xbb2f43ee	-0.002674337
13	0xbcc9bd50	-0.024626404
14	0xbc3d25c8	-0.011544652
15	0xbd1e4dee	-0.03864854
16	0x3c203895	0.009779115
17	0xbbc9c594	-0.0061575864
18	0x3d20f333	0.039294433
19	0xbc0db6be	-0.008649526

hidden_layers.2.weight f4 [20, 20]
0	0x3db57dee	0.0886191
1	0xbf1a1b5c	-0.60198
2	0xbedf831f	-0.43654725
3	0xbf515ec9	-0.81785256
4	0xbe956c55	-0.29184213
5	0xbea0b71a	-0.31389695
6	0x3e3f5a4c	0.1868679
7	0xbe1689a7	-0.14700948
8	0x3e6a5cbd	0.2288694
9	0x3f326f60	0.69701195
10	0x3e418dd8	0.18901765
11	0xbdebbeea	-0.11511023
12	0xbebd9fb8	-0.37035918
13	0x3e94ebeb	0.2908624
14	0xbebd0db9	-0.36924532
15	0x3d33386e	0.043754987
16	0x3f044c0d	0.51678544
17	0x3e349b85	0.17637451
18	0x3f08fb15	0.5350812
19	0x3f30330f	0.6882791
20	0x3e1b6fbc	0.15179342
21	0xbee9fed3	-0.45702228
22	0x3f0e7add	0.55656224
23	0xbea8525a	-0.3287533
24	0xbe9d811f	-0.30762574
25	0x3f065835	0.52478343
26	0x3f001dc6	0.5004543
27	0x3e3d909d	0.18512197
28	0xbc4154dd	-0.011800018
29	0xbf096c4e	-0.53680885
30	0xbd02ff99	-0.03198204
31	0x3f25adcc	0.6471832
32	0x3e0211e5	0.12702139
33	0x3d8ff8fe	0.07029913
34	0xbdfdcb38	-0.123922765
35	0xbea98f9e	-0.33117384
36	0x3ec5539f	0.3854036
37	0x3cdf0b1c	0.027226977
38	0x3ed2c17b	0.4116324
39	0xbdeb42c5	-0.11487345
40	0x3e5728e3	0.21011691
41	0x3e8eeb58	0.27913928
42	0x3d63ac1a	0.05558405
43	0x3f05f9b9	0.5233417
44	0x3ecdf0fe	0.40222925
45	0x3f19670a	0.5992285
46	0x3f0434da	0.51643145
47	0xbe480328	-0.19532454
48	0xbf08ac4b	-0.533879
49	0x3e187fa4	0.14892441
50	0xbb6bbfcd	-0.0035972476
51	0xbe3d28ea	-0.18472639
52	0xbe0f163e	-0.13973328
53	0x3cc60f3b	0.024177184
54	0x3f00437a	0.5010296
55	0x3e798682	0.24367717
56	0xbe2bb430	-0.16767955
57	0xbe92626a	-0.2859071
58	0xbe7927e2	-0.2433162
59	0xbe815211	-0.25257924
60	0x3f12887f	0.57239527
61	0x3ed66481	0.41873553
62	0x3f3d35c9	0.73910195
63	0x3d4bcf78	0.049758404
64	0x3e0981d1	0.13428427
65	0x3e84bd6f	0.25925776
66	0xbf8637b0	-1.0485744
67	0x3e9d1e56	0.30687207
68	0xbddcc6fe	-0.10780142
69	0xbec70921	-0.38874152
70	0xbed37cdc	-0.41306198
71	0x3f3ca103	0.73683184
72	0x3f2bb978	0.6707988
73	0x3e896c21	0.26840308
74	0x3f1c4079	0.6103588
75	0xbe6393de	-0.22224376
76	0xbdd10077	-0.10205167
77	0x3ecbe188	0.39820504
78	0xbe23fbc4	-0.1601401
79	0xbe0082ff	-0.12549971
80	0xbf06b30b	-0.5261695
81	0x3e70863e	0.2348871
82	0xbeede354	-0.464625
83	0x3c64da95	0.01396813
84	0x3f26f395	0.65215427
85	0xbe41b6d0	-0.18917394
86	0xbe841094	-0.25793898
87	0x3eb94a47	0.36189482
88	0xbe75e657	-0.24013649
89	0xbd8e012a	-0.06933816
90	0x3f359aca	0.70939314
91	0xbe8beaef	-0.27327678
92	0xbee9b792	-0.45647866
93	0xbebba6f3	-0.3665081
94	0xbe2d6b4b	-0.1693546
95	0xbebd41d5	-0.36964288
96	0xbea96cc1	-0.33090785
97	0x3e6f47a2	0.2336717
98	0x3dbc08c8	0.091813624
99	0xbe559a9b	-0.20859759
100	0xbf04b2d8	-0.51835394
101	0xbe775d51	-0.24156691
102	0xbe96bb30	-0.29439688
103	0xbebe2c80	-0.37143326
104	0xbf1ad9f2	-0.6048881
105	0x3deae367	0.11469155
106	0xbef0d0b4	-0.47034228
107	0xbf0650be	-0.5246695
108	0xbf1b099a	-0.60561526
109	0x3e96e5d3	0.29472217
110	0xbee048bd	-0.43805495
111	0xbe4cec42	-0.20012
112	0x3ec9f470	0.39444304
113	0x3ec8c8da	0.39215738
114	0x3ebe209b	0.3713425
115	0xbf441763	-0.76598185
116	0xbee49a24	-0.4464885
117	0xbe531fd9	-0.20617618
118	0x3f097239	0.53689915
119	0x3db170d8	0.08664101
120	0xbf0a4453	-0.54010504
121	0xba9e2b9e	-0.0012067442
122	0xbf037279	-0.51346546
123	0xbdd0606c	-0.10174641
124	0xbe473672	-0.19454363
125	0x3f0e09cc	0.554837
126	0x3e5373d4	0.20649654
127	0xbde98dd4	-0.11404005
128	0x3dd8963c	0.1057553
129	0xbe360c51	-0.17778136
130	0x3e9ab9ee	0.30219978
131	0x3eb023d7	0.34402344
132	0x3e3805ba	0.17970935
133	0xbe719d0f	-0.2359507
134	0x3f1c8adf	0.611494
135	0xbd64a00f	-0.055816706
136	0xbe9508a4	-0.29108155
137	0x3ed00b61	0.4063368
138	0x3f08b133	0.53395385
139	0x3f232b02	0.637375
140	0x3e63525b	0.22199385
141	0xbe86da5d	-0.26338473
142	0x3ea29bb8	0.3175943
143	0x3ef259cc	0.47334135
144	0xbf26b1f8	-0.6511531
145	0xbdc70541	-0.09717799
146	0xbe9c3704	-0.30510724
147	0x3d1ae879	0.03781936
148	0x3e8450b2	0.25842816
149	0xbdfb1ade	-0.12260984
150	0xbe328ff5	-0.17437728
151	0x3e699b03	0.22813039
152	0xbdf6c432	-0.1204914
153	0xbf070c5e	-0.52753246
154	0x3f04d934	0.51893926
155	0xbedea6a1	-0.43486503
156	0xbdc4a7e0	-0.09602332
157	0x3cd33096	0.025780004
158	0x3cd77e8b	0.026305458
159	0xbf1e7558	-0.618978
160	0x3ea57907	0.323189
161	0xbe911015	-0.28332582
162	0xbeb33602	-0.35002142
163	0x3df2531d	0.11832259
164	0xbeae02c6	-0.3398649
165	0xbe90b774	-0.28264964
166	0xbe7ea41c	-0.2486729
167	0xbe524c7f	-0.20536993
168	0xbe896142	-0.26832014
169	0xbe4a2eb3	-0.19744377
170	0x3e47e8e5	0.19522436
171	0xbef40586	-0.47660464
172	0xbec96873	-0.393375
173	0x3afa489e	0.0019095128
174	0x3df7e9a0	0.12105107
175	0x3ecb9fed	0.3977045
176	0xbf092a42	-0.53580105
177	0x3e800e06	0.250107
178	0x3effd174	0.49964488
179	0x3eb474fd	0.35245505
180	0xbf330417	-0.69928116
181	0xbe815217	-0.25257942
182	0xbf14ee51	-0.5817614
183	0xbe9e4372	-0.30910832
184	0x3eb07de1	0.34471038
185	0xbdc26ab4	-0.09493008
186	0x3eb1491d	0.34626094
187	0xbedccff9	-0.4312742
188	0x3e3ddabc	0.18540472
189	0xbeba4ee2	-0.36388308
190	0x3ea330f0	0.31873274
191	0xbecaf710	-0.3964162
192	0xbe0e6be7	-0.13908349
193	0xbf0f7902	-0.5604402
194	0x3c7a896b	0.015291552
195	0x3f37c75a	0.7178856
196	0x3eb979b0	0.36225653
197	0xbebfb233	-0.37440643
198	0xbc68039e	-0.014161019
199	0xbdb00c0c	-0.08596048
200	0xbf1725f4	-0.59042287
201	0x3eea2eed	0.45738927
202	0x3e51d6b8	0.20492065
203	0x3f08378e	0.5320977
204	0xbea37924	-0.3192836
205	0xbecb36c7	-0.3969023
206	0x3dd0a594	0.101878315
207	0x3e98ca98	0.29842067
208	0xbdad548f	-0.08463394
209	0xbe616545	-0.22011288
210	0x3f8f1630	1.1178646
211	0x3e16a207	0.14710246
212	0xbf298ddf	-0.66232103
213	0xbe8e882b	-0.27838263
214	0x3f2fa717	0.68614334
215	0x3d0cfad5	0.0344189
216	0x3d6709c0	0.056405783
217	0xbe6ceaec	-0.2313649
218	0xbebbc6ca	-0.36675102
219	0xbf000f65	-0.5002349
220	0xbeec8ef1	-0.46202806
221	0x3ee03f17	0.43798134
222	0x3f1a294f	0.6021928
223	0x3f89a873	1.0754532
224	0xbf043ee2	-0.5165845
225	0x3ecdd5dd	0.40202227
226	0xbef18d5f	-0.4717817
227	0x3f04846f	0.5176458
228	0x3eda924e	0.42689747
229	0x3ee6cbd6	0.4507739
230	0x3eda224c	0.4260429
231	0x3f09d33f	0.5383796
232	0x3e06fa65	0.13181455
233	0x3e6fec69	0.23430027
234	0xbea44df2	-0.32090718
235	0x3eb05c46	0.344454
236	0xbe67ab67	-0.22623979
237	0x3d9e12da	0.077184394
238	0xbf1042bb	-0.5635182
239	0xbe6fa66f	-0.23403333
240	0xbecb9581	-0.397625
241	0xbe779cae	-0.24180862
242	0xbeb5e1ae	-0.35523742
243	0xbf10622b	-0.5639979
244	0x3cf297bb	0.029613366
245	0x3ed99412	0.4249578
246	0x3f16eb88	0.5895314
247	0x3ec871f5	0.39149442
248	0xbe9c608e	-0.30542415
249	0xbf21911b	-0.6311204
250	0x3e417a53	0.18894319
251	0x3eac194d	0.33613053
252	0xbf12778c	-0.57213664
253	0x3e756b33	0.23966675
254	0x3f0f0a6a	0.55875266
255	0x3df49ea0	0.11944318

hidden_layers.2.bias f4 [20]
0	0x3d9cfda6	0.07665567
1	0x3c8525d7	0.016253395
2	0xbc4174cc	-0.011807632
3	0xbd2263c8	-0.03964594
4	0xbc0ba92c	-0.00852422
5	0x3cf36b2f	0.029714195
6	0x3b4a5a25	0.0030876484
7	0x3ce6551e	0.028116759
8	0xbc28ed95	-0.01031055
9	0xbbcc17d2	-0.0062284255
10	0x3d919599	0.071086116
11	0xbd22269d	-0.039587606
12	0xbbcc078d	-0.006226486
13	0x3cb9ff6b	0.0227048
14	0xbb079a49	-0.0020691326
15	0xbc5d6a1e	-0.01351407
16	0x3d550c44	0.05201365
17	0x3bc8de9b	0.0061300523
18	0xbc47846c	-0.012177568
19	0xbc7a695d	-0.01528391

output_layer.weight f4 [3, 20]
0	0xbee397d4	-0.44451773
1	0xbd7b2750	-0.06131679
2	0x3e3435a6	0.1759859
3	0xbe40002d	-0.18750067
4	0x3f156209	0.58352715
5	0x3d4a8c39	0.049450133
6	0xbf56640d	-0.83746415
7	0xbdfa0b5d	-0.122091986
8	0xbeea8f53	-0.45812473
9	0x3e55f191	0.20892932
10	0xbe31a655	-0.17348607
11	0xbf70b3f1	-0.9402457
12	0xbe4580b8	-0.19287384
13	0xbcdc2b79	-0.026876198
14	0xbe9afe20	-0.30272007
15	0x3f474226	0.7783531
16	0xbe7c4dbd	-0.2463903
17	0x3f1ff50b	0.6248328
18	0x3e360f35	0.17779239
19	0xbf566b97	-0.8375792
20	0x3e5f6961	0.21817543
21	0x3f3a4a8f	0.7277002
22	0xbf118391	-0.5684138
23	0xbf2c2a9d	-0.6725252
24	0x3f559730	0.8343382
25	0x3f42fd84	0.76168084
26	0xbef9f19b	-0.48817143
27	0x3f004b1c	0.5011461
28	0xbdf44214	-0.11926666
29	0xbf74b2bc	-0.95585227
30	0x3dadc751	0.08485282
31	0x3e7fb0fb	0.24969856
32	0xbe83ab34	-0.25716555
33	0x3e9d7aa5	0.30757633
34	0xbf48a755	-0.7838033
35	0x3f1a54cc	0.6028564
36	0x3f3a7640	0.72836685
37	0x3ee791a2	0.45228297
38	0x3e3e286f	0.18570112
39	0x3e5ee79e	0.21768042
40	0xbf761247	-0.9612164
41	0x3e2ce615	0.16884644
42	0xbe4ab691	-0.19796206
43	0x3d94fa33	0.07274284
44	0xbecb55d7	-0.39713928
45	0x3f33b6ec	0.7020099
46	0xbe490756	-0.19631705
47	0xbec29619	-0.3800514
48	0x3f256e8d	0.6462181
49	0x3e25901f	0.16168259
50	0x3eccfda9	0.40037277
51	0x3ea88b83	0.3291894
52	0x3e48afdc	0.19598335
53	0xbd610e2b	-0.054945152
54	0x3daaccdb	0.08339854
55	0x3ed72163	0.4201766
56	0xbf1f8b79	-0.62322193
57	0xbe9a86fe	-0.30181116
58	0x3ba01b95	0.0048861005
59	0x3b98f55f	0.0046679224

output_layer.bias f4 [3]
0	0xbbfa6007	-0.007640842
1	0x3c5cdf28	0.013480939
2	0xbe8e6f24	-0.2781917
