results/ADAM_sqloss.pt (torch, 9143 bytes, 10 tensors)

input_layer.weight f4 [20, 3]
0	0x3f290316	0.66020334
1	0x3f36a996	0.7135252
2	0xbe43d352	-0.19123581
3	0x3f459f02	0.7719575
4	0xbe460795	-0.1933883
5	0x3e2a5ec0	0.16637707
6	0xbed0eae4	-0.40804207
7	0x3f01e80e	0.5074471
8	0x3f413e94	0.7548611
9	0xbf222cf5	-0.6334985
10	0x3f3b0e1e	0.73068416
11	0x3e195a2b	0.14975803
12	0x3f1e7cf3	0.6190941
13	0x3dd7bc4a	0.1053396
14	0x3ecd13f9	0.400543
15	0xbe00a9a8	-0.12564719
16	0x3f25b3d3	0.64727515
17	0x3df3b994	0.119006306
18	0xbec68014	-0.3876959
19	0x3e6790e1	0.2261386
20	0xbec5a987	-0.38605902
21	0xbdb84605	-0.0899773
22	0xbeb30ca4	-0.34970582
23	0x3f0fbf99	0.5615173
24	0xbf2b8754	-0.6700337
25	0xbec5ae23	-0.38609418
26	0xbe732b9c	-0.23747104
27	0xbf059f63	-0.5219633
28	0x3d8fd2bf	0.070226185
29	0xbf54a5cf	-0.83065504
30	0x3f4308be	0.76185215
31	0xbf39c85d	-0.72571355
32	0x3f27b30d	0.65507585
33	0x3e18b877	0.14914118
34	0xbe89240c	-0.26785314
35	0x3f08d444	0.5344889
36	0x3e00ff7a	0.12597457
37	0x3f2d7b16	0.6776594
38	0x3dbe340a	0.092872694
39	0xbe8e87f0	-0.27838087
40	0x3e5fefd8	0.21868837
41	0xbe76bafa	-0.24094763
42	0x3ebc9cb5	0.36838308
43	0x3f45253a	0.7700993
44	0x3f008d5e	0.5021571
45	0xbebada7d	-0.36494818
46	0x3efeff6a	0.4980424
47	0x3e124a69	0.14286198
48	0x3edb6edb	0.42858014
49	0xbf067550	-0.52522755
50	0xbf558216	-0.8340162
51	0xbead7cb1	-0.33884194
52	0xbf2583ba	-0.64654124
53	0x3f320638	0.6954074
54	0x3e82b88f	0.25531432
55	0x3eb955c0	0.36198235
56	0x3e8e9dee	0.27854866
57	0xbbdcab3e	-0.006734281
58	0x3f2811a3	0.6565191
59	0xbf1d3e70	-0.614234

input_layer.bias f4 [20]
0	0x3bfab363	0.007650779
1	0xbc22591e	-0.0099089425
2	0x3bd1e8e3	0.006405936
3	0xbc164834	-0.009172488
4	0xbc219adc	-0.0098635815
5	0xbbee9f65	-0.007282185
6	0xbb857852	-0.004073181
7	0x3bda5c0e	0.006663806
8	0x3a7bc526	0.00096042675
9	0xbc25ffe1	-0.010131807
10	0x3c196f05	0.009364848
11	0x3c156501	0.0091183195
12	0xbc25d48f	-0.010121479
13	0xbc24cedd	-0.010059086
14	0x3bab3457	0.0052247453
15	0x3be2ae46	0.0069177477
16	0xbaa8e737	-0.001288629
17	0x3c204d6b	0.009784083
18	0x3c205aca	0.009787271
19	0x3c118969	0.008882859

hidden_layers.0.weight f4 [20, 20]
0	0x3d4f1bfa	0.05056379
1	0xbedc899a	-0.43073732
2	0x3e55e0af	0.20886491
3	0xbe59a1d0	-0.21253133
4	0x3e54b274	0.207712
5	0xbdff052c	-0.12452158
6	0x3f068367	0.52544254
7	0xbebedcfc	-0.37277973
8	0xbeca2f99	-0.3948944
9	0xbeca3269	-0.39491585
10	0x3f122c5a	0.57098925
11	0x3e66099d	0.22464605
12	0x3f218c91	0.6310511
13	0xbf09e3bd	-0.53863126
14	0xbf215d73	-0.6303322
15	0xbefd844b	-0.49514994
16	0xbee35deb	-0.4440759
17	0x3e84977e	0.2589683
18	0x3e76d7ef	0.2410581
19	0x3f099c3a	0.5375401
20	0xbeafc5a6	-0.3433048
21	0xbee66e44	-0.45006
22	0x3eb44edf	0.35216424
23	0xbe807315	-0.250878
24	0x3ec37d19	0.3818138
25	0xbe257d78	-0.16161144
26	0x3ec230e0	0.37927914
27	0xbefbc3ed	-0.49172917
28	0xbea1b009	-0.31579617
29	0x3e53b248	0.20673478
30	0x3e0177fe	0.1264343
31	0xbe32af19	-0.17449607
32	0x3ebfe6c7	0.37480757
33	0x3ee5d022	0.44885355
34	0xbef4c320	-0.4780512
35	0xbeab4f08	-0.33458734
36	0x3f14ced1	0.58128077
37	0xbe54d078	-0.2078265
38	0xbe74862d	-0.23879309
39	0xbf1d54ca	-0.614575
40	0xbeb844a2	-0.35989863
41	0x3e2f22ee	0.17103168
42	0xbd9a81d5	-0.07544295
43	0xbeeae5e0	-0.45878506
44	0x3ccbfb6f	0.024900166
45	0xbedcc1bd	-0.4311656
46	0xbf0eb031	-0.55737597
47	0xbeb79660	-0.35856915
48	0xbf131feb	-0.5747058
49	0xbed76f54	-0.42077124
50	0x3f22a13f	0.6352729
51	0x3e050827	0.12991391
52	0x3e55aef0	0.20867515
53	0xbf1c94c7	-0.61164516
54	0xbed41049	-0.41418675
55	0xbe520420	-0.20509386
56	0x3dbabc1c	0.0911791
57	0xbf13db81	-0.5775681
58	0xbe896797	-0.26836845
59	0xbec15620	-0.3776102
60	0x3c15afdd	0.009136167
61	0xbe6e6cac	-0.23283643
62	0xbd3c2ae8	-0.045939356
63	0xbedc9ba0	-0.43087482
64	0xbedf1666	-0.43571776
65	0xbebd48aa	-0.369695
66	0xbe69b792	-0.22823933
67	0xbf049b85	-0.51799804
68	0x3f08ac78	0.53388166
69	0xbe0ab280	-0.13544655
70	0x3f100df4	0.5627129
71	0x3e4f364a	0.20235553
72	0xbf0a0cd1	-0.53925806
73	0x3ee0e854	0.43927252
74	0xbe2e57ce	-0.17025682
75	0xbe75e94e	-0.2401478
76	0xbf086757	-0.53282684
77	0xbf26358e	-0.6492547
78	0x3e44a3fb	0.19203179
79	0xbe07a7a6	-0.13247547
80	0x3e83bece	0.2573151
81	0xbf05fd53	-0.5233967
82	0x3ef93ce6	0.48679274
83	0xbef4babb	-0.47798714
84	0xbdd7f6dc	-0.105451316
85	0x3e0d6590	0.13808274
86	0x3ea79577	0.3273122
87	0x3f0301e1	0.5117474
88	0x3f14fec4	0.5820124
89	0xbf048e46	-0.5177959
90	0x3e2aa3fc	0.16664118
91	0xbe8b39ea	-0.27192622
92	0xbd8490a2	-0.06472899
93	0xbefa4f5c	-0.4888867
94	0x3f180e25	0.5939658
95	0xbef45e59	-0.47728232
96	0x3eacb728	0.33733487
97	0x3e5f8c7d	0.21830936
98	0x3e5cf1fe	0.21576688
99	0xbeae2c3a	-0.34018117
100	0x3f180643	0.59384555
101	0x3e185b8e	0.14878675
102	0x3d9c458f	0.07630455
103	0xbf12dbef	-0.5736684
104	0x3e8e61bd	0.27808943
105	0xbdc11c1a	-0.09429188
106	0xbe9aea04	-0.30256665
107	0x3f0cde64	0.5502684
108	0x3e0c1425	0.1367956
109	0xbeba6a2e	-0.36409134
110	0xbea47969	-0.3212388
111	0xbce8574b	-0.028361937
112	0x3ebc2de4	0.36753762
113	0xbe2ff9e6	-0.17185172
114	0xbeb8ed8a	-0.36118728
115	0xbe65cc39	-0.22441186
116	0xbef33f51	-0.47509244
117	0x3e646c56	0.22306952
118	0x3f01bae1	0.5067578
119	0xbf19e1cb	-0.6011016
120	0x3e1f8ed1	0.15581824
121	0x3eade2c9	0.33962086
122	0x3dfbb50e	0.12290393
123	0xbe64d14b	-0.22345464
124	0x3eaf8622	0.34282023
125	0x3eb1b100	0.34705353
126	0x3e710d8c	0.23540324
127	0xbdfacf16	-0.1224653
128	0xbe351498	-0.17683637
129	0x3d8151f3	0.06314459
130	0xbddbb7e0	-0.10728431
131	0xbe400501	-0.18751909
132	0x3ed647c5	0.4185163
133	0x3f0c657f	0.5484237
134	0xbd6d8bb9	-0.057994578
135	0xbe0ced96	-0.13762507
136	0x3b43ec7e	0.00298956
137	0xbd2981ea	-0.04138366
138	0x3e24f59d	0.16109319
139	0x3e40887a	0.18802062
140	0xbf13a5c2	-0.576748
141	0xbe6a43f9	-0.22877492
142	0x3f0dabcc	0.55340266
143	0x3e7be727	0.24599896
144	0xbcb8f014	-0.022575416
145	0xbec271bb	-0.37977394
146	0xbecf137a	-0.40444547
147	0xbf155f61	-0.5834866
148	0xbe613767	-0.2199379
149	0x3e55772b	0.2084624
150	0x3ed72f6f	0.42028376
151	0x3e9d8cb1	0.30771402
152	0xbf0fa137	-0.5610537
153	0xbecb923f	-0.39760014
154	0xbdbd1cd1	-0.09234012
155	0x3f209665	0.62729484
156	0x3dab8f61	0.08376957
157	0xbe3523b6	-0.17689404
158	0x3e8d9c29	0.27658203
159	0xbe7219dc	-0.23642677
160	0xbed5675d	-0.41680422
161	0x3ef1e32f	0.4724364
162	0xbe9344ea	-0.28763515
163	0xbdfae081	-0.12249852
164	0xbf24227b	-0.64115113
165	0x3ede3be7	0.43405077
166	0x3ef9e834	0.4880997
167	0x3e772247	0.2413417
168	0xbee6f402	-0.45108038
169	0xbf2352a4	-0.63797975
170	0xbf05486f	-0.5206365
171	0x3ef7b873	0.4838291
172	0x3e9f2e0d	0.3108982
173	0x3f0a5d07	0.540482
174	0x3eada4d9	0.3391483
175	0x3e2e0acf	0.1699631
176	0xbc43ae6d	-0.011943442
177	0xbefc43e5	-0.4927055
178	0xbf0d534d	-0.5520523
179	0xbf18bb62	-0.59660923
180	0x3e8544fa	0.26029187
181	0xbea4199d	-0.3205079
182	0xbe01880e	-0.12649557
183	0xbeba6d40	-0.36411476
184	0xbdf8fbe0	-0.12157416
185	0xbeea6253	-0.4577814
186	0xbed61090	-0.4180951
187	0x3e64bad3	0.22336893
188	0xbe40663a	-0.18788996
189	0x3ecdf917	0.40229103
190	0xbe4c3ea8	-0.19945776
191	0xbeefd9d9	-0.46845892
192	0xbdf15289	-0.117833205
193	0xbe9fa955	-0.31183878
194	0xbe4e44b0	-0.2014339
195	0xbf1b2577	-0.6060404
196	0x3eb7fd54	0.35935462
197	0xbee3f08e	-0.44519466
198	0x3ea4175d	0.32049075
199	0x3e9478fc	0.28998554
200	0x3eeabb2d	0.4584593
201	0xbefee0b6	-0.49780816
202	0x3ef2482e	0.47320694
203	0xbe9792c2	-0.29604155
204	0x3e728036	0.23681721
205	0x3f1d9ba5	0.6156562
206	0xbdb4e268	-0.08832246
207	0x3b8c7375	0.0042862245
208	0xbe156874	-0.14590627
209	0xbf09490a	-0.53627074
210	0x3e9be726	0.3044979
211	0xbf24b001	-0.6433106
212	0x3ecbc896	0.39801472
213	0x3ef8e227	0.4861004
214	0x3f1b951b	0.6077439
215	0xbe129044	-0.14312845
216	0xbf09ff76	-0.5390543
217	0x3e1837e6	0.14865074
218	0x3eb53017	0.35388252
219	0xbf222ec4	-0.6335261
220	0xbe0c38ec	-0.13693589
221	0xbec173b7	-0.37783596
222	0xbd3e3b23	-0.046443116
223	0xbe9d8c19	-0.3077095
224	0xbe823309	-0.25429562
225	0xbe480df5	-0.19536574
226	0xbf1f77a5	-0.6229194
227	0x3f0a2d32	0.5397521
228	0x3f081578	0.5315776
229	0xbde2f5e9	-0.1108206
230	0xbd91e793	-0.071242474
231	0xbe81e064	-0.2536651
232	0xbf12c7c9	-0.573361
233	0xbf221716	-0.63316476
234	0x3e7f745e	0.24946734
235	0xbeb04e41	-0.34434703
236	0xbed99d59	-0.4250286
237	0xbd4007b3	-0.046882343
238	0xbe525309	-0.20539488
239	0xbe5e7b2e	-0.21726677
240	0x3cf6d54f	0.03013101
241	0xbe02d518	-0.12776601
242	0xbe59ed3b	-0.21281902
243	0xbea1fd92	-0.3163877
244	0xbf04143f	-0.51593393
245	0x3f0cd396	0.55010355
246	0xbe890ebc	-0.26769054
247	0x3e335a0b	0.17514817
248	0xbe6ef498	-0.23335493
249	0x3d306468	0.043064505
250	0x3f1c0e2d	0.6095913
251	0x3e9cfa38	0.30659652
252	0xbf0cccc3	-0.5499994
253	0x3e7d2c85	0.24724014
254	0x3f1f4374	0.622123
255	0x3e249e79	0.16076078

hidden_layers.0.bias f4 [20]
0	0x3c228c37	0.009921125
1	0xbc231525	-0.009953772
2	0x3c1fe3ba	0.009758884
3	0x3bf0cad1	0.0073483963
4	0x3bc4e7fe	0.006009101
5	0x3be93772	0.0071172053
6	0x3bc19727	0.0059079113
7	0x3c1c23ea	0.009530047
8	0x3a820010	0.0009918232
9	0xbb816aae	-0.003949485
10	0xbb316726	-0.0027069538
11	0x3c1cad90	0.009562865
12	0x3c19d606	0.009389406
13	0xbac9732a	-0.0015369405
14	0x3c18ba82	0.009321811
15	0x3c02f305	0.007992511
16	0x3c206090	0.009788647
17	0xb882c96c	-6.236401e-05
18	0x3c075537	0.008260063
19	0x3c05afbb	0.008159573

hidden_layers.1.weight f4 [20, 20]
0	0xbd3cd4ac	-0.046101257
1	0x3e28acd1	0.16472174
2	0x3e5dca0a	0.21659103
3	0xbee4c2de	-0.44679922
4	0x3e6e3a0c	0.2326433
5	0xbeadda86	-0.33955783
6	0xbf0bb60e	-0.5457467
7	0xbeb0b784	-0.3451501
8	0x3f20f85a	0.62878954
9	0x3f0b917d	0.5451887
10	0x3f117d97	0.5683226
11	0x3ec6e283	0.3884469
12	0x3ef4e761	0.47832778
13	0xbd9e2920	-0.07722688
14	0xbeb36014	-0.3503424
15	0x3ea14ae7	0.31502458
16	0xbeb026b3	-0.34404525
17	0xbeda50cd	-0.4263977
18	0xbe4e3c51	-0.20140196
19	0x3e10f949	0.14157595
20	0x3eae4628	0.340379
21	0xbe82381b	-0.2543343
22	0xbebdd6dd	-0.3707799
23	0x3dabaafd	0.08382223
24	0xbec6dadd	-0.38838854
25	0xbed61a94	-0.41817153
26	0x3eaf3b82	0.34225088
27	0xbdd20b23	-0.102560304
28	0x3f14c14d	0.58107454
29	0x3f210fa7	0.6291451
30	0x3e492efc	0.1964683
31	0x3e5dfd75	0.21678717
32	0x3e0f11fa	0.13971701
33	0x3b5603e3	0.0032656125
34	0xbd42da83	-0.04757167
35	0xba65a6ce	-0.00087605126
36	0x3e77c80e	0.24197409
37	0x3f170f21	0.5900746
38	0xbe2367a1	-0.159575
39	0xbe90a4a8	-0.28250623
40	0xbe167891	-0.1469443
41	0xbea26a9c	-0.31721961
42	0x3df3a624	0.11896923
43	0x3efbdf7e	0.49193949
44	0x3f03c048	0.5146527
45	0x3e9b9b55	0.30391946
46	0xbeee96ce	-0.4659943
47	0xbeb646dc	-0.35600936
48	0xbe1b2eca	-0.15154567
49	0xbddf72be	-0.10910557
50	0x3d77cd3a	0.060498454
51	0xbf17a872	-0.592414
52	0x3e43e4dd	0.19130273
53	0xbef6ffbe	-0.4824199
54	0xbecbf339	-0.39834002
55	0xbf07011d	-0.52736074
56	0x3f119f5b	0.5688378
57	0xbf19e721	-0.601183
58	0x3ef4ba1f	0.4779825
59	0xbd018a3c	-0.03162597
60	0xbd925e85	-0.071469344
61	0x3ecf7051	0.40515378
62	0xbd6b2c72	-0.057415433
63	0x3ed410ac	0.4141897
64	0x3eea5861	0.45770553
65	0xbf11fa84	-0.5702288
66	0x3e813489	0.25235394
67	0x3df495fb	0.11942669
68	0x3e03e313	0.1287959
69	0x3dccd746	0.10001998
70	0x3e3079b0	0.1723392
71	0xbea0c2db	-0.31398663
72	0xbda2ea3d	-0.07954834
73	0x3f1f973c	0.6234014
74	0x3ee16fe4	0.44030678
75	0xbca22445	-0.019792685
76	0xbf19e553	-0.60115546
77	0x3cc468d6	0.02397577
78	0xbedbf938	-0.42963576
79	0x3f03d2c9	0.5149351
80	0xbec37ff1	-0.3818355
81	0xbd67d6f5	-0.056601483
82	0xbe0867b7	-0.13320814
83	0x3dd81e83	0.10552695
84	0x3f1924ab	0.59821576
85	0x3d921952	0.07133736
86	0x3ec48f7b	0.38390717
87	0x3efc42e2	0.49269778
88	0x3f053ef9	0.52049214
89	0xbe6e4408	-0.2326814
90	0xbe098fed	-0.1343381
91	0x3e9a2710	0.30107927
92	0xbe3e702f	-0.18597482
93	0x3e96a1b5	0.29420248
94	0xbe1aa189	-0.15100683
95	0xbee52a71	-0.44758943
96	0x3e8b89c8	0.27253556
97	0x3db8657d	0.09003732
98	0x3e8e3c94	0.27780592
99	0x3f247a2c	0.6424892
100	0x3edda636	0.4329087
101	0x3f1e99fc	0.6195371
102	0x3cde9885	0.027172336
103	0xbf0c2a31	-0.5475188
104	0xbee42842	-0.44561964
105	0xbed14014	-0.408692
106	0xbf13a83c	-0.5767858
107	0xbea9712e	-0.33094162
108	0xbf1666b1	-0.58750445
109	0xbf168ae1	-0.5880566
110	0xbec95af4	-0.39327204
111	0xbf20fa6b	-0.6288211
112	0xbec69e1b	-0.387925
113	0x3e75d609	0.24007429
114	0x3f0bb9b5	0.5458024
115	0xbe3caf44	-0.18426234
116	0xbe47da9f	-0.19516991
117	0x3eb43598	0.3519714
118	0xbea0cf99	-0.31408384
119	0xbe9aa8fa	-0.30207044
120	0x3ec7440a	0.38919097
121	0xbf0e26bb	-0.5552785
122	0x3d8ef358	0.06980008
123	0x3f0f67ee	0.5601796
124	0x3dec564a	0.11539896
125	0x3e2b9633	0.16756515
126	0xbec4f6ee	-0.38469642
127	0x3a5c9c2a	0.0008415604
128	0x3d2962a3	0.041353833
129	0x3e18184d	0.1485302
130	0x3e78ba08	0.24289715
131	0x3f1131ca	0.567166
132	0xbef726b2	-0.4827171
133	0x3c4f8cd7	0.012667856
134	0xbea27877	-0.31732532
135	0xbf042fa7	-0.5163521
136	0xbd6f9bf1	-0.058498327
137	0xbf0eff95	-0.5585874
138	0x3eeb61a2	0.45972925
139	0x3dad09b8	0.08449119
140	0xbeaf42f7	-0.34230778
141	0x3eaa9012	0.33313042
142	0xbf1a7da0	-0.6034794
143	0xbe818700	-0.2529831
144	0xbe07f565	-0.13277204
145	0xbf0c5393	-0.54815024
146	0xbed0b811	-0.40765432
147	0xbdc916c8	-0.09818798
148	0x3ef6efb5	0.48229757
149	0x3f1e5256	0.61844385
150	0x3ed382f0	0.41310835
151	0xbec73106	-0.3890459
152	0xbedbb2b2	-0.4290977
153	0x3f0dbaa4	0.55362916
154	0x3e671893	0.22567968
155	0x3c19a277	0.009377114
156	0x3db9f627	0.09080153
157	0xbf073f91	-0.5283137
158	0xbe528a00	-0.20560455
159	0x3f1fc170	0.6240454
160	0xbe2b5cf6	-0.1673468
161	0xbcbe04fd	-0.023195738
162	0xbf0b1c70	-0.5434027
163	0xbeb4b228	-0.35292172
164	0xbbd9d388	-0.006647531
165	0xbed1f7b7	-0.41009304
166	0xbdb51b35	-0.0884308
167	0x3e824536	0.2544343
168	0xbf1f1de8	-0.6215501
169	0x3e4d1a97	0.20029674
170	0xbeded588	-0.43522286
171	0xbe9cbbb4	-0.30611956
172	0x3e78c64b	0.24294393
173	0x3f00e26c	0.5034549
174	0xbe2be89f	-0.16787957
175	0xbe8aa206	-0.2707674
176	0xbf17c4bb	-0.5928456
177	0xbeaf55a3	-0.34245023
178	0xbf12a05f	-0.57275957
179	0xbe142c95	-0.14470132
180	0x3e1011ca	0.14069286
181	0xbf1d5599	-0.61458737
182	0x3f0dd113	0.55397147
183	0x3eca40dd	0.39502612
184	0xbf245069	-0.64185196
185	0xbe98ce89	-0.29845074
186	0x3e61afd5	0.22039731
187	0xbe0eeeae	-0.13958237
188	0xbd772a21	-0.06034291
189	0xbe9a46ac	-0.30132043
190	0x3f073d9d	0.5282839
191	0xbebdcc3e	-0.37069887
192	0x3f067c14	0.5253308
193	0x3d01299a	0.031533815
194	0x3df58b02	0.11989404
195	0x3efcbb2a	0.49361545
196	0xbdc5879a	-0.096450046
197	0xbeb75ef0	-0.3581462
198	0xbde9f176	-0.11423008
199	0x3f089713	0.5335552
200	0xbefa3686	-0.48869723
201	0x3e2011d4	0.15631801
202	0xbf24d53f	-0.6438789
203	0x3eb251c9	0.34828022
204	0x3e6a4914	0.2287944
205	0x3c8f2904	0.017475612
206	0x3e88dee8	0.26732564
207	0xbb9f6f4f	-0.004865564
208	0x3eb9e5ea	0.36308223
209	0xbf005929	-0.5013605
210	0xbdd650c1	-0.10464621
211	0x3e978f0c	0.29601324
212	0x3f23428d	0.63773423
213	0x3ea389e6	0.31941146
214	0xbeeb4877	-0.45953724
215	0x3ef97793	0.4872404
216	0xbe1d7003	-0.1537476
217	0xbe17577a	-0.14779463
218	0xbf13a89f	-0.5767917
219	0xbdcbbd1c	-0.09948179
220	0x3ee89088	0.4542277
221	0x3db592e9	0.088659115
222	0xbec404b2	-0.38284832
223	0x3e479ed1	0.19494177
224	0xbe4e84a8	-0.20167792
225	0x3f189e13	0.596162
226	0xbf0f0844	-0.5587199
227	0xbe55b5f5	-0.20870192
228	0xbf1d10e1	-0.6135388
229	0xbe82fee6	-0.25585097
230	0x3e528d9b	0.2056183
231	0x3f1ec6f7	0.62022346
232	0x3de172d4	0.1100823
233	0x3f1f72ea	0.6228472
234	0x3e00309b	0.12518542
235	0x3ebcfe03	0.36912546
236	0x3f048ed7	0.51780456
237	0x3f0a1714	0.53941464
238	0xbebe03dc	-0.3711232
239	0x3f1a78fc	0.6034086
240	0x3eca286f	0.39483973
241	0xbe9e0afb	-0.30867752
242	0xbe9f84c9	-0.31155995
243	0xbf0948fc	-0.5362699
244	0x3e28d39d	0.16486974
245	0xbf037e49	-0.5136457
246	0x3e907f53	0.2822214
247	0x3e490ec0	0.19634533
248	0xbf0d23a4	-0.5513251
249	0x3e367d8a	0.17821327
250	0xbd319f30	-0.043364704
251	0x3e93ec88	0.28891397
252	0x3eb89db4	0.36057818
253	0xbf228690	-0.63486576
254	0x3f153045	0.5827678
255	0x3f0af5b2	0.5428115

hidden_layers.1.bias f4 [20]
0	0xbc1e09d9	-0.009645903
1	0x3b8732a9	0.004125912
2	0x3bec4b6d	0.00721114
3	0xbb94db76	-0.0045427633
4	0x3c2469e9	0.010035017
5	0xbbfaadf4	-0.0076501314
6	0xbbffa1be	-0.0078012636
7	0x3b15ea5a	0.002287528
8	0xbc105c6d	-0.0088110985
9	0x3c209776	0.009801736
10	0xbc211f9b	-0.0098341955
11	0x3b0d8ea9	0.0021599925
12	0x3be19880	0.0068846345
13	0x3b79ac80	0.0038097203
14	0xbb9a898c	-0.004716104
15	0xbbee7c75	-0.00727802
16	0xba823427	-0.0009933756
17	0xbbe8a40c	-0.007099634
18	0xbc1d98cc	-0.009618949
19	0x3bca3ff6	0.0061721755

hidden_layers.2.weight f4 [20, 20]
0	0x3e124685	0.14284714
1	0xbeec40bf	-0.46143147
2	0x3f116ff5	0.5681146
3	0xbe988453	-0.29788455
4	0xbea13cea	-0.31491786
5	0x3f0a0c92	0.5392543
6	0x3efb605b	0.4909695
7	0x3e4fe135	0.20300753
8	0x3d4c151f	0.04982483
9	0xbf0d11e2	-0.5510541
10	0xbd6dbd88	-0.05804208
11	0x3f20fa02	0.6288148
12	0x3e22d835	0.15902789
13	0x3d85dcc0	0.06536245
14	0xbe007bea	-0.1254727
15	0xbe61e173	-0.22058658
16	0x3ec88aac	0.39168298
17	0x3d449319	0.047991846
18	0x3ed21a43	0.4103566
19	0xbdfa7ac3	-0.12230446
20	0x3e950020	0.29101658
21	0x3e8d9293	0.2765089
22	0x3dbf6186	0.09344773
23	0x3ed3eeeb	0.41393217
24	0x3ec9ebd2	0.3943773
25	0x3f16b9e2	0.58877385
26	0x3ef8e8c6	0.48615092
27	0xbe207849	-0.15670885
28	0xbf096140	-0.53664017
29	0x3de63dc7	0.11242252
30	0x3b935307	0.0044959816
31	0xbe2aaa8d	-0.16666622
32	0xbdc98058	-0.09838933
33	0x3d25c951	0.040475193
34	0x3ef13ab2	0.47115093
35	0x3e531545	0.20613582
36	0xbe723abc	-0.23655218
37	0xbe833b6d	-0.25631276
38	0xbe2e11c0	-0.16998959
39	0xbe84b980	-0.25922775
40	0x3f122222	0.5708333
41	0x3eb413df	0.3517141
42	0x3f15a058	0.5844779
43	0x3af63203	0.0018783215
44	0x3df65be5	0.12029246
45	0x3e6bfec3	0.23046403
46	0xbf19e12f	-0.6010923
47	0x3d6c10b1	0.057633106
48	0xbd36c7d8	-0.04462418
49	0xbeb9c8dd	-0.3628606
50	0xbf02c9ee	-0.5108937
51	0x3f1109e7	0.56655735
52	0x3f03eb5d	0.5153101
53	0x3e9e51c0	0.30921745
54	0x3f2042f8	0.62602186
55	0xbe80ebf6	-0.25180024
56	0xbde2bffd	-0.11071775
57	0x3e732d59	0.23747768
58	0xbdc5a0a1	-0.09649778
59	0xbe03a7d2	-0.12856987
60	0xbf0b17e3	-0.54333323
61	0x3e34cf5e	0.1765723
62	0xbec2c22f	-0.38038775
63	0x3c61ff7c	0.013793822
64	0x3f214fc0	0.63012314
65	0xbe5519ce	-0.20810625
66	0xbe46139a	-0.19343415
67	0x3ec2963f	0.38005254
68	0xbe7d1ea0	-0.24718714
69	0xbd3be642	-0.045873888
70	0x3f17c86a	0.5929018
71	0xbe8ca0ad	-0.27466336
72	0xbeef5b0b	-0.46749148
73	0xbebe165c	-0.37126434
74	0xbe381f9c	-0.17980808
75	0xbe97b1a8	-0.29627728
76	0xbeb04a04	-0.3443147
77	0x3e8086ee	0.25102943
78	0x3df4f362	0.11960484
79	0xbe49af84	-0.1969586
80	0xbefd4d70	-0.49473143
81	0xbe466121	-0.19372989
82	0xbe866ca4	-0.2625476
83	0xbe61409c	-0.21997303
84	0xbf127d9e	-0.57222927
85	0x3e042f46	0.12908658
86	0xbef80399	-0.48440245
87	0xbefeba2a	-0.49751407
88	0xbf098847	-0.5372357
89	0x3e8d31a1	0.27576926
90	0xbec1cd53	-0.37851962
91	0xbe85c78e	-0.2612881
92	0x3efebb62	0.49752337
93	0x3eaa6b66	0.33285064
94	0x3eb85cc9	0.3600829
95	0xbf1aac42	-0.60419095
96	0xbef21bfb	-0.47286972
97	0xbe71dd75	-0.23619635
98	0x3f060518	0.5235152
99	0x3d9bba4e	0.07603894
100	0xbef2cd9b	-0.4742249
101	0x3c44f1da	0.0120205525
102	0xbf01f7b4	-0.5076859
103	0xbe0a7dda	-0.13524571
104	0xbe3fd437	-0.18733297
105	0x3f0ccafd	0.54997236
106	0x3e437e7c	0.19091219
107	0xbdd78f4c	-0.105253786
108	0x3deb5e1e	0.11492561
109	0xbe45c08c	-0.19311732
110	0x3e860b12	0.2618032
111	0x3e7e357d	0.24825092
112	0x3e3b047c	0.1826343
113	0xbe8589e3	-0.26081762
114	0x3f0d9456	0.5530447
115	0xbdb083e9	-0.0861891
116	0xbe7b38df	-0.24533413
117	0x3ed2a26f	0.41139552
118	0x3f04d19d	0.51882344
119	0x3f229a08	0.63516283
120	0x3e4a5ebd	0.19762702
121	0xbe572de2	-0.21013597
122	0x3ea2c636	0.31791848
123	0x3f104ce4	0.56367326
124	0xbf248aac	-0.64274096
125	0xbd8f4e73	-0.06997385
126	0xbedc42e2	-0.43019778
127	0x3e05683c	0.13028044
128	0x3e8dc5f3	0.27690086
129	0xbe12baba	-0.14329043
130	0xbd824126	-0.06360082
131	0x3e8f9d5e	0.2804975
132	0xbdcab405	-0.09897617
133	0xbf08b796	-0.5340513
134	0x3f06c8bf	0.52650064
135	0xbea12f65	-0.31481472
136	0xbd7956bb	-0.06087373
137	0x3d893bd3	0.06700864
138	0xbceaa45d	-0.028642828
139	0xbf1df8cb	-0.6170775
140	0x3e9561d3	0.29176196
141	0xbe984873	-0.29742774
142	0xbeaa553b	-0.3326815
143	0x3e1b4201	0.15161897
144	0xbeb1a82b	-0.34698614
145	0xbe93e6b0	-0.28886938
146	0xbe603910	-0.21896768
147	0xbe79d09a	-0.24395981
148	0xbe888470	-0.26663542
149	0xbe30038c	-0.17188853
150	0x3e2efe1e	0.17089126
151	0xbf042469	-0.5161806
152	0xbeca5c7c	-0.39523685
153	0x3ca05613	0.019572293
154	0x3dada84e	0.08479367
155	0x3eb23542	0.34806257
156	0xbee999cb	-0.45625147
157	0x3e52c0ff	0.20581435
158	0x3eb6f619	0.35734633
159	0x3eb94728	0.361871
160	0xbf183584	-0.5945666
161	0xbe758f53	-0.23980455
162	0xbf0f8ee6	-0.5607742
163	0xbece1cac	-0.4025625
164	0x3ebcf00f	0.369019
165	0xbdd5a2f5	-0.10431472
166	0x3e8a100c	0.26965368
167	0xbebecfc2	-0.37267882
168	0x3dcfe766	0.101515576
169	0xbecb1769	-0.39666298
170	0x3ea78fc1	0.32726863
171	0xbe92d667	-0.286792
172	0xbe214337	-0.15748297
173	0xbf11e975	-0.5699685
174	0x3c05d746	0.008169001
175	0x3f1f077e	0.6212081
176	0x3ea38a2c	0.31941354
177	0xbead5af1	-0.33858445
178	0x3c12c1af	0.008957311
179	0xbd9d380e	-0.07676707
180	0xbf052f3a	-0.52025187
181	0x3efe0799	0.49615172
182	0x39c2dde4	0.00037167885
183	0x3e157af1	0.1459768
184	0xbe88c9f1	-0.2671657
185	0xbe957f4f	-0.2919869
186	0x3decf88e	0.115708455
187	0x3e6ec74f	0.23318218
188	0x3e1e89a6	0.15482196
189	0xbea42dc8	-0.32066178
190	0x3f1e4c59	0.6183525
191	0xbdbe4689	-0.09290797
192	0xbec98069	-0.39355782
193	0xbe9702c5	-0.294943
194	0x3f253772	0.6453773
195	0xbbf038ee	-0.0073310053
196	0xbd9ecf3c	-0.077543706
197	0xbe8648da	-0.26227456
198	0xbe34efbc	-0.17669576
199	0xbf0dbc16	-0.5536512
200	0xbf013389	-0.5046926
201	0x3ec61c9b	0.386937
202	0x3f0b2821	0.54358107
203	0x3f1fd2fd	0.6243132
204	0xbef37b73	-0.47555122
205	0x3eb087ff	0.34478757
206	0xbed0724d	-0.40712205
207	0x3ec94c59	0.3931606
208	0x3ef2384d	0.4730858
209	0x3efb5ee0	0.4909582
210	0x3ef0c9f7	0.47029087
211	0x3ec9f7e2	0.39446932
212	0x3cacc1b4	0.021088459
213	0x3e9ab5ab	0.30216727
214	0xbe63490f	-0.22195838
215	0x3e949cf7	0.29026005
216	0xbe4beb55	-0.19913991
217	0xbb5a18fd	-0.0033279054
218	0xbf0f2c41	-0.559269
219	0xbe35c809	-0.17752089
220	0xbea9468c	-0.33061635
221	0xbe68dd1c	-0.22740597
222	0xbed77af6	-0.42086
223	0xbf125beb	-0.57171506
224	0x3d521108	0.051285774
225	0x3edb4c77	0.42831776
226	0x3f141b25	0.5785392
227	0x3ec5a092	0.38599068
228	0xbea6777b	-0.3251303
229	0xbf25cdf7	-0.647674
230	0x3e81edd8	0.25376773
231	0x3eb45a4f	0.3522515
232	0xbf0b7379	-0.5447307
233	0x3e636808	0.22207654
234	0x3f093701	0.53599554
235	0x3cfb1d51	0.030653628
236	0xbec253c3	-0.3795453
237	0x3f09e648	0.53867006
238	0x3e8823eb	0.26589903
239	0x3ed620e0	0.41821957
240	0xbede9191	-0.43470433
241	0x3ebb64ae	0.3660025
242	0xbedf99c0	-0.4367199
243	0x3f226444	0.63434243
244	0xbe8b4e7f	-0.27208325
245	0x3ecb4bc2	0.39706236
246	0x3e073278	0.13202846
247	0x3e277891	0.16354586
248	0xbdcb362d	-0.099224426
249	0x3e8ab03a	0.27087575
250	0xbe8c8336	-0.27443856
251	0xbf1a4273	-0.60257643
252	0xbe740319	-0.23829307
253	0x3f00b774	0.5027993
254	0xbe338d56	-0.17534384
255	0x3e45c87a	0.19314757

hidden_layers.2.bias f4 [20]
0	0xbc01e9cc	-0.007929277
1	0x3a533ef0	0.00080583896
2	0xb84b3810	-4.8451184e-05
3	0x3c1e77b0	0.00967209
4	0x3c222eaf	0.009898826
5	0xbbcffa21	-0.0063469564
6	0xbc2387d5	-0.009981115
7	0x3a3eb6f8	0.0007275189
8	0xbbbf7cc0	-0.005843729
9	0xbc24b6d0	-0.0100533515
10	0xbc0a7215	-0.008450051
11	0xbc1a9a7a	-0.009436244
12	0x3b2e9914	0.0026641535
13	0x3bf244af	0.0073934416
14	0x3aa7b36c	0.0012794561
15	0x3bdb3a6b	0.0066903136
16	0x3c1d0b1e	0.00958517
17	0xbbb8a3b8	-0.005634751
18	0x3beebd22	0.00728573
19	0xbb0c8a2f	-0.0021444669

output_layer.weight f4 [5, 20]
0	0x3e3a6647	0.18203078
1	0x3f2aa130	0.666522
2	0xbf062767	-0.52403873
3	0xbf04a147	-0.5180859
4	0x3f4a0e05	0.7892764
5	0x3f257036	0.64624345
6	0xbee40f78	-0.44543052
7	0x3efa29b5	0.48859945
8	0xbdea9eef	-0.114560954
9	0xbf4f3f4c	-0.8095596
10	0x3d92457c	0.07142159
11	0x3e8210d5	0.25403467
12	0xbe709b10	-0.23496652
13	0x3e8c7581	0.27433398
14	0xbf302969	-0.68813187
15	0x3f12c99b	0.57338876
16	0x3f2f9f12	0.686021
17	0x3ee4cd9c	0.44688118
18	0x3e048639	0.12941827
19	0x3e847db8	0.25877166
20	0xbf14a663	-0.58066386
21	0xbe475aab	-0.19468181
22	0xbd9174b6	-0.07102339
23	0xbeed978b	-0.4640468
24	0xbf17d2a6	-0.593058
25	0x3f0a1dea	0.53951895
26	0x3f0b52f0	0.5442343
27	0xbf3befa6	-0.7341255
28	0x3e85e061	0.2614775
29	0x3ea5468f	0.32280394
30	0x3f43ffbd	0.765621
31	0x3eed0e98	0.46300197
32	0x3f3d9411	0.74054056
33	0xbe8d11a6	-0.27552527
34	0x3f14f428	0.5818505
35	0x3f2b004b	0.6679732
36	0xbf42d5e0	-0.761076
37	0xbf278aa7	-0.6544594
38	0x3e2064d9	0.1566347
39	0x3ee52c35	0.4476029
40	0xbed1b7d7	-0.4096057
41	0x3da4199f	0.08012699
42	0xbc39cd39	-0.011340433
43	0x3e5dde25	0.21666773
44	0xbedb7b77	-0.42867634
45	0x3ee9c800	0.456604
46	0x3f0869cd	0.5328644
47	0xbf0e75da	-0.5564858
48	0x3c8b7a4c	0.01702609
49	0xbc006700	-0.007837057
50	0x3e8116f1	0.25212815
51	0x3f447f97	0.76757187
52	0x3e70f162	0.2352958
53	0xbe485732	-0.19564512
54	0x3f3e4b93	0.7433407
55	0xbea4394f	-0.32074973
56	0xbe68a650	-0.22719693
57	0x3d3aff7e	0.045653813
58	0xbf1c9405	-0.6116336
59	0x3dca8841	0.098892696
60	0xbf0bd25a	-0.54617846
61	0x3dad66ec	0.084668964
62	0x3d92f80c	0.071762174
63	0x3dd998be	0.106248364
64	0xbf2ec4ce	-0.6826905
65	0xbf450858	-0.76965857
66	0x3ebcec5a	0.36899072
67	0x3f30d42c	0.6907375
68	0xbf37c5dd	-0.7178629
69	0x3e973465	0.2953216
70	0xbf1b3c89	-0.60639244
71	0x3d5aebf1	0.053447668
72	0x3f42d3ca	0.76104414
73	0x3f1dbd2c	0.6161678
74	0xbf16e55a	-0.5894371
75	0x3efefec5	0.4980375
76	0x3edd8eb7	0.43272945
77	0xbbe3cf6c	-0.006952217
78	0x3f4cbc89	0.7997518
79	0xbea8c1ba	-0.32960302
80	0xbe3f8a97	-0.18705212
81	0xbecec2f2	-0.40383106
82	0x3de3ebda	0.111289695
83	0x3e57d366	0.21076736
84	0x3d92d1ce	0.07168923
85	0xbee7930d	-0.45229378
86	0xbebf5fd0	-0.37377787
87	0x3e90cf17	0.28282997
88	0xbf357e2d	-0.70895654
89	0xbe071e43	-0.13195138
90	0xbcd289cb	-0.02570047
91	0xbea51a63	-0.32246694
92	0x3e999e0b	0.3000339
93	0x3d37ef0a	0.0449057
94	0x3f13cdf5	0.5773614
95	0xbda12eb4	-0.07870236
96	0xbf0224e1	-0.5083752
97	0x3f11d8ee	0.56971633
98	0x3df86ea1	0.12130476
99	0xbe7862f4	-0.24256498

output_layer.bias f4 [5]
0	0xbc25c42b	-0.010117571
1	0x3c24e16f	0.010063513
2	0x3c251228	0.01007513
3	0x3bb2e0ab	0.0054589114
4	0x3bedd884	0.0072584767
