results/Adam1000_sqloss.pt (torch, 9191 bytes, 10 tensors)

input_layer.weight f4 [20, 3]
0.6518184 0.7055497 -0.200426 0.7829739 -0.18551336 0.17277564 -0.41543853 0.4989282
0.7514191 -0.6235058 0.740909 0.16032054 0.62991583 0.11428617 0.4094658 -0.11918981
0.6552216 0.12682326 -0.39840052 0.21598385 -0.39320508 -0.10082926 -0.3467449 0.5636989
-0.67095655 -0.39143807 -0.23937342 -0.5128371 0.07934426 -0.83976835 0.76977754 -0.7241154
0.6561934 0.1426654 -0.2754069 0.5270339 0.13366897 0.6887841 0.094059125 -0.2674635
0.2297187 -0.22984324 0.35725772 0.7590207 0.49307683 -0.371146 0.4924003 0.1533121
0.4312979 -0.5198452 -0.84166604 -0.32789195 -0.65193325 0.6994891 0.24618852 0.35360193
0.27021933 -0.015808417 0.6652005 -0.6058293
00000000: 92dd 263f e89e 343f 793c 4dbe fa70 483f
00000010: 37f7 3dbe 19ec 303e 5cb4 d4be 8473 ff3e
00000020: 015d 403f 139e 1fbf 36ac 3d3f 112b 243e
00000030: 2a42 213f de0e ea3d 80a5 d13e c919 f4bd
00000040: 9abc 273f f5dd 013e 27fb cbbe df2a 5d3e
00000050: 2d52 c9be 927f cebd 8c88 b1be 924e 103f
00000060: cfc3 2bbf 926a c8be 4e1e 75be 4b49 03bf
00000070: 3e7f a23d 0ffb 56bf 2410 453f a05f 39bf
00000080: 4afc 273f e116 123e 2202 8dbe b2eb 063f
00000090: 85e0 083e 2854 303f 12a2 c03d faf0 88be
000000a0: 613b 6b3e 075c 6bbe 7cea b63e 2e4f 423f
000000b0: 9174 fc3e d906 bebe e41b fc3e d9fd 1c3e
000000c0: 14d3 dc3e 9314 05bf 6d77 57bf 74e1 a7be
000000d0: 19e5 26bf b811 333f d818 7c3e 500b b53e
000000e0: 305a 8a3e a780 81bc 944a 2a3f a117 1bbf

input_layer.bias f4 [20]
0.0009999962 0.0009999998 -0.0009999925 0.0009999981 -0.0009999934 0.0009999835 -0.0009999985 -0.0009999995
0.0009999917 -0.0009999996 0.0009999992 0.0009999997 0.0009999971 0.0009999998 -0.0009999922 0.0009999988
-0.0009999968 0.0009999998 0.0009999968 -0.0009999997
00000000: 4e12 833a 6d12 833a 2e12 83ba 5e12 833a
00000010: 3612 83ba e111 833a 6212 83ba 6a12 83ba
00000020: 2712 833a 6b12 83ba 6812 833a 6c12 833a
00000030: 5612 833a 6d12 833a 2c12 83ba 6412 833a
00000040: 5312 83ba 6d12 833a 5312 833a 6c12 83ba

hidden_layers.0.weight f4 [20, 20]
0.03964292 -0.44157776 0.19804035 -0.22329779 0.19679086 -0.13548382 0.5363701 -0.38358742
-0.38397324 -0.3839965 0.58158785 0.21411268 0.6201301 -0.53171355 -0.64125323 -0.50601363
-0.43321893 0.26045227 0.23013698 0.53535944 -0.33435112 -0.43904307 0.3414867 -0.26191285
0.39076763 -0.1541769 0.368254 -0.50053066 -0.32475 0.19779435 0.13746299 -0.16357516
0.38376123 0.437815 -0.46909738 -0.3456104 0.59205717 -0.21681173 -0.22983934 -0.6255796
-0.37065703 0.16024755 -0.086201206 -0.46955734 0.014141249 -0.4419272 -0.5466377 -0.35645118
-0.56394696 -0.41001266 0.64424473 0.12091826 0.19791625 -0.60104513 -0.42494565 -0.21585749
0.10193713 -0.5689867 -0.27912733 -0.38743886 0.0027888534 -0.24119158 -0.043730248 -0.4364081
-0.4420662 -0.37558424 -0.21995203 -0.5104786 0.54023 -0.12910797 0.5543837 0.20012538
-0.5456051 0.44770676 -0.17660521 -0.2464359 -0.5368082 -0.6427279 0.18568362 -0.14000492
0.252307 -0.528736 0.48023587 -0.47282964 -0.11046015 0.13582481 0.3322391 0.5221166
0.58702165 -0.512829 0.16145049 -0.27664512 -0.069736704 -0.48414826 0.58895665 -0.472763
0.3439868 0.22785325 0.21075816 -0.34798563 0.5877257 0.14084826 0.08403678 -0.5678475
0.2719723 -0.095837876 -0.29471797 0.55344766 0.14291279 -0.3561384 -0.32771125 -0.03182621
0.3614207 -0.16394638 -0.3673045 -0.22004591 -0.4832347 0.22920524 0.5006408 -0.60669714
0.15091719 0.33445853 0.11804761 -0.22887747 0.3379122 0.3402173 0.240369 -0.1124277
-0.17192848 0.06805585 -0.1130297 -0.19135885 0.41360623 0.55373996 -0.062902495 -0.14352481
0.008419262 -0.037541497 0.1561848 0.17989002 -0.5852772 -0.23721282 0.5445922 0.25245667
-0.031105446 -0.388174 -0.39591846 -0.577215 -0.21140783 0.21698712 0.41058296 0.29902434
-0.5695834 -0.38917777 -0.10087018 0.62542135 0.09237598 -0.16616489 0.26805204 -0.24485798
-0.41680175 0.47214013 -0.29250875 -0.12840073 -0.6411434 0.4330123 0.488051 0.2362503
-0.45108855 -0.63806695 -0.52525926 0.48234743 0.3109069 0.5421888 0.3391565 0.16437031
-0.0073211323 -0.48990452 -0.5520441 -0.60276496 0.26524198 -0.31591848 -0.12890796 -0.37048703
-0.11662482 -0.45332348 -0.42277798 0.21511842 -0.19283943 0.3974933 -0.20808117 -0.4725156
-0.112890825 -0.3139031 -0.19648443 -0.6135105 0.3601498 -0.4483981 0.32543832 0.29391646
0.46216434 -0.49612993 0.46523947 -0.30415985 0.24052413 0.6071959 -0.09203566 -0.0039919503
-0.14961319 -0.5399802 0.30877596 -0.6397966 0.40172464 0.48197716 0.61145085 -0.15125959
-0.53136754 0.1461273 0.35759026 -0.641469 -0.14551733 -0.3879468 -0.05545758 -0.31672245
-0.26285833 -0.2039188 -0.61441857 0.5306353 0.54014045 -0.10225852 -0.07451053 -0.26244026
-0.58192456 -0.629162 0.24090447 -0.35340777 -0.41597527 -0.04936378 -0.21395777 -0.20783176
0.021740569 -0.13591795 -0.2212527 -0.3080679 -0.52432334 0.54225403 -0.25931966 0.17204352
-0.22496553 0.051453937 0.60079736 0.29839522 -0.5583877 0.25519967 0.6137336 0.17081954
00000000: 9d60 223d 7b16 e2be 17cb 4a3e 2da8 64be
00000010: 8b83 493e 45bc 0abe 8d4f 093f 9265 c4be
00000020: 2498 c4be 309b c4be f1e2 143f 5b40 5b3e
00000030: d9c0 1e3f 611e 08bf 2c29 24bf 1c8a 01bf
00000040: dfce ddbe 005a 853e 07a9 6b3e 510d 093f
00000050: 1230 abbe 41ca e0be 58d7 ae3e 7119 86be
00000060: b212 c83e 8de0 1dbe ca8b bc3e c722 00bf
00000070: a245 a6be 9a8a 4a3e 19c3 0c3e 3f80 27be
00000080: 5a7c c43e 4a29 e03e 882d f0be d9f3 b0be
00000090: 0f91 173f e503 5ebe 015b 6bbe fc25 20bf
000000a0: c2c6 bdbe ef17 243e 428a b0bd d269 f0be
000000b0: b2b0 673c 4844 e2be 73f0 0bbf c580 b6be
000000c0: d45e 10bf 2eed d1be 39ed 243f fea3 f73d
000000d0: 8faa 4a3e 18de 19bf 7a92 d9be bf09 5dbe
000000e0: 6ac4 d03d 1da9 11bf c7e9 8ebe 635e c6be
000000f0: 32c5 363b edfa 76be 7d1e 33bd e270 dfbe
00000100: 8056 e2be 944c c0be 1b3b 61be baae 02bf
00000110: 834c 0a3f e134 04be 17ec 0d3f abed 4c3e
00000120: c7ac 0bbf d239 e53e ffd7 34be b159 7cbe
00000130: 436c 09bf d189 24bf d923 3e3e 735d 0fbe
00000140: 622e 813e 3e5b 07bf 7ae1 f53e ba16 f2be
00000150: ee38 e2bd a915 0b3e 3e1b aa3e 6fa9 053f
00000160: 0d47 163f c348 03bf 4753 253e 6ea4 8dbe
00000170: 1ed2 8ebd 48e2 f7be ddc5 163f fe0d f2be
00000180: 0a1f b03e 5d52 693e fdd0 573e 2c2b b2be
00000190: 3175 163f 873a 103e 7a1b ac3d 745e 11bf
000001a0: f43f 8b3e a646 c4bd 46e5 96be bfae 0d3f
000001b0: bb57 123e c657 b6be c5c9 a7be 335c 02bd
000001c0: 220c b93e 8fe1 27be 560f bcbe b753 61be
000001d0: 8a6a f7be c7b4 6a3e ff29 003f 8150 1bbf
000001e0: 098a 1a3e 263e ab3e f2c2 f13d db5e 6abe
000001f0: d402 ad3e f630 ae3e 4b23 763e 7e40 e6bd
00000200: 050e 30be de60 8b3d 1e7c e7bd 93f3 43be
00000210: 32c4 d33e e7c1 0d3f 06d3 80bd 2bf8 12be
00000220: f2f0 093c 1dc5 19bd e9ee 1f3e 1735 383e
00000230: bad4 15bf ebe7 72be 656a 0b3f 0042 813e
00000240: d9d0 febc bebe c6be d3b5 cabe 5dc4 13bf
00000250: 4b7b 58be df31 5e3e ee37 d23e b819 993e
00000260: 38d0 11bf 4f42 c7be 0695 cebd 9d1b 203f
00000270: 9e2f bd3d 2127 2abe 1e3e 893e 0dbc 7abe
00000280: 0a67 d5be 5abc f13e b5c3 95be 7b7b 03be
00000290: f921 24bf cab3 dd3e d2e1 f93e 99eb 713e
000002a0: 14f5 e6be 5b58 23bf 6477 06bf 3ef6 f63e
000002b0: 302f 9f3e e3cc 0a3f eca5 ad3e b150 283e
000002c0: 1ce6 efbb c4d4 fabe c352 0dbf ce4e 1abf
000002d0: cccd 873e 11c0 a1be 7300 04be 7ab0 bdbe
000002e0: fed8 eebd 041a e8be 5b76 d8be 0148 5c3e
000002f0: b377 45be 3e84 cb3e 3b13 55be 91ed f1be
00000300: 4e33 e7bd e8b7 a0be 3733 49be 060f 1dbf
00000310: 8e65 b83e 7094 e5be da9f a63e 387c 963e
00000320: cea0 ec3e be04 febe de33 ee3e d7ba 9bbe
00000330: f54b 763e 3171 1b3f 317d bcbd e8ce 82bb
00000340: 3334 19be 243c 0abf e217 9e3e b6c9 23bf
00000350: daae cd3e b6c5 f63e 0b88 1c3f cbe3 1abe
00000360: b407 08bf 65a2 153e 1216 b73e 5037 24bf
00000370: 7f02 15be f7a0 c6be 7d27 63bd 7229 a2be
00000380: 5e95 86be 17d0 50be 894a 1dbf b7d7 073f
00000390: a546 0a3f ea6c d1bd fa98 98bd 925e 86be
000003a0: 02f9 14bf c310 21bf a9af 763e ddf1 b4be
000003b0: b6fa d4be ad31 4abd bf17 5bbe d9d1 54be
000003c0: 4719 b23c 132e 0bbe 1190 62be 13bb 9dbe
000003d0: 0e3a 06bf 29d1 0a3f 8cc5 84be 2d2c 303e
000003e0: 5d5d 66be 5dc1 523d dbcd 193f 42c7 983e
000003f0: 7ff2 0ebf 88a9 823e a51d 1d3f 51eb 2e3e

hidden_layers.0.bias f4 [20]
-0.0009999999 -0.0009999993 -0.0009999998 0.0009999985 0.0009999998 0.0009999993 0.0009999998 0.001
0.0009999998 0.0009999995 0.0009999981 0.0009999999 0.0009999999 0.0009999997 -0.0009999991 -0.0009999995
0.0009999984 -0.0009999998 0.0009999998 0.0009999998
00000000: 6e12 83ba 6912 83ba 6d12 83ba 6212 833a
00000010: 6d12 833a 6912 833a 6d12 833a 6f12 833a
00000020: 6d12 833a 6a12 833a 5e12 833a 6e12 833a
00000030: 6e12 833a 6c12 833a 6712 83ba 6a12 83ba
00000040: 6112 833a 6d12 83ba 6d12 833a 6d12 833a

hidden_layers.1.weight f4 [20, 20]
-0.037544023 0.15401308 0.22504841 -0.45741868 0.24092565 -0.3287727 -0.5353697 -0.35357535
0.62152356 0.55280834 0.57703274 0.37791413 0.48664063 -0.08739962 -0.35617054 0.32152694
-0.33348554 -0.436624 -0.20712923 0.13446353 0.33329976 -0.2517169 -0.38091788 0.086073086
-0.38147748 -0.41925836 0.33746666 -0.109433606 0.59084564 0.6269285 0.19407178 0.22115283
0.14764749 0.009109067 -0.04794861 0.007871794 0.24204464 0.5991644 -0.16828646 -0.27186188
-0.15731673 -0.31085536 0.11075951 0.48283035 0.5037642 0.29536426 -0.47604173 -0.34544146
-0.14082311 -0.1179807 0.052090693 -0.591548 0.19990759 -0.49143183 -0.40743494 -0.5356551
0.56143445 -0.610247 0.48594162 -0.022699608 -0.076070555 0.40474457 -0.058661755 0.40582627
0.46570414 -0.5614272 0.24737698 0.12085633 0.13778956 0.09523709 0.17556344 -0.3095273
-0.083585635 0.61229974 0.43467695 -0.025250327 -0.6081101 0.02729069 -0.4385665 0.52391285
-0.39087322 -0.047605943 -0.14426334 0.1138687 0.6064307 0.062334668 0.37484878 0.50004894
0.5201171 -0.2239234 -0.14336972 0.31008947 -0.17513533 0.3012631 -0.1420203 -0.43881
0.2637453 0.09796636 0.2867939 0.64229244 0.4397022 0.61291915 0.035548817 -0.55426484
-0.4518339 -0.40196592 -0.56984335 -0.3225539 -0.5932239 -0.5945456 -0.3867198 -0.635353
-0.3972142 0.24713369 0.5393787 -0.19101141 -0.18876143 0.34566534 -0.31746954 -0.30621207
0.39870983 -0.56342274 0.07792799 0.5692206 0.11169405 0.17653896 -0.37493187 -0.007905649
0.034492303 0.15742712 0.25180537 0.55989045 -0.49170768 0.02034898 -0.3235138 -0.50962955
-0.050689925 -0.56719047 0.44949204 0.075758114 -0.34689593 0.33632332 -0.6119166 -0.2506778
-0.124754965 -0.54751146 -0.40946415 -0.10635717 0.48878044 0.62232715 0.41170555 -0.38644186
-0.42129797 0.562321 0.22732364 0.016149389 0.08835651 -0.519784 -0.21652211 0.6223673
-0.1582004 -0.033380758 -0.5369764 -0.3620957 -0.0141807925 -0.3999567 -0.079047844 0.26169103
-0.63041073 0.19072048 -0.425808 -0.31603557 0.24881262 0.51224786 -0.17741998 -0.26602116
-0.5826817 -0.33385557 -0.5662212 -0.14673527 0.1307172 -0.6057506 0.5645923 0.403979
-0.6309068 -0.3073108 0.21153225 -0.13162361 -0.06934403 -0.29045212 0.519476 -0.36183178
0.53429586 0.040648926 0.12875901 0.5045729 -0.105355725 -0.3685095 -0.10539897 0.52253276
-0.47795075 0.14751525 -0.6333891 0.33943552 0.2394904 0.026364075 0.276043 0.0017260439
0.35618776 -0.50998884 -0.095792904 0.28735197 0.643797 0.32981074 -0.46838903 0.49744982
-0.14494474 -0.13682298 -0.58569866 -0.10061048 0.4575774 0.08901124 -0.3769724 0.19769184
-0.20797504 0.5903351 -0.5592623 -0.20489676 -0.62227505 -0.25521627 0.20449151 0.6203651
0.10740887 0.6318187 0.12529288 0.37179786 0.5184707 0.5385862 -0.3623001 0.59446365
0.39001995 -0.30082095 -0.30703345 -0.5404083 0.16110842 -0.5242073 0.27167398 0.20484652
-0.5598094 0.17689855 -0.053498637 0.29587454 0.36937958 -0.64071786 0.59298474 0.54234105
00000000: c3c7 19bd 9bb5 1d3e 1773 663e c832 eabe
00000010: 37b5 763e e554 a8be fd0d 09bf d407 b5be
00000020: 2b1c 1f3f d984 0d3f 6bb8 133f f67d c13e
00000030: f628 f93e 92fe b2bd fc5b b6be 2e9f a43e
00000040: 9ebe aabe 2e8d dfbe af19 54be cfb0 093e
00000050: 44a6 aa3e 0ae1 80be ab07 c3be 1647 b03d
00000060: 0451 c3be 08a9 d6be 6ec8 ac3e ba1e e0bd
00000070: a941 173f 637e 203f c1ba 463e e375 623e
00000080: e730 173e 323e 153c c365 44bd b2f8 003c
00000090: 8dda 773e d762 193f 4953 2cbe 7b31 8bbe
000000a0: a317 21be 6f28 9fbe e2d5 e23d 8a35 f73e
000000b0: b1f6 003f fc39 973e bebb f3be b4dd b0be
000000c0: ef33 10be de9f f1bd 0d5d 553d b16f 17bf
000000d0: 93b4 4c3e f49c fbbe 509b d0be b120 09bf
000000e0: 2bba 0f3f 2639 1cbf 57cd f83e 87f4 b9bc
000000f0: e1ca 9bbd ae3a cf3e 4f47 70bd 76c8 cf3e
00000100: c670 ee3e b1b9 0fbf 6450 7d3e 8683 f73d
00000110: b518 0d3e aa0b c33d e7c6 333e 5d7a 9ebe
00000120: f22e abbd adbf 1c3f fa8d de3e c6d9 cebc
00000130: 1aad 1bbf ba90 df3c ca8b e0be 271f 063f
00000140: 8920 c8be 73fe 42bd c5b9 13be fe33 e93d
00000150: 0b3f 1b3f a352 7f3d 2eec bf3e 3503 003f
00000160: 6526 053f 2d4c 65be 83cf 12be 0cc4 9e3e
00000170: ad56 33be 283f 9a3e c56d 11be b4ab e0be
00000180: a009 873e 96a2 c83d a6d6 923e 476d 243f
00000190: a620 e13e 45e8 1c3f a39b 113d 4de4 0dbf
000001a0: c656 e7be 7ace cdbe 41e1 11bf c925 a5be
000001b0: 86dd 17bf 2434 18bf 2300 c6be 7fa6 22bf
000001c0: a95f cbbe 9d10 7d3e b914 0a3f 7f98 43be
000001d0: ad4a 41be 0cfb b03e 5e8b a2be d4c7 9cbe
000001e0: b223 cc3e 793c 10bf b698 9f3d 71b8 113f
000001f0: dabf e43d a1c6 343e 12f7 bfbe b286 01bc
00000200: cd47 0d3d 9334 213e a2ec 803e fb54 0f3f
00000210: 1cc1 fbbe e7b2 a63c 9aa3 a5be 1577 02bf
00000220: 3da0 4fbd 6533 11bf d223 e63e 1227 9b3d
00000230: 589c b1be 9232 ac3e 91a6 1cbf d758 80be
00000240: 887f ffbd b629 0cbf 49a5 d1be cad1 d9bd
00000250: 6e41 fa3e d550 1f3f 12cb d23e b5db c5be
00000260: 5eb4 d7be 45f4 0f3f 87c7 683e b94b 843c
00000270: 42f4 b43d 9010 05bf f9b7 5dbe 7753 1f3f
00000280: 49ff 21be 43ba 08bd 4977 09bf 9c64 b9be
00000290: 8e56 68bc 20c7 ccbe d6e3 a1bd 5efc 853e
000002a0: 9962 21bf 3b4c 433e 8203 dabe 6acf a1be
000002b0: bcc8 7e3e ad22 033f 95ad 35be ed33 88be
000002c0: a12a 15bf 1eef aabe dff3 10bf c541 16be
000002d0: bbda 053e 7912 1bbf 1f89 103f 56d6 ce3e
000002e0: 1c83 21bf d757 9dbe e99b 583e 57c8 06be
000002f0: 3e04 8ebd 24b6 94be 61fc 043f 0442 b9be
00000300: 9dc7 083f 7d7f 263d 67d9 033e b12b 013f
00000310: bec4 d7bd 47ad bcbe 6adb d7bd b5c4 053f
00000320: f6b5 f4be 3d0e 173e ca25 22bf 7eca ad3e
00000330: f93c 753e 79f9 d73c 8255 8d3e 6c3c e23a
00000340: 3e5e b63e a18e 02bf 122f c4bd cc1f 933e
00000350: e1cf 243f f4dc a83e b0d0 efbe beb1 fe3e
00000360: 656c 14be 531b 0cbe 59f0 15bf de0c cebd
00000370: 9647 ea3e 864b b63d 8702 c1be bb6f 4a3e
00000380: 69f7 54be 3320 173f d02b 0fbf 75d0 51be
00000390: 6b4d 1fbf b5ab 82be 3966 513e 3fd0 1e3f
000003a0: 2ef9 db3d dfbe 213f c74c 003e 4a5c be3e
000003b0: 7fba 043f c9e0 093f 667f b9be c52e 183f
000003c0: b2b0 c73e 3405 9abe 7d33 9dbe 3358 0abf
000003d0: 9bf9 243e 7332 06bf da18 8b3e 49c3 513e
000003e0: ab4f 0fbf e524 353e 6321 5bbd de7c 973e
000003f0: 521f bd3e 1606 24bf d9cd 173f ddd6 0a3f

hidden_layers.1.bias f4 [20]
0.0009999967 0.0009999997 -0.0009999996 -0.0009999983 0.0009999999 -0.0009999999 0.0009999998 0.0009999998
0.0009999998 0.0009999988 -0.0009999996 0.0009999997 -0.0009999999 -0.0009999996 -0.0009999999 -0.0009999998
0.0009999998 0.0009999998 0.0009999997 0.0009999991
00000000: 5212 833a 6c12 833a 6b12 83ba 6012 83ba
00000010: 6e12 833a 6e12 83ba 6d12 833a 6d12 833a
00000020: 6d12 833a 6412 833a 6b12 83ba 6c12 833a
00000030: 6e12 83ba 6b12 83ba 6e12 83ba 6d12 83ba
00000040: 6d12 833a 6d12 833a 6c12 833a 6712 833a

hidden_layers.2.weight f4 [20, 20]
0.1376775 -0.469333 0.57571393 -0.3052857 -0.3059029 0.54113823 0.49913794 0.19603784
0.041462254 -0.5439702 -0.06800528 0.61811334 0.16338156 0.0562662 -0.13303815 -0.22613801
0.38573104 0.04080684 0.41894382 -0.11525209 0.28302366 0.26544183 0.10193364 0.40661305
0.40349823 0.5993263 0.49524277 -0.16405146 -0.545491 0.117008135 -0.00463407 -0.16936205
-0.109091535 0.031359565 0.47197407 0.20022808 -0.22821237 -0.2644446 -0.16084532 -0.25048658
0.5794459 0.34288454 0.58186823 0.0030614852 0.12917797 0.22483565 -0.6099974 0.05864067
-0.04217731 -0.3629006 -0.5018718 0.57044214 0.5238319 0.30016774 0.6169655 -0.26094785
-0.110492036 0.24339722 -0.10565327 -0.12766905 -0.5345431 0.17442007 -0.38909152 0.022474276
0.630344 -0.19969393 -0.20245539 0.3904367 -0.23831914 -0.054433633 0.60172564 -0.26363692
-0.4607953 -0.36224845 -0.17796127 -0.30528763 -0.33596897 0.25974506 0.110694304 -0.20559885
-0.5004941 -0.20424117 -0.27342507 -0.20905702 -0.5833178 0.14005889 -0.475262 -0.50171274
-0.52639264 0.26841998 -0.38760656 -0.2674295 0.5049669 0.34373593 0.36912245 -0.6139038
-0.46188593 -0.24268232 0.53224367 0.06503461 -0.4817655 0.00304197 -0.5023388 -0.14042799
-0.17649563 0.5577821 0.19893418 -0.1135561 0.10804301 -0.1873328 0.25461608 0.25433534
0.17234574 -0.2525999 0.5497064 -0.09419043 -0.25230283 0.405284 0.52511686 0.64137286
0.19223393 -0.21904604 0.3268429 0.55480725 -0.63412565 -0.07896869 -0.43920684 0.12129469
0.26796764 -0.13435192 -0.055000436 0.2895453 -0.10948856 -0.54107535 0.51748556 -0.32388812
-0.06991337 0.05988741 -0.037792373 -0.60821015 0.2951541 -0.29420516 -0.33379334 0.15321927
-0.3358605 -0.29932272 -0.21850024 -0.24349885 -0.26858383 -0.17308147 0.16874911 -0.52134794
-0.38970673 0.008418726 0.08876811 0.35550326 -0.4544256 0.20504074 0.367894 0.35941893
-0.60023 -0.24532445 -0.55584717 -0.40747803 0.35853094 -0.095385 0.27315003 -0.37791097
0.0990897 -0.39143407 0.32167888 -0.28332692 -0.16286431 -0.5590536 0.0031324155 0.6118868
0.3143102 -0.34339923 0.007681119 -0.071777776 -0.52067316 0.5051287 0.011405839 0.13493977
-0.2596705 -0.3010405 0.10743578 0.23764734 0.14578372 -0.31009418 0.62571186 -0.094020054
-0.39431223 -0.3029072 0.6364408 0.0010311134 -0.088622525 -0.26963124 -0.16821413 -0.5426562
-0.51196593 0.37680274 0.5511902 0.61699826 -0.46701172 0.35012573 -0.4005412 0.38607794
0.4667613 0.49853152 0.46579105 0.40280586 0.011563765 0.2975946 -0.22994013 0.28007197
-0.20646407 -0.009838747 -0.5628271 -0.16978113 -0.33844954 -0.21873964 -0.4132058 -0.5795887
0.04303254 0.4179142 0.5868862 0.37568253 -0.3355853 -0.637403 0.24584599 0.36068112
-0.55316716 0.23046629 0.54475325 0.03810202 -0.3898855 0.53022784 0.27463758 0.426449
-0.43754038 0.37464422 -0.43992215 0.6377159 -0.272497 0.38795537 0.13025536 0.17006354
-0.099990204 0.26612854 -0.2680251 -0.6074323 -0.24700202 0.504772 -0.17093985 0.20389165
00000000: 55fb 0c3e 6a4c f0be fd61 133f 684e 9cbe
00000010: 4e9f 9cbe 0988 0a3f 028f ff3e 25be 483e
00000020: 53d4 293d a241 0bbf 5a46 8bbd ad3c 1e3f
00000030: 7f4d 273e 6377 663d 273b 08be b990 67be
00000040: 8a7e c53e 1325 273d ce7f d63e 4a09 ecbd
00000050: 7ae8 903e fee7 873e 96c2 d03d 962f d03e
00000060: 5297 ce3e 736d 193f 7690 fd3e 1bfd 27be
00000070: 4ca5 0bbf f6a1 ef3d 66d9 97bb 3f6d 2dbe
00000080: 626b dfbd e372 003d 96a6 f13e 9708 4d3e
00000090: 81b0 69be 4865 87be a3b4 24be c73f 80be
000000a0: 9156 143f 908e af3e 51f5 143f 33a3 483b
000000b0: 3b47 043e 513b 663e ca28 1cbf 3331 703d
000000c0: 1dc2 2cbd 1cce b9be ac7a 00bf 7f08 123f
000000d0: d919 063f 96af 993e 73f1 1d3f f59a 85be
000000e0: a649 e2bd 1f3d 793e be60 d8bd adbb 02be
000000f0: d1d7 08bf 2d9b 323e 0137 c7be f91b b83c
00000100: 395e 213f 917c 4cbe 7750 4fbe 52e7 c73e
00000110: ef09 74be cdf5 5ebd b10a 1a3f 6bfb 86be
00000120: 5ded ebbe a178 b9be 7b3b 36be a94e 9cbe
00000130: 2004 acbe 4efd 843e b2b3 e23d 8188 52be
00000140: 6220 00bf 9924 51be 5ffe 8bbe 0b13 56be
00000150: 5154 15bf 996b 0f3e 8a55 f3be 3f70 00bf
00000160: abc1 06bf 586e 893e 5e74 c6be 85ec 88be
00000170: 8345 013f 28fe af3e 9efd bc3e cd28 1dbf
00000180: 507c ecbe b781 78be 1f41 083f de30 853d
00000190: f8a9 f6be ca5b 473b 4799 00bf 5bcc 0fbe
000001a0: 45bb 34be cfca 0e3f 67b5 4b3e 1a90 e8bd
000001b0: a745 dd3d 2bd4 3fbe 0a5d 823e 3e38 823e
000001c0: 677b 303e c654 81be 8fb9 0c3f eae6 c0bd
000001d0: d62d 81be 6281 cf3e 0f6e 063f 0331 243f
000001e0: f9d8 443e 9b4d 60be f457 a73e d907 0e3f
000001f0: 0f56 22bf 56ba a1bd b8df e0be 5a69 f83d
00000200: 0e33 893e 8d93 09be 2348 61bd 483f 943e
00000210: 8a3b e0bd ea83 0abf ef79 043f aad4 a5be
00000220: be2e 8fbd 804c 753d 2dcc 1abd a9b3 1bbf
00000230: 701e 973e 0fa2 96be f6e6 aabe 83e5 1c3e
00000240: e8f5 abbe d440 99be 87be 5fbe c357 79be
00000250: d283 89be 453c 31be 91cc 2c3e 0f77 05bf
00000260: a487 c7be b2ee 093c 0ecc b53d 8604 b63e
00000270: 79aa e8be 33f6 513e 9a5c bc3e c205 b83e
00000280: aca8 19bf 5536 7bbe 004c 0ebf f6a0 d0be
00000290: 5e91 b73e 3659 c3bd 52da 8b3e 8c7d c1be
000002a0: 8aef ca3d 0c6a c8be 18b3 a43e 3a10 91be
000002b0: e7c5 26be 231e 0fbf 3649 4d3b 9da4 1c3f
000002c0: 44ed a03e 06d2 afbe e5b1 fb3b 3a00 93bd
000002d0: d64a 05bf 1d50 013f 8edf 3a3c a72d 0a3e
000002e0: 88f3 84be fb21 9abe 4a07 dc3d d359 733e
000002f0: 5448 153e aac4 9ebe a72e 203f 968d c0bd
00000300: 4be3 c9be a716 9bbe c9ed 223f 6d26 873a
00000310: ba7f b5bd 1b0d 8abe 5340 2cbe 84eb 0abf
00000320: 3310 03bf 4aec c03e cd1a 0d3f 99f3 1d3f
00000330: 291c efbe ae43 b33e bc13 cdbe 02ac c53e
00000340: 56fb ee3e 863f ff3e 2a7c ee3e 923c ce3e
00000350: f275 3d3c 525e 983e 6d75 6bbe 9865 8f3e
00000360: 516b 53be b232 21bc 7015 10bf 1bdb 2dbe
00000370: 4249 adbe 49fd 5fbe b68f d3be ed5f 14bf
00000380: e342 303d daf8 d53e 2d3e 163f 7659 c03e
00000390: d6d1 abbe d82c 23bf 0dbf 7b3e 32ab b83e
000003a0: 5d9c 0dbf 5bff 6b3e f374 0b3f dd10 1c3d
000003b0: 129f c7be 03bd 073f 4c9d 8c3e 8657 da3e
000003c0: 4b05 e0be 5ed1 bf3e 7a3d e1be 5941 233f
000003d0: ba84 8bbe 16a2 c63e a961 053e 2325 2e3e
000003e0: aac7 ccbd 0042 883e 963a 89be af80 1bbf
000003f0: 19ee 7cbe bd38 013f db0a 2fbe f9c8 503e

hidden_layers.2.bias f4 [20]
-0.0009999998 -0.0009999999 -0.0009999996 0.0009999998 -0.0009999998 -0.0009999997 -0.0009999987 0.0009999998
-0.0009999998 0.0009999997 -0.0009999999 -0.0009999993 0.0009999998 0.0009999998 0.0009999999 -0.0009999993
-0.0009999984 0.0009999997 0.0009999998 -0.0009999998
00000000: 6d12 83ba 6e12 83ba 6b12 83ba 6d12 833a
00000010: 6d12 83ba 6c12 83ba 6312 83ba 6d12 833a
00000020: 6d12 83ba 6c12 833a 6e12 83ba 6912 83ba
00000030: 6d12 833a 6d12 833a 6e12 833a 6912 83ba
00000040: 6112 83ba 6c12 833a 6d12 833a 6d12 83ba

output_layer.weight f4 [5, 20]
0.19086532 0.67565984 -0.533071 -0.52676296 0.80022687 0.6550632 -0.45451856 0.49032277
-0.10545613 -0.804008 0.06234617 0.26280516 -0.24391703 0.28504568 -0.699187 0.56484514
0.6950914 0.44927067 0.13938905 0.26791233 -0.59177434 -0.2050208 -0.07694893 -0.45336905
-0.60208076 0.54818994 0.5551116 -0.7425326 0.25881892 0.33115262 0.774646 0.4713871
0.7496353 -0.2663126 0.57286316 0.6631394 -0.7700407 -0.6564073 0.16626336 0.444838
-0.40464625 0.088931404 -0.0021852814 0.20566274 -0.43774414 0.4615358 0.54197794 -0.565533
0.008909666 0.0012654862 0.2611899 0.76163554 0.24044849 -0.18652593 0.7323226 -0.30970412
-0.23808694 0.054746583 -0.6207694 0.08984897 -0.552973 0.08295272 0.077226564 0.11202006
-0.687548 -0.77449566 0.37468427 0.6992242 -0.72353655 0.30142564 -0.6020407 0.052187275
0.7586339 0.62041 -0.5959732 0.5040619 0.42747015 -0.0022524127 0.7919621 -0.3252922
-0.18901168 -0.4136689 0.11649124 0.21519749 0.06605859 -0.45839128 -0.3685594 0.27673334
-0.7149258 -0.12815674 -0.01908667 -0.32981494 0.29613787 0.05362625 0.57423335 -0.0735143
-0.5143224 0.57589716 0.11502279 -0.23484315
00000000: 3372 433e 0bf8 2c3f 5777 08bf f0d9 06bf
00000010: abdb 4c3f 39b2 273f a8b6 e8be 960b fb3e
00000020: 62f9 d7bd 78d3 4dbf b35e 7f3d 668e 863e
00000030: 63c5 79be 82f1 913e ebfd 32bf b199 103f
00000040: 83f1 313f ce06 e63e 01bc 0e3e ce2b 893e
00000050: 867e 17bf f9f0 51be 6797 9dbd fd1f e8be
00000060: f721 1abf 2d56 0c3f cb1b 0e3f 9e16 3ebf
00000070: ea83 843e d68c a93e 334f 463f a659 f13e
00000080: 19e8 3f3f 205a 88be 29a7 123f 81c3 293f
00000090: 6321 45bf 4f0a 28bf f140 2a3e cec1 e33e
000000a0: cb2d cfbe ab21 b63d f036 0fbb 4199 523e
000000b0: 0020 e0be 6c4e ec3e 11bf 0a3f c5c6 10bf
000000c0: d9f9 113c acde a53a afba 853e 8cfa 423f
000000d0: 2138 763e a700 3fbe 7e79 3b3f 8a91 9ebe
000000e0: 10cd 73be f43d 603d beea 1ebf bd02 b83d
000000f0: a38f 0dbf 1ee3 a93d f628 9e3d c66a e53d
00000100: 2503 30bf 5945 46bf 9ed6 bf3e 5b00 333f
00000110: b139 39bf 7654 9a3e 571f 1abf 53c2 553d
00000120: d535 423f 31d3 1e3f b391 18bf 330a 013f
00000130: 5edd da3e 379d 13bb 07be 4a3f b38c a6be
00000140: 478c 41be 69cc d3be f692 ee3d bb5c 5c3e
00000150: ba49 873d 43b2 eabe d1b3 bcbe feaf 8d3e
00000160: 6105 37bf 853b 03be a65b 9cbc 81dd a8be
00000170: 629f 973e 33a7 5b3d f500 133f aa8e 96bd
00000180: a2aa 03bf ff6d 133f 1291 eb3d b97a 70be

output_layer.bias f4 [5]
-0.0009999841 0.0009999871 0.0009999806 0.0009999998 0.0009999998
00000000: e611 83ba 0012 833a c811 833a 6d12 833a
00000010: 6d12 833a
