results/ADAM_sqloss.pt (torch, 9143 bytes, 10 tensors)

input_layer.weight f4 [20, 3]
00000000: 2203 293f a7a9 363f d1d1 43be 059f 453f
00000010: d707 46be b65e 2a3e e8ea d0be 08e8 013f
00000020: 923e 413f f22c 22bf 1f0e 3b3f 3c5a 193e
00000030: c97c 1e3f b7bb d73d 0d21 cd3e aba9 00be
00000040: d4b3 253f 97b9 f33d 3580 c6be 9a91 673e
00000050: 18a7 c5be f845 b8bd 9b0c b3be 9bbf 0f3f
00000060: b48e 2bbf 7bad c5be 19dd 7cbe 639f 05bf
00000070: bcd2 8f3d c2a5 54bf c808 433f 58c8 39bf
00000080: 0eb3 273f 7eb8 183e 0224 89be 5cd4 083f
00000090: 84ea 003e 147b 2d3f 591c bf3d f187 8ebe
000000a0: d6ef 5f3e fbba 76be 4c9c bc3e 4225 453f
000000b0: 45c4 f63e 7dda babe 65ff fe3e 684a 123e
000000c0: dd6e db3e 5175 06bf 1382 55bf b17c adbe
000000d0: b883 25bf 3406 323f 94b8 823e a555 b93e
000000e0: 8ad4 8e3e 0eab dcbb a611 283f 693e 1dbf
0.66020405 0.7135262 -0.19123007 0.7719577 -0.19338928 0.16637692 -0.4080422 0.50744677
0.754861 -0.6334983 0.7306842 0.14975828 0.6190916 0.10533851 0.40064278 -0.12564723
0.6472752 0.11900633 -0.3876969 0.22614136 -0.38604045 -0.089977205 -0.34970555 0.5615174
-0.6701462 -0.38608918 -0.24693717 -0.5219633 0.07022616 -0.83065426 0.76185274 -0.72571325
0.6550759 0.14914128 -0.26785284 0.53449035 0.1258946 0.6776593 0.09331579 -0.2783809
0.21868834 -0.24094765 0.36837995 0.77009976 0.48196617 -0.36494818 0.49804226 0.14286196
0.4285802 -0.5252276 -0.834016 -0.33884194 -0.6465411 0.69540715 0.25531447 0.36198154
0.2789653 -0.0067342585 0.6565193 -0.61423355

input_layer.bias f4 [20]
00000000: 32a5 f63b f758 22bc dfe8 d13b f546 16bc
00000010: d37a 23bc b1af eebb 4238 85bb 5563 da3b
00000020: e66d 99bb 5000 26bc 3d6f 193c 2764 153c
00000030: 1eac 25bc 67ce 24bc 418d 5d3b 83aa e23b
00000040: 61ea a8ba eb4c 203c 748d 0e3c 888a 113c
0.007527017 -0.009908906 0.006405934 -0.009172191 -0.009978014 -0.0072841276 -0.0040655443 0.0066646733
-0.0046822904 -0.01013191 0.0093649 0.009118116 -0.010111837 -0.010058976 0.0033806118 0.0069172992
-0.0012887233 0.009783964 0.008700717 0.008883126

hidden_layers.0.weight f4 [20, 20]
00000000: f21b 4f3d 9a89 dcbe abe0 553e d6a1 59be
00000010: 71b2 543e 3805 ffbd 6783 063f fcdc bebe
00000020: 982f cabe 6932 cabe 5b2c 123f 9c09 663e
00000030: 908c 213f c5e3 09bf 745d 21bf 4b84 fdbe
00000040: e95d e3be 4c97 843e edd7 763e 389c 093f
00000050: a6c5 afbe 426e e6be e24e b43e 1773 80be
00000060: 1c7d c33e 887d 25be df30 c23e f2c3 fbbe
00000070: 0cb0 a1be 4cb2 533e 0378 013e 2daf 32be
00000080: c9e6 bf3e 1ed0 e53e 20c3 f4be 0d4f abbe
00000090: d2ce 143f 7dd0 54be 3086 74be cb54 1dbf
000000a0: a044 b8be f522 2f3e bf81 9abd dde5 eabe
000000b0: b6fb cb3c bac1 dcbe 32b0 0ebf 5f96 b7be
000000c0: ed1f 13bf 5b6f d7be 3ea1 223f 4308 053e
000000d0: f9ae 553e c894 1cbf 4510 d4be 1704 52be
000000e0: 07bc ba3d 82db 13bf 9367 89be 1956 c1be
000000f0: 28b2 153c a76c 6ebe a72d 3cbd ad9b dcbe
00000100: 6a16 dfbe a648 bdbe 8eb7 69be 8a9b 04bf
00000110: 74ac 083f 5db2 0abe ec0d 103f 6335 4f3e
00000120: cd0c 0abf 55e8 e03e d657 2ebe 53e9 75be
00000130: 3367 08bf 9f35 26bf 00a4 443e 99a7 07be
00000140: d7be 833e 50fd 05bf e23c f93e c2ba f4be
00000150: e2f6 d7bd 8265 0d3e 7795 a73e e101 033f
00000160: c5fe 143f 428e 04bf d0a3 2a3e ed39 8bbe
00000170: 9490 84bd 5e4f fabe 230e 183f 645e f4be
00000180: 2fb7 ac3e 728c 5f3e fcf1 5c3e 342c aebe
00000190: 4806 183f e95b 183e fc45 9c3d efdb 12bf
000001a0: d061 8e3e bb1b c1bd 38ea 9abe 5ede 0c3f
000001b0: 0314 0c3e 4e6a babe db78 a4be a151 e8bc
000001c0: f42d bc3e 5cfa 2fbe 75ed b8be 3dcc 65be
000001d0: 6c3f f3be 466c 643e eaba 013f c9e1 19bf
000001e0: d88e 1f3e cce2 ad3e 0bb5 fb3d 4cd1 64be
000001f0: 2286 af3e 02b1 b13e 870d 713e 25cf fabd
00000200: 9e14 35be f051 813d ddb7 dbbd 0905 40be
00000210: c747 d63e 7d65 0c3f b38b 6dbd 92ed 0cbe
00000220: 77ec 433b 4c82 29bd 9ff5 243e 8188 403e
00000230: c2a5 13bf fe43 6abe cbab 0d3f 43e7 7b3e
00000240: 1cf0 b8bc bb71 c2be 7a13 cfbe 5d5f 15bf
00000250: 6737 61be 2b77 553e 6a2f d73e b28c 9d3e
00000260: 37a1 0fbf 3d92 cbbe d51c bdbd 5c96 203f
00000270: 698f ab3d b323 35be 299c 8d3e de19 72be
00000280: 5867 d5be 16e3 f13e f844 93be 86e0 fabd
00000290: 8622 24bf e73b de3e 47e8 f93e 2a22 773e
000002a0: f9f3 e6be 8f52 23bf 7e48 05bf 5fb8 f73e
000002b0: 0b2e 9f3e 0f5d 0a3f c7a4 ad3e d40a 2e3e
000002c0: 6dac 43bc e743 fcbe 5253 0dbf 5bbb 18bf
000002d0: ec44 853e d619 a4be 4388 01be 486d babe
000002e0: 96fc f8bd 7062 eabe 5810 d6be baba 643e
000002f0: f065 40be 67f9 cd3e 023f 4cbe 29da efbe
00000300: fc52 f1bd 1ba9 9fbe 1645 4ebe 7925 1bbf
00000310: 79fd b73e 9bf0 e3be 3817 a43e 0679 943e
00000320: 1fbb ea3e 0be1 febe 0148 f23e cb92 97be
00000330: 3c7f 723e a39b 1d3f 87e0 b4bd 5d6b 8c3b
00000340: b467 15be a548 09bf c4e6 9b3e 4bb0 24bf
00000350: 53c8 cb3e 82e2 f83e d594 1b3f 5a90 12be
00000360: 55ff 09bf 6c37 183e b42f b53e b32e 22bf
00000370: cb38 0cbe 9173 c1be 303b 3ebd 188c 9dbe
00000380: fc32 82be e60d 48be ad77 1fbf 332d 0a3f
00000390: 6f15 083f 1bf6 e2bd 6ce4 91bd 55e0 81be
000003a0: bec7 12bf fc17 22bf 7a74 7f3e 414e b0be
000003b0: 579d d9be 5a07 40bd eb52 52be 4c7b 5ebe
000003c0: 2fd5 f63c 1fd5 02be 3ced 59be 8bfd a1be
000003d0: 4114 04bf 95d3 0c3f ba0e 89be f359 333e
000003e0: 97f4 6ebe 6b64 303d 2b0e 1c3f 36fa 9c3e
000003f0: c5cc 0cbf 892c 7d3e 7443 1f3f 7b9e 243e
0.05056376 -0.43073732 0.20886485 -0.21253142 0.20771195 -0.12452167 0.52544254 -0.37277973
-0.39489436 -0.39491585 0.5709893 0.22464603 0.63105106 -0.53863174 -0.63033223 -0.49514994
-0.44407585 0.2589668 0.24105807 0.53753996 -0.3433048 -0.45005995 0.35216433 -0.25087807
0.38181388 -0.16161168 0.3792791 -0.49172932 -0.31579626 0.20673484 0.12643437 -0.17449637
0.37480763 0.44885343 -0.4780512 -0.33458748 0.5812808 -0.20782657 -0.23879313 -0.6145751
-0.35989857 0.17103179 -0.07544278 -0.45878497 0.024900299 -0.43116552 -0.557376 -0.35856912
-0.5747059 -0.42077145 0.63527286 0.12991433 0.20867528 -0.6116452 -0.41418663 -0.20509373
0.091178946 -0.5775682 -0.26836833 -0.37761 0.009136714 -0.23283635 -0.045941975 -0.4308752
-0.43571788 -0.3696949 -0.22823927 -0.51799834 0.5338814 -0.13544603 0.56271243 0.20235209
-0.5392578 0.43927255 -0.17025694 -0.24014787 -0.5328247 -0.6492557 0.19203186 -0.13247527
0.25731537 -0.5233965 0.48679262 -0.47798735 -0.10545136 0.13808253 0.3273122 0.5117474
0.5820125 -0.5177957 0.16664052 -0.2719263 -0.064728886 -0.48888677 0.5939657 -0.47728264
0.33733508 0.2183092 0.21576685 -0.340181 0.59384584 0.14878811 0.07630536 -0.5736684
0.27809 -0.09429117 -0.3025682 0.55026805 0.13679509 -0.3640923 -0.32123455 -0.028359236
0.3675381 -0.17185348 -0.36118665 -0.22441192 -0.47509325 0.22306928 0.50675833 -0.60110146
0.15581834 0.33962095 0.122903906 -0.22345465 0.34282023 0.3470536 0.23540317 -0.12246541
-0.17683646 0.063144565 -0.107284285 -0.18751921 0.41851637 0.5484236 -0.057994556 -0.13762501
0.0029895583 -0.041384026 0.16109322 0.18802072 -0.576748 -0.228775 0.5534026 0.24599938
-0.02257543 -0.37977394 -0.40444547 -0.5834864 -0.2199379 0.2084624 0.42028362 0.30771405
-0.5610537 -0.39760008 -0.09234015 0.6272943 0.08376963 -0.176894 0.27658203 -0.2364268
-0.41680408 0.47243565 -0.28763556 -0.12249856 -0.6411518 0.43405077 0.48810026 0.24134126
-0.4510801 -0.6379785 -0.5206374 0.4838285 0.31089815 0.54048246 0.33914778 0.16996318
-0.011942965 -0.49270555 -0.5520526 -0.5966088 0.26029146 -0.3205096 -0.12649636 -0.364115
-0.12157552 -0.45778227 -0.41809344 0.22336856 -0.18788886 0.4022934 -0.1994591 -0.4684613
-0.11783406 -0.31183705 -0.20143542 -0.60604054 0.35935572 -0.44519505 0.32048965 0.28998584
0.45845887 -0.4978107 0.4732056 -0.29604182 0.23681349 0.6156561 -0.08831888 0.0042852596
-0.14590341 -0.5362647 0.30449498 -0.643315 0.39801273 0.48610312 0.60773975 -0.14312878
-0.5390523 0.14864892 0.35387957 -0.6335251 -0.1369354 -0.37783483 -0.046443164 -0.30770946
-0.25429523 -0.19536552 -0.62291986 0.5397522 0.53157705 -0.11082097 -0.07123646 -0.25366464
-0.5733603 -0.6331785 0.24946776 -0.34434703 -0.42502853 -0.04688201 -0.20539443 -0.21726722
0.03013095 -0.12776612 -0.21281904 -0.3163875 -0.51593405 0.5501035 -0.26769048 0.17514782
-0.23335491 0.043064516 0.6095912 0.30659646 -0.54999954 0.2472402 0.622123 0.1607608

hidden_layers.0.bias f4 [20]
00000000: 1d8c 223c ce14 23bc f8e3 1f3c 40d0 f03b
00000010: 61e7 c43b b43a e93b 3899 c13b de23 1c3c
00000020: 4205 823a b26d 81bb 886a 31bb b0af 1c3c
00000030: 9fd5 193c c15f c9ba e3ba 183c 6ef0 023c
00000040: 4b60 203c fcc7 80b8 0a55 073c 01b0 053c
0.009921101 -0.009953691 0.009758942 0.007349044 0.006009028 0.0071175937 0.0059081577 0.009530036
0.000991978 -0.0039498443 -0.0027071554 0.009563372 0.00938931 -0.001536362 0.009321901 0.007991893
0.009788583 -6.1407656e-05 0.008260021 0.008159638

hidden_layers.1.weight f4 [20, 20]
00000000: a7d4 3cbd d1ac 283e 0aca 5d3e e0c2 e4be
00000010: f339 6e3e 86da adbe 0cb6 0bbf 8db7 b0be
00000020: 57f8 203f 8391 0b3f 977d 113f 7fe2 c63e
00000030: 62e7 f43e 3f29 9ebd 0d60 b3be db4a a13e
00000040: b126 b0be d250 dabe f43a 4ebe 23f9 103e
00000050: 2746 ae3e 0738 82be dad6 bdbe 21ab ab3d
00000060: eeda c6be d01a d6be 903b af3e 490b d2bd
00000070: 47c1 143f bf0f 213f a42e 493e 55fd 5d3e
00000080: f611 0f3e 3aed 553b e1d8 42bd c1a7 65ba
00000090: dec7 773e 220f 173f 6b67 23be b6a4 90be
000000a0: 9578 16be 976a a2be 1da6 f33d 7edf fb3e
000000b0: 4ec0 033f 599b 9b3e d196 eebe da46 b6be
000000c0: c22e 1bbe c272 dfbd 2acd 773d 8ca8 17bf
000000d0: e9e4 433e beff f6be 3df3 cbbe 1e01 07bf
000000e0: 599f 113f 21e7 19bf 17ba f43e 328a 01bd
000000f0: 5161 92bd e770 cf3e 0035 6bbd b910 d43e
00000100: 4858 ea3e 9afa 11bf 8b34 813e 5895 f43d
00000110: 13e3 033e ecd7 cc3d 2477 303e 14c3 a0be
00000120: 6eec a2bd 3b97 1f3f 3a70 e13e 4329 a2bc
00000130: b9e5 19bf a865 c43c 3df9 dbbe c7d2 033f
00000140: f37f c3be e5d6 67bd b467 08be 931e d83d
00000150: ac24 193f 4b19 923d 7b8f c43e db42 fc3e
00000160: b13e 053f fc43 6ebe f08f 09be 1227 9a3e
00000170: 2870 3ebe a9a1 963e 82a1 1abe 6f2a e5be
00000180: c789 8b3e 6465 b83d 943c 8e3e 217a 243f
00000190: 3aa6 dd3e fa99 1e3f 0199 de3c 322a 0cbf
000001a0: 3828 e4be 0840 d1be 3ea8 13bf 2c71 a9be
000001b0: ab66 16bf e78a 16bf e75a c9be 69fa 20bf
000001c0: 149e c6be 8cd6 753e b1b9 0b3f 35af 3cbe
000001d0: 97da 47be a335 b43e a4cf a0be 61a5 9abe
000001e0: 0a44 c73e ba26 0ebf 5af3 8e3d f067 0f3f
000001f0: 6654 ec3d 1a96 2b3e eaf6 c4be b793 5c3a
00000200: 6c62 293d 5218 183e f0b9 783e c631 113f
00000210: b226 f7be 8687 4f3c 4078 a2be ac2f 04bf
00000220: 3c9c 6fbd 8aff 0ebf a661 eb3e a809 ad3d
00000230: 1c43 afbe 5490 aa3e af7d 1abf ee86 81be
00000240: c8f5 07be c853 0cbf fdb7 d0be 9517 c9bd
00000250: 91ef f63e 9452 1e3f 6d82 d33e 2e31 c7be
00000260: d7b2 dbbe 87ba 0d3f a519 673e d0a1 193c
00000270: 29f5 b93d 943f 07bf f389 52be 93c0 1f3f
00000280: f95c 2bbe 0c05 bebc 6f1c 0bbf 25b2 b4be
00000290: 4eca d9bb 9ef7 d1be 7f1b b5bd 3d45 823e
000002a0: e71d 1fbf 831a 4d3e 82d5 debe acbb 9cbe
000002b0: 5ec6 783e 6ce2 003f b5e8 2bbe f7a1 8abe
000002c0: bac4 17bf 8c55 afbe 6aa0 12bf 602b 14be
000002d0: d811 103e 9955 1dbf fdd0 0d3f dd40 ca3e
000002e0: 6850 24bf 89ce 98be ceaf 613e b1ee 0ebe
000002f0: 2f2a 77bd aa46 9abe 9d3d 073f 3ccc bdbe
00000300: 147c 063f a529 013d 078b f53d 2cbb fc3e
00000310: a087 c5bd 045f b7be 76f1 e9bd 1497 083f
00000320: 8436 fabe d111 203e 3ed5 24bf c651 b23e
00000330: 1849 6a3e 2c29 8f3c eade 883e 6c76 9fbb
00000340: fbe5 b93e 2d59 00bf b650 d6bd 098f 973e
00000350: 8b42 233f e989 a33e 7b48 ebbe 9c77 f93e
00000360: fc6f 1dbe 7757 17be a0a8 13bf 27bd cbbd
00000370: 9490 e83e 9192 b53d bc04 c4be ab9e 473e
00000380: 9384 4ebe 1e9e 183f 3d08 0fbf e3b5 55be
00000390: e110 1dbf fffe 82be d68d 523e efc6 1e3f
000003a0: 0a73 e13d ea72 1f3f 6430 003e fdfd bc3e
000003b0: e18e 043f 1217 0a3f db03 bebe fd78 1a3f
000003c0: 8528 ca3e 030b 9ebe a184 9fbe ff48 09bf
000003d0: c7d3 283e 487e 03bf 527f 903e c90e 493e
000003e0: a123 0dbf 267d 363e f09e 31bd 8fec 933e
000003f0: b39d b83e 8486 22bf 4030 153f b4f5 0a3f
-0.04610124 0.16472174 0.21659103 -0.44679928 0.23264293 -0.33955783 -0.54574656 -0.34515038
0.62878937 0.5451891 0.5683226 0.38844678 0.4783278 -0.07722711 -0.35034218 0.31502423
-0.3440452 -0.42639786 -0.20139676 0.14157538 0.34037897 -0.2543337 -0.3707798 0.083822496
-0.38838905 -0.4181733 0.3422513 -0.10256059 0.5810742 0.6291465 0.19646698 0.2167867
0.13971695 0.0032642619 -0.047570113 -0.0008760654 0.24197337 0.59007466 -0.1595742 -0.28250664
-0.14694436 -0.31721947 0.11896918 0.49193949 0.5146531 0.30391958 -0.4659944 -0.3560093
-0.15154555 -0.1091056 0.060498394 -0.5924156 0.19130291 -0.4824199 -0.39834014 -0.5273608
0.5688377 -0.601183 0.47798225 -0.031625934 -0.07147468 0.40515825 -0.05742359 0.41419008
0.45770478 -0.5702301 0.252354 0.119425476 0.1287959 0.10002121 0.17232949 -0.31398833
-0.07955252 0.62340134 0.44030935 -0.019795066 -0.60116154 0.023974255 -0.4296359 0.51493496
-0.38183555 -0.056601424 -0.1332081 0.105527066 0.5982158 0.071337305 0.38390717 0.49269757
0.52048784 -0.23268121 -0.13433814 0.30107933 -0.18597472 0.29420212 -0.15100673 -0.44758937
0.27253553 0.09003714 0.27780592 0.64248854 0.43290883 0.619537 0.027172567 -0.54751885
-0.44561934 -0.40869164 -0.5767859 -0.33094156 -0.5875041 -0.588057 -0.39327165 -0.62882096
-0.3879248 0.24007624 0.5458022 -0.18426211 -0.19516979 0.35197172 -0.31408417 -0.302043
0.38919097 -0.5552784 0.069800094 0.5601797 0.11539535 0.16756478 -0.3846963 0.0008414345
0.041353628 0.14853027 0.2428968 0.56716573 -0.4827171 0.012666589 -0.31732368 -0.5163524
-0.058498606 -0.5585867 0.45972937 0.084491074 -0.34230888 0.3331324 -0.6034803 -0.25298256
-0.13277352 -0.5481534 -0.40765372 -0.09818951 0.4822965 0.61844754 0.41310444 -0.3890471
-0.4290988 0.55362743 0.22568376 0.009376958 0.09079964 -0.5283139 -0.20560436 0.6240322
-0.16734685 -0.023195766 -0.5434026 -0.35292163 -0.006646431 -0.4100923 -0.08843135 0.2544345
-0.62155 0.20029645 -0.4352227 -0.30611932 0.24294421 0.5034549 -0.1678799 -0.27076694
-0.59284556 -0.34244955 -0.5727602 -0.14469671 0.14069307 -0.61458737 0.55397016 0.39502612
-0.6418519 -0.29845074 0.2203972 -0.13958241 -0.060342964 -0.30132037 0.5282839 -0.3706988
0.5253308 0.031533856 0.11989408 0.4936155 -0.09645009 -0.3581468 -0.11423008 0.53355527
-0.48869717 0.15631796 -0.6438788 0.34828013 0.22879446 0.017475687 0.2673257 -0.004866412
0.36308274 -0.5013607 -0.10464613 0.29601315 0.6377341 0.31941155 -0.45953736 0.48724067
-0.1537475 -0.14779459 -0.57679176 -0.09948187 0.45422804 0.08865846 -0.38284862 0.19494121
-0.2016776 0.5961627 -0.55871946 -0.20870166 -0.6135388 -0.25585172 0.20561919 0.620223
0.1100827 0.6228472 0.1251846 0.36912528 0.51780516 0.5394145 -0.37112316 0.60340863
0.3948404 -0.30867776 -0.31155875 -0.5362701 0.16487037 -0.51364565 0.28222138 0.19634546
-0.5513249 0.17821178 -0.043364465 0.28891417 0.36057815 -0.63486505 0.5827675 0.54281163

hidden_layers.1.bias f4 [20]
00000000: c009 1ebc 8c34 873b c946 ec3b 6602 95bb
00000010: b569 243c 3dae fabb 729f ffbb 20f3 153b
00000020: 645d 10bc 8a97 203c 921f 21bc ee98 0d3b
00000030: bb98 e13b 2c9d 793b 128a 9abb e37d eebb
00000040: 3d40 82ba dca1 e8bb 7298 1dbc 1634 ca3b
-0.009645879 0.004126137 0.0072105867 -0.004547405 0.010034968 -0.0076501654 -0.00780099 0.002288051
-0.008811329 0.009801755 -0.009834187 0.0021606046 0.006884662 0.0038088067 -0.0047161663 -0.0072781905
-0.0009937357 -0.0070993733 -0.009618865 0.00617076

hidden_layers.2.weight f4 [20, 20]
00000000: ba46 123e c540 ecbe f76f 113f 5484 98be
00000010: ec3c a1be 690c 0a3f 5c60 fb3e 39e1 4f3e
00000020: db14 4c3d de11 0dbf 4fbd 6dbd 07fa 203f
00000030: f6d6 223e c8dc 853d 047c 00be 04e3 61be
00000040: 888a c83e 3193 443d 421a d23e a37a fabd
00000050: 2200 953e 9192 8d3e 8661 bf3d d1ee d33e
00000060: d3eb c93e e8b9 163f c6e8 f83e 4978 20be
00000070: 4061 09bf 423e e63d f752 933b f0aa 2abe
00000080: 4780 c9bd 57c9 253d a73a f13e 5e15 533e
00000090: d43a 72be 763b 83be c011 2ebe 7fb9 84be
000000a0: 2322 123f df13 b43e 5ca0 153f ee30 f63a
000000b0: e65b f63d f0fe 6b3e 30e1 19bf f610 6c3d
000000c0: 98c7 36bd e9c8 b9be eec9 02bf df09 113f
000000d0: 5deb 033f be51 9e3e f742 203f f6eb 80be
000000e0: e1bf e2bd 4d2d 733e a2a0 c5bd caa7 03be
000000f0: e217 0bbf a0cf 343e 33c2 c2be bbff 613c
00000100: b64f 213f c919 55be 9b13 46be 3f96 c23e
00000110: 9b1e 7dbe 4ee6 3bbd 6ac8 173f afa0 8cbe
00000120: 9a5a efbe 5c16 bebe 6d1f 38be a8b1 97be
00000130: ff49 b0be ee86 803e 5cf3 f43d 89af 49be
00000140: 0a4d fdbe 3b61 46be a66c 86be 9740 61be
00000150: 9e7d 12bf 402f 043e 9903 f8be 4eba febe
00000160: 4988 09bf b031 8d3e 53cd c1be 0fc7 85be
00000170: 38bb fe3e 696b aa3e cb5c b83e 95ac 1abf
00000180: fb1b f2be 86dd 71be 1805 063f 48ba 9b3d
00000190: 97cd f2be 5ef0 443c b0f7 01bf e47d 0abe
000001a0: 0cd4 3fbe f1ca 0c3f 7f7e 433e 608f d7bd
000001b0: 1a5d eb3d 66c0 45be 1e0b 863e 3e36 7e3e
000001c0: 6b04 3b3e d689 85be 4794 0d3f a984 b0bd
000001d0: 2f39 7bbe 70a2 d23e 9ad1 043f 0d9a 223f
000001e0: 6e5e 4a3e e22d 57be 36c6 a23e e54c 103f
000001f0: b28a 24bf 694e 8fbd e642 dcbe 4268 053e
00000200: f7c5 8d3e c1ba 12be 3e41 82bd 5d9d 8f3e
00000210: ecb3 cabd a1b7 08bf bfc8 063f 652f a1be
00000220: a756 79bd 473c 893d 60a4 eabc cbf8 1dbf
00000230: be61 953e 5148 98be 4d55 aabe 1a42 1b3e
00000240: 2ca8 b1be 9de6 93be 5639 60be 43d0 79be
00000250: 4584 88be e003 30be 36fe 2e3e 7d24 04bf
00000260: 285c cabe 1956 a03c d2a8 ad3d 5e35 b23e
00000270: 9c99 e9be 34c1 523e 14f6 b63e 1647 b93e
00000280: 7835 18bf 7a8f 75be e08e 0fbf b21c cebe
00000290: 43f0 bc3e dca3 d5bd 1c10 8a3e d0cf bebe
000002a0: 5be6 cf3d 5317 cbbe d28f a73e c4d5 92be
000002b0: eb43 21be 76e9 11bf 0dd4 053c 6b07 1f3f
000002c0: 108a a33e f95a adbe 6dc2 123c d737 9dbd
000002d0: 432f 05bf 9907 fe3e 70dd c239 f07a 153e
000002e0: a5ca 88be 527f 95be 73f8 ec3d 5ec7 6e3e
000002f0: a589 1e3e d32d a4be 4d4c 1e3f 9747 bebd
00000300: 1580 c9be d902 97be 7237 253f 6733 f0bb
00000310: 3bcf 9ebd c248 86be afef 34be 16bc 0dbf
00000320: 8433 01bf 8e1c c63e 2628 0b3f fdd2 1f3f
00000330: 657b f3be 8c87 b03e 4372 d0be 514c c93e
00000340: 1a38 f23e ee5e fb3e 23ca f03e 0af8 c93e
00000350: cdc0 ac3c 25b6 9a3e 2a49 63be e69c 943e
00000360: 7feb 4bbe 8b19 5abb 472c 0fbf fdc7 35be
00000370: 8e46 a9be 18dd 68be f67a d7be eb5b 12bf
00000380: e910 523d 744c db3e 271b 143f 91a0 c53e
00000390: 7d77 a6be f5cd 25bf d4ed 813e 4f5a b43e
000003a0: 7c73 0bbf 0c68 633e 0437 093f 801c fb3c
000003b0: c553 c2be 47e6 093f e923 883e e220 d63e
000003c0: a391 debe b264 bb3e db99 dfbe 4d64 223f
000003d0: 7e50 8bbe 104c cb3e 2d32 073e 9d78 273e
000003e0: ab34 cbbd 16b0 8a3e 5383 8cbe 9c42 1abf
000003f0: 1203 74be 18b7 003f fc8c 33be 86c8 453e
0.14284793 -0.46143165 0.5681147 -0.29788458 -0.31491792 0.53925186 0.49096954 0.2030076
0.049824577 -0.5510539 -0.058041867 0.6288151 0.15902314 0.06536251 -0.12547308 -0.22059256
0.3916819 0.047991935 0.41035658 -0.12230422 0.29101664 0.27650884 0.09344773 0.4139314
0.39437732 0.5887742 0.48615092 -0.15670885 -0.53664017 0.112423435 0.004495974 -0.1666677
-0.0983892 0.040475216 0.4711506 0.2061362 -0.23655254 -0.25631303 -0.16998959 -0.25922772
0.5708334 0.3517141 0.58447814 0.0018782893 0.12029247 0.2304647 -0.60109234 0.057633363
-0.04462394 -0.36286095 -0.5108937 0.5665569 0.5153101 0.3092174 0.6260218 -0.25180024
-0.11071754 0.2374775 -0.09649779 -0.12856975 -0.5433332 0.17657328 -0.38038787 0.013793881
0.63012254 -0.20810618 -0.19343416 0.38005254 -0.24718706 -0.045873933 0.5929018 -0.27466342
-0.4674881 -0.37126434 -0.17980738 -0.29627728 -0.34431455 0.25102943 0.119604796 -0.19695868
-0.4947284 -0.19373028 -0.26254767 -0.21997295 -0.57222927 0.1290865 -0.48440245 -0.49751514
-0.5372358 0.2757697 -0.37851962 -0.26128432 0.49752212 0.33285072 0.36008295 -0.6041959
-0.47286972 -0.2361966 0.5235152 0.0760389 -0.47422478 0.012020199 -0.50768566 -0.13524586
-0.18733233 0.54997164 0.19091223 -0.105253935 0.11492367 -0.19311675 0.26180357 0.24825379
0.18263404 -0.26081723 0.5530438 -0.08619053 -0.24533533 0.41139555 0.51882327 0.6351631
0.19762585 -0.21013597 0.31791848 0.5636733 -0.6427413 -0.069973774 -0.4301979 0.13028052
0.27690098 -0.14329053 -0.063601 0.28049746 -0.098975986 -0.53405195 0.52650064 -0.31481472
-0.060873654 0.0670095 -0.028642833 -0.6170775 0.29176134 -0.29742673 -0.33268204 0.15161934
-0.34698617 -0.2888688 -0.21896872 -0.24395852 -0.26663414 -0.17188978 0.17089161 -0.51618177
-0.39523435 0.019572305 0.084794655 0.3480634 -0.45625007 0.20581514 0.35734618 0.36187047
-0.59456587 -0.23980513 -0.56077385 -0.40256268 0.36902055 -0.10431644 0.26965415 -0.37267923
0.10151359 -0.39666232 0.32726914 -0.28678715 -0.15748565 -0.5699686 0.008168233 0.62120694
0.3194127 -0.3385847 0.0089574875 -0.07676666 -0.5202524 0.49615172 0.00037167547 0.14597678
-0.26717106 -0.291987 0.115708254 0.2331824 0.15482195 -0.3206621 0.61835176 -0.092909984
-0.3935553 -0.2949436 0.6453773 -0.0073303464 -0.0775437 -0.26227385 -0.17669557 -0.5536512
-0.5046923 0.3869366 0.54358137 0.6243132 -0.4755508 0.34478414 -0.40712175 0.39316037
0.47308427 0.49095863 0.47029218 0.3944705 0.021088028 0.3021709 -0.22195879 0.29025954
-0.19914053 -0.0033279385 -0.55926937 -0.1775207 -0.3306164 -0.2274059 -0.42086 -0.57171506
0.051285658 0.42831767 0.5785393 0.38599065 -0.32513037 -0.6476739 0.2537676 0.3522515
-0.5447309 0.2220766 0.5359957 0.030653238 -0.37954536 0.53867 0.26589897 0.41821963
-0.43470487 0.36600262 -0.4367207 0.63434297 -0.27209848 0.3970647 0.13202734 0.16354604
-0.09922155 0.27087468 -0.27443942 -0.6025789 -0.23829296 0.5027938 -0.1753425 0.19314775

hidden_layers.2.bias f4 [20]
00000000: 1dea 01bc 0561 543a 4051 4bb8 9477 1e3c
00000010: 6d2e 223c fef9 cfbb 0188 23bc 929b 3e3a
00000020: b57b bfbb d2b6 24bc 3d72 0abc 339a 1abc
00000030: ac94 2e3b 9e47 f23b 7da5 a73a 343c db3b
00000040: cb0b 1d3c 89ab b8bb 1ebe ee3b 7f7d 0cbb
-0.007929352 0.0008101615 -4.847464e-05 0.009672064 0.009898764 -0.00634694 -0.009981156 0.00072711066
-0.0058436044 -0.010053353 -0.008450088 -0.009436178 0.0026638908 0.0073937913 0.0012790408 0.0066905264
0.009585331 -0.005635683 0.0072858473 -0.0021437106

output_layer.weight f4 [5, 20]
00000000: 4a66 3a3e 30a1 2a3f 6927 06bf 48a1 04bf
00000010: 070e 4a3f 3670 253f 7a0f e4be ae29 fa3e
00000020: ec9e eabd 513f 4fbf 7f45 923d d610 823e
00000030: 129b 70be 8175 8c3e 6929 30bf a1c9 123f
00000040: 129f 2f3f a1cd e43e 3586 043e b77d 843e
00000050: 63a6 14bf af5a 47be b674 91bd 8a97 edbe
00000060: a6d2 17bf eb1d 0a3f f052 0b3f aaef 3bbf
00000070: 5be0 853e 9346 a53e bfff 433f 9a0e ed3e
00000080: 1194 3d3f a011 8dbe 28f4 143f 4700 2b3f
00000090: e0d5 42bf a98a 27bf d964 203e 2e2c e53e
000000a0: 9b99 d1be 7027 a43d cccd 39bc d3db 5d3e
000000b0: 627b dbbe 9cd5 e93e cb69 083f fc75 0ebf
000000c0: 084e 8b3c 4868 00bc f716 813e d47f 443f
000000d0: 2de1 703e 3357 48be bf4b 3e3f 9b39 a4be
000000e0: 99a5 68be 4cff 3a3d 0794 1cbf b685 ca3d
000000f0: 56d2 0bbf 3e65 ad3d 34f8 923d f197 d93d
00000100: c0c4 2ebf 2a08 45bf 6aec bc3e 27d4 303f
00000110: a3c5 37bf 7534 973e 773c 1bbf 31e4 5a3d
00000120: a3d4 423f debc 1d3f 60e5 16bf 05ff fe3e
00000130: 768e dd3e e1c1 e3bb 63bc 4c3f a0c0 a8be
00000140: a689 3fbe e5c2 cebe a3eb e33d a2d3 573e
00000150: 32d1 923d c092 e7be bb5f bfbe fdce 903e
00000160: 087e 35bf 091e 07be 3388 d2bc 231a a5be
00000170: de9d 993e 1ff0 373d dfcd 133f db2e a1bd
00000180: eb24 02bf f0d8 113f 6b70 f83d f762 78be
0.18203083 0.666522 -0.52403885 -0.51808596 0.78927654 0.64624345 -0.44543058 0.48859924
-0.11456093 -0.8095599 0.071421616 0.2540347 -0.23496655 0.27433398 -0.68813187 0.5733891
0.686021 0.44688132 0.12941821 0.25877163 -0.58066386 -0.19468187 -0.07102339 -0.46404678
-0.593058 0.539519 0.5442343 -0.73412573 0.26147732 0.32280406 0.7656211 0.46300203
0.74054056 -0.2755251 0.5818505 0.667973 -0.761076 -0.65445954 0.1566347 0.4476027
-0.40937504 0.080153346 -0.01134057 0.21665888 -0.4286757 0.45670784 0.5328643 -0.5564878
0.017004982 -0.007837363 0.25212833 0.7675755 0.23523398 -0.19564514 0.7433433 -0.320752
-0.2271942 0.045653626 -0.6116337 0.098887846 -0.5461782 0.08466576 0.07176247 0.10624684
-0.68268967 -0.7696558 0.3689912 0.6907372 -0.71785945 0.2953221 -0.6063914 0.053440277
0.7610571 0.61616313 -0.5894375 0.4980394 0.43272752 -0.0069506024 0.79974955 -0.3295946
-0.18704852 -0.40383068 0.111289285 0.21076825 0.07168807 -0.4522915 -0.37377724 0.2828292
-0.70895433 -0.13195051 -0.02569971 -0.32246503 0.30003256 0.04490673 0.5773601 -0.07870265
-0.5083758 0.56971645 0.12130817 -0.24256502

output_layer.bias f4 [5]
00000000: 33c4 25bc 88e1 243c 2712 253c a2e1 b23b
00000010: cccf ed3b
-0.010117578 0.010063536 0.010075129 0.0054590264 0.0072574373
