results/ADAM_test_1.pt (torch, 8951 bytes, 10 tensors)

input_layer.weight f4 [20, 2]
0	0x3f1601c5	0.5859645
1	0x3f52249d	0.8208712
2	0xbe554be2	-0.20829728
3	0x3f49d78f	0.7884454
4	0xbe48375a	-0.19552365
5	0x3e2daf70	0.16961455
6	0xbedc6ced	-0.43051854
7	0x3f0365c7	0.51327175
8	0x3f452954	0.77016187
9	0xbf23cf44	-0.6398814
10	0x3f40f96b	0.7538058
11	0x3e125770	0.14291167
12	0x3f1dd97d	0.61659986
13	0x3e07b7f5	0.13253768
14	0x3ee55326	0.4479
15	0xbdbc0c08	-0.09181982
16	0x3f27e5a1	0.6558476
17	0x3dcd1c63	0.1001518
18	0xbebbce26	-0.36680716
19	0x3e85b077	0.26111194
20	0xbea59223	-0.32338056
21	0xbdcf8fff	-0.10134887
22	0xbeb1d9c4	-0.34736454
23	0x3f1567d0	0.5836153
24	0xbf182876	-0.5943674
25	0xbece1e95	-0.40257707
26	0xbe1a8754	-0.15090686
27	0xbed3495a	-0.412669
28	0x3daa60d5	0.083192505
29	0xbf59d80f	-0.85095304
30	0x3f468652	0.77548707
31	0xbf3fe46b	-0.74957913
32	0x3f158c75	0.58417445
33	0x3e1d9126	0.15387401
34	0xbe8e40fb	-0.2778395
35	0x3f0b07ed	0.5430897
36	0x3e31ea2a	0.17374483
37	0x3f41ede0	0.75753593
38	0x3dd52d8d	0.10409079
39	0xbe89180c	-0.2677616

input_layer.bias f4 [20]
0	0x3def7930	0.116930366
1	0xbd398e65	-0.045301814
2	0x3d9662c3	0.07343056
3	0xbd18b9f4	-0.037286714
4	0x3cf19e9c	0.029494576
5	0x3d693e50	0.05694419
6	0x3d65a851	0.056068722
7	0x3cbb4263	0.022858804
8	0x3d303c55	0.043026287
9	0xbcb901cf	-0.02258387
10	0x3d941786	0.07231049
11	0xbba2474d	-0.0049523474
12	0xbd753094	-0.05986078
13	0x3dd4808f	0.10376083
14	0x3ce85626	0.028361391
15	0xbdc57d93	-0.09643092
16	0xbd72ad14	-0.05924709
17	0x3bccddcc	0.006252026
18	0x3d52f751	0.05150539
19	0xbc63b7d7	-0.013898811

hidden_layers.0.weight f4 [20, 20]
0	0x3e45a14e	0.19299814
1	0xbe1a37a1	-0.15060283
2	0x3e93f772	0.28899723
3	0x3f1709bb	0.5899922
4	0x3eb544b2	0.35403973
5	0xbe868a38	-0.26277328
6	0x3ec8b788	0.39202523
7	0x3e0643d4	0.13111812
8	0x3eb1c3cf	0.34719703
9	0xbebf429c	-0.37355506
10	0xbf289148	-0.6584668
11	0xbe6564ec	-0.2240178
12	0xbf03bf11	-0.5146342
13	0x3f029486	0.5100788
14	0x3e291cf1	0.16514947
15	0x3e800b76	0.25008744
16	0x3e64f43e	0.22358796
17	0x3cc531e8	0.024071649
18	0x3f06552f	0.5247373
19	0xbef8fa7d	-0.48628607
20	0x3d6a368c	0.057180926
21	0xbee0926e	-0.43861717
22	0x3e3eb476	0.18623528
23	0xbe4fb453	-0.20283632
24	0x3e5b69d8	0.21427095
25	0xbdf191d1	-0.117953904
26	0x3f0d4771	0.55187136
27	0xbeb9f95e	-0.36323065
28	0xbebca8b9	-0.36847475
29	0xbed2eaf8	-0.41194892
30	0x3f10749b	0.56427926
31	0x3e4d61f3	0.20056896
32	0x3f1ac6a9	0.6045938
33	0xbf0ca2d3	-0.5493595
34	0xbf290922	-0.6602956
35	0xbf00bfef	-0.5029287
36	0xbed5ddbd	-0.41770735
37	0x3e7aa482	0.24476817
38	0x3e7dc03a	0.2478036
39	0x3f0deada	0.5543648
40	0xbeb5b8a9	-0.35492447
41	0xbeeafa74	-0.45894206
42	0x3eae56bc	0.34050548
43	0xbe75bfb0	-0.23998904
44	0x3ecdd5c5	0.40202156
45	0xbe32e8ab	-0.17471568
46	0x3eb1fd05	0.3476335
47	0xbef9b0bc	-0.4876765
48	0xbeb1d8b7	-0.34735653
49	0x3e3f08ca	0.18655697
50	0x3e21fa49	0.15818132
51	0xbe29c3dc	-0.1657862
52	0x3ed005c9	0.40629414
53	0x3eebac64	0.4602996
54	0xbee4f7af	-0.44720218
55	0xbeb6db02	-0.35713965
56	0x3f11cb93	0.56951255
57	0xbe5e3c31	-0.21702649
58	0xbe8032cb	-0.25038752
59	0xbf1b9d78	-0.60787153
60	0xbebd8129	-0.37012604
61	0x3e2fddf0	0.17174506
62	0xbdbfcfb9	-0.09365792
63	0xbef58981	-0.4795647
64	0x3cb2239c	0.021745495
65	0xbee1bc61	-0.44089034
66	0xbf0c2fcf	-0.5476045
67	0xbeb5027a	-0.35353452
68	0xbf109bf6	-0.5648798
69	0xbed359fe	-0.41279596
70	0x3f2521d1	0.64504725
71	0x3debea92	0.1151935
72	0x3e4bf2f8	0.19916904
73	0xbf1a0f3f	-0.60179514
74	0xbed9e591	-0.42557958
75	0xbe557200	-0.20844269
76	0x3dcebc3a	0.10094495
77	0xbf19f7e2	-0.60143864
78	0xbe8ea2b8	-0.2785852
79	0xbebe2ef7	-0.37145206
80	0x3b0e7cd7	0.002174189
81	0xbe82542c	-0.25454843
82	0xbd3f82aa	-0.04675547
83	0xbee32614	-0.4436499
84	0xbee051ff	-0.43812558
85	0xbec0959f	-0.37614152
86	0xbe61c5bd	-0.22048087
87	0xbf011311	-0.5041972
88	0x3f0aad20	0.5417042
89	0xbe0c8864	-0.13723904
90	0x3f0e12c8	0.5549741
91	0x3e50f009	0.20404066
92	0xbf0c0897	-0.5470061
93	0x3ee4978f	0.4464688
94	0xbe31d86f	-0.17367719
95	0xbe76a10f	-0.24084876
96	0xbf090def	-0.53536886
97	0xbf2447a6	-0.64171827
98	0x3e3d6881	0.18496896
99	0xbe06ff6d	-0.13183375
100	0x3e732e34	0.23748094
101	0xbf0bc662	-0.54599583
102	0x3ef3c6e0	0.47612667
103	0xbefdb34b	-0.49550852
104	0xbdcc43bf	-0.09973859
105	0x3df73cac	0.12072119
106	0x3ea360d5	0.31909814
107	0x3f052b72	0.5201942
108	0x3f12e851	0.57385737
109	0xbf0689e4	-0.52554154
110	0x3e354c11	0.17704798
111	0xbe91b68c	-0.28459585
112	0xbd68a2e8	-0.056795985
113	0xbef02d70	-0.46909666
114	0x3f1a3251	0.60233027
115	0xbef01459	-0.46890524
116	0x3ea96757	0.33086655
117	0x3e4d9c13	0.20079069
118	0x3e4896b3	0.19588737
119	0xbea5ca94	-0.32381117
120	0x3f150c35	0.5822175
121	0x3e161cbb	0.14659397
122	0x3d9fd788	0.07804781
123	0xbf113d27	-0.56733936
124	0x3e8bbe55	0.2729365
125	0xbdcf7f6e	-0.10131727
126	0xbe99c339	-0.30031756
127	0x3f1637d3	0.5867893
128	0x3e0eab6c	0.1393258
129	0xbeb55dfc	-0.35423267
130	0xbea4d3bf	-0.321928
131	0xbd036306	-0.032076858
132	0x3ebad2ab	0.36488852
133	0xbe246084	-0.16052443
134	0xbebb1205	-0.36537185
135	0xbe627fc1	-0.22119047
136	0xbef9357e	-0.48673624
137	0x3e6a0315	0.22852738
138	0x3efd860c	0.49516332
139	0xbf1acf9f	-0.60473055
140	0x3e181cd9	0.14854755
141	0x3ea57413	0.3231512
142	0x3df30c4a	0.11867578
143	0xbe7ea6c9	-0.24868311
144	0x3eaad538	0.33365798
145	0x3eacf92a	0.33783847
146	0x3e75c1b2	0.2399967
147	0xbde8fda5	-0.11376504
148	0xbe306fcb	-0.17230146
149	0x3d8ed457	0.06974094
150	0xbde67025	-0.112518586
151	0xbe2c01b7	-0.16797529
152	0x3ed3f5c7	0.4139845
153	0x3f0e65f9	0.5562435
154	0xbd77fe64	-0.06054534
155	0xbe0d249b	-0.13783495
156	0x3c03a46b	0.008034806
157	0xbd373cff	-0.044735905
158	0x3e1d6cc2	0.15373519
159	0x3e4105df	0.18849896
160	0xbf187926	-0.5955986
161	0xbe823541	-0.25431255
162	0x3f0d48da	0.5518929
163	0x3e677c59	0.22606029
164	0xbd3c3dd4	-0.0459574
165	0xbecbf123	-0.3983241
166	0xbecedf3a	-0.40404683
167	0xbf14d86a	-0.5814272
168	0xbe60c711	-0.21950938
169	0x3e6ea318	0.23304403
170	0x3ed765b0	0.4206977
171	0x3e99656d	0.29960194
172	0xbf0fb313	-0.5613262
173	0xbec1f436	-0.3788163
174	0xbdb8b291	-0.09018434
175	0x3f1f0c36	0.6212801
176	0x3dac7950	0.08421576
177	0xbe308fcc	-0.17242354
178	0x3e83ede8	0.25767446
179	0xbe69f11f	-0.22845887
180	0xbedab242	-0.42714125
181	0x3eef1cc2	0.46701628
182	0xbe977034	-0.29577792
183	0xbdce2006	-0.10064702
184	0xbf2235ac	-0.63363147
185	0x3ed8694b	0.42267832
186	0x3ef5a0f9	0.47974375
187	0x3e61ba9b	0.2204384
188	0xbeeb362d	-0.4593977
189	0xbf1d4276	-0.61429536
190	0xbf03dd41	-0.5150948
191	0x3ef00699	0.46880034
192	0x3ea37478	0.31924796
193	0x3f0d7442	0.5525552
194	0x3eb2352f	0.348062
195	0x3e1031bf	0.14081477
196	0xbc80218d	-0.015640998
197	0xbef9e46d	-0.48807088
198	0xbf0ff97c	-0.5624006
199	0xbf1bb20c	-0.6081855
200	0x3e844692	0.2583509
201	0xbea531fc	-0.32264698
202	0xbdf840ee	-0.12121759
203	0xbeb9e1a6	-0.3630497
204	0xbe023c37	-0.12718283
205	0xbeeb98ff	-0.46015164
206	0xbedaeed5	-0.4276034
207	0x3e51ba9a	0.20481339
208	0xbe4a6728	-0.19765913
209	0x3ed203c5	0.410185
210	0xbe4e4bc4	-0.2014609
211	0xbeed9a9a	-0.46407014
212	0xbddd3e1f	-0.10802864
213	0xbe9d3949	-0.30707768
214	0xbe445911	-0.19174601
215	0xbf1fbedd	-0.6240061
216	0x3eb5edfb	0.35533127
217	0xbee23445	-0.44180503
218	0x3ea318bb	0.31854805
219	0x3e9aa2bb	0.30202278
220	0x3eefba44	0.46821797
221	0xbef95bdf	-0.48702905
222	0x3ee91dcb	0.45530543
223	0xbead0358	-0.33791614
224	0x3e79c55d	0.24391694
225	0x3f1cfbbc	0.61321616
226	0xbdac0ff3	-0.084014796
227	0x3ad25f65	0.0016050158
228	0xbe10fe68	-0.14159548
229	0xbf0b4662	-0.5440427
230	0x3e9b1a27	0.3029339
231	0xbf20cbdf	-0.6281108
232	0x3ec99173	0.3936878
233	0x3ef3d144	0.47620595
234	0x3f1b0904	0.6056063
235	0xbe0814e8	-0.13289225
236	0xbf05fa37	-0.5233492
237	0x3e15fb56	0.14646658
238	0x3eba1a72	0.363483
239	0xbf2925aa	-0.66073096
240	0xbe1a10b9	-0.15045442
241	0xbec8b07c	-0.39197147
242	0xbd40d674	-0.04707952
243	0xbea86931	-0.32892755
244	0xbe8cdcd1	-0.2751222
245	0xbe55e3ef	-0.20887731
246	0xbf1e0c68	-0.6173768
247	0x3f068a10	0.52554417
248	0x3f0984b1	0.53718096
249	0xbdb9b8a0	-0.090684175
250	0xbd8e45b3	-0.06946888
251	0xbe7aa6e1	-0.24477722
252	0xbf1437db	-0.5789773
253	0xbf1fc66c	-0.6241214
254	0x3e7ac50c	0.2448923
255	0xbeb52309	-0.35378292

hidden_layers.0.bias f4 [20]
0	0x3c9e30a7	0.019310309
1	0x3c878576	0.016543131
2	0xbcb16fe2	-0.021659795
3	0xba48faa5	-0.00076667435
4	0x39cbd802	0.00038880116
5	0xbc5ef0dd	-0.013607231
6	0xbb952513	-0.0045515387
7	0xbab1c730	-0.0013563391
8	0xbc1948ee	-0.009355767
9	0xbc18ccf1	-0.009326206
10	0xbbc2131a	-0.0059226872
11	0x3be8d5c2	0.00710556
12	0xbb8090fa	-0.0039235326
13	0x3b9ffefd	0.004882692
14	0x3a9bd9cb	0.0011890469
15	0x3d20d18c	0.03926234
16	0xba90f4e9	-0.0011059317
17	0x3b9ea02e	0.0048408723
18	0xbc77e4bb	-0.015130217
19	0xbc235f77	-0.009971491

hidden_layers.1.weight f4 [20, 20]
0	0xbe586c05	-0.21134956
1	0x3efc9481	0.4933205
2	0x3c999dc1	0.01875198
3	0x3f052158	0.52004004
4	0x3f24826f	0.64261526
5	0xbeab49e7	-0.3345482
6	0xbeff0dad	-0.4981512
7	0x3f09b17a	0.5378643
8	0x3f055eba	0.52097666
9	0xbef54b51	-0.47909024
10	0xbd33b222	-0.043871053
11	0xbf1edea1	-0.62058455
12	0xbf05b133	-0.5222351
13	0x3dc35f3a	0.095396474
14	0x3e3f040f	0.18653892
15	0x3e1eeb15	0.15519364
16	0xbe415c98	-0.18882978
17	0x3f1687f3	0.5880119
18	0x3ddfb331	0.1092285
19	0xbeb9a083	-0.36255273
20	0xbd33d171	-0.04390091
21	0x3e254b14	0.16141921
22	0x3e6f142b	0.23347537
23	0xbee62fed	-0.4495844
24	0x3e7f34d8	0.24922502
25	0xbeac86bf	-0.33696553
26	0xbf0b36b7	-0.54380363
27	0xbeba4045	-0.3637716
28	0x3f215a60	0.63028526
29	0x3f0b0793	0.5430843
30	0x3f11d0ca	0.5695921
31	0x3eca13fb	0.3946837
32	0x3ef6abcc	0.48177946
33	0xbd9b3175	-0.075777926
34	0xbeb1c390	-0.34719515
35	0x3ea7a39d	0.32742015
36	0xbea94360	-0.33059216
37	0xbedaa902	-0.42707068
38	0xbe4b6fd8	-0.19866884
39	0x3e0edbb6	0.13951
40	0x3ea38008	0.31933618
41	0xbe79015d	-0.24316926
42	0xbebb0853	-0.36529788
43	0x3dd14af2	0.10219373
44	0xbebb36aa	-0.36565143
45	0xbedbed79	-0.42954615
46	0x3ea59935	0.3234345
47	0xbdb90892	-0.09034838
48	0x3f1a6ea1	0.60325056
49	0x3f253ad2	0.6454288
50	0x3e60a01a	0.21936074
51	0x3e70dddb	0.23522131
52	0x3e2c9d77	0.16856943
53	0x3d37ea41	0.044901136
54	0xbcfd75b4	-0.030939914
55	0x3cf4a4d1	0.029863747
56	0x3e545b77	0.20738016
57	0x3f1957c9	0.59899575
58	0xbe1eacac	-0.15495557
59	0xbe8e8e77	-0.27843067
60	0xbe29b0b8	-0.16571319
61	0xbe9d193c	-0.30683315
62	0x3df4fd03	0.11962321
63	0x3efbd235	0.49183813
64	0x3f03b43d	0.51446897
65	0x3e935bc5	0.28780952
66	0xbef7fd7f	-0.4843559
67	0xbeb1ecd8	-0.3475101
68	0xbe06517b	-0.1311702
69	0xbdfa9dd0	-0.122371316
70	0x3d68798d	0.056756545
71	0xbf16b602	-0.5887147
72	0x3e4845ac	0.19557828
73	0xbef3726f	-0.47548243
74	0xbecb4cf6	-0.39707154
75	0xbf06a4c6	-0.52595174
76	0x3f0c0ecb	0.5471007
77	0xbf1adac9	-0.6049009
78	0x3efe0910	0.4961629
79	0xbcaa6b17	-0.020803018
80	0xbd9b9b43	-0.07597973
81	0x3ed26e15	0.4109961
82	0xbd7b2d20	-0.06132233
83	0x3ed02bc2	0.40658385
84	0x3ef048a0	0.46930408
85	0xbf0fc207	-0.5615544
86	0x3e7d94a0	0.24763727
87	0x3e0a559a	0.13509217
88	0x3e082430	0.13295054
89	0x3d5495b8	0.051900595
90	0x3e528b33	0.20560913
91	0xbe9664de	-0.2937383
92	0xbd831558	-0.06400555
93	0x3f16dc4b	0.5892989
94	0x3ed99496	0.42496175
95	0xbc87fa73	-0.016598916
96	0xbf22ce7d	-0.63596326
97	0x3ca9e073	0.020736909
98	0xbee0b37d	-0.4388694
99	0x3f0b2259	0.54349285
100	0xbed118d4	-0.40839255
101	0xbd066b4d	-0.032817174
102	0xbe02e158	-0.12781274
103	0x3e084594	0.13307792
104	0x3f1fb723	0.6238882
105	0x3d40df9f	0.04708826
106	0x3eb7b8d3	0.35883197
107	0x3f013985	0.5047839
108	0x3f089c4b	0.53363484
109	0xbe5097ef	-0.20370458
110	0xbdfc3e1f	-0.12316536
111	0x3eac40a3	0.33643064
112	0xbe2d2fb1	-0.16912724
113	0x3ea768c8	0.3269713
114	0xbe01f215	-0.12690003
115	0xbed68c85	-0.41904083
116	0x3e6adcd3	0.229358
117	0x3ddb1441	0.106972225
118	0x3e9ba9cb	0.3040298
119	0x3f269bbb	0.65081376
120	0x3ee563c8	0.4480269
121	0x3f1acbb8	0.604671
122	0x3ce1edbb	0.027579179
123	0xbf0fff28	-0.5624871
124	0xbeebbae8	-0.46041036
125	0xbec9adfc	-0.39390552
126	0xbf0fc410	-0.5615854
127	0xbea229c7	-0.316725
128	0xbf19fa8f	-0.6014795
129	0xbf16a3a3	-0.5884344
130	0xbec4ba02	-0.38423163
131	0xbf237624	-0.63852143
132	0xbec77a0d	-0.38960305
133	0x3e72ca6a	0.23710027
134	0x3f07e8b9	0.5308948
135	0xbe4c28f9	-0.19937505
136	0xbe24cee4	-0.16094548
137	0x3eacfa9a	0.33784944
138	0xbea6cc1a	-0.32577592
139	0xbe9e175b	-0.30877194
140	0x3ece356d	0.40275136
141	0xbf187482	-0.59552777
142	0x3da60851	0.08107055
143	0x3f11ae8a	0.5690695
144	0x3dd55b41	0.10417796
145	0x3e3cebc5	0.18449314
146	0xbebd8eca	-0.37023002
147	0x3d0616e9	0.032736693
148	0x3d24ff70	0.040282667
149	0x3e476c42	0.19474891
150	0x3e8373af	0.25674197
151	0x3f0eca95	0.55777866
152	0xbef4bef3	-0.47801933
153	0x3da65244	0.0812116
154	0xbea223ca	-0.3166793
155	0xbf01f04b	-0.5075728
156	0xbcea9d06	-0.028639328
157	0xbf1a186c	-0.60193515
158	0x3ee37c3f	0.4443073
159	0x3d507c36	0.050899707
160	0xbeab4c2a	-0.33456546
161	0x3ea3ba7b	0.3197821
162	0xbf1f3cd2	-0.6220218
163	0xbe874611	-0.26420644
164	0xbe0f3765	-0.13985975
165	0xbf09d546	-0.53841054
166	0xbecc3c0f	-0.3988957
167	0xbdd61a0c	-0.10454187
168	0x3ef75d7c	0.4831351
169	0x3f1fa3cd	0.62359315
170	0x3ec7dd9e	0.39036268
171	0xbed2ad9c	-0.41148078
172	0xbee37560	-0.44425488
173	0x3f0e261e	0.5552691
174	0x3e5fb115	0.21844895
175	0x3b6c3534	0.0036042454
176	0x3e14a80d	0.14517231
177	0xbf07cdc5	-0.53048354
178	0xbe6a290a	-0.22867218
179	0x3f1df4eb	0.6170184
180	0xbe239efa	-0.15978613
181	0xbca8b867	-0.020595742
182	0xbf014299	-0.50492245
183	0xbeb7c0c3	-0.35889253
184	0xbb01ae05	-0.0019787562
185	0xbed12e2a	-0.40855533
186	0xbdcc87e2	-0.09986855
187	0x3e8a4dc2	0.2701245
188	0xbf1e35b1	-0.61800677
189	0x3e492ea8	0.19646704
190	0xbedce1c4	-0.43140996
191	0xbe9f152f	-0.3107085
192	0x3e796fd2	0.24359062
193	0x3efb31b1	0.4906135
194	0xbe269fc1	-0.16271879
195	0xbe864c72	-0.26230198
196	0xbf15b896	-0.5848478
197	0xbeaaea6d	-0.33381978
198	0xbf1038e6	-0.5633682
199	0xbe10847c	-0.14113039
200	0x3df85bc1	0.12126876
201	0xbf18b38b	-0.5964896
202	0x3f12f9ff	0.57412714
203	0x3ed4a71d	0.41533747
204	0xbf1f2929	-0.6217218
205	0xbea333ba	-0.31875402
206	0x3e4d2630	0.20034099
207	0xbe119c4e	-0.14219782
208	0xbd710d28	-0.058850437
209	0xbe9c91ee	-0.30580086
210	0x3f02cbfc	0.51092505
211	0xbeba9c58	-0.36447406
212	0x3f05fb36	0.5233644
213	0x3d5c1d29	0.053738747
214	0x3e10850a	0.1411325
215	0x3f0392e3	0.51396006
216	0xbddcec19	-0.107872196
217	0xbeb69ad1	-0.3566499
218	0xbdc089a2	-0.094012514
219	0x3f084be3	0.53240794
220	0xbeeed081	-0.4664345
221	0x3e04edc1	0.12981321
222	0xbf259bb4	-0.6469071
223	0x3ea74bac	0.3267492
224	0x3e676be5	0.22599752
225	0x3d28415f	0.041077968
226	0x3e9464a0	0.2898302
227	0x3cb281c6	0.021790396
228	0x3eb0c41e	0.34524626
229	0xbef2d7fe	-0.47430414
230	0xbdb54d15	-0.08852593
231	0x3e8afb44	0.27144825
232	0x3f2844bb	0.65729874
233	0x3eacb918	0.33734965
234	0xbef63dc6	-0.48094004
235	0x3efad81f	0.48993012
236	0xbe17b883	-0.1481648
237	0xbe2523ac	-0.16126889
238	0xbf197c30	-0.5995512
239	0xbdf55195	-0.11978451
240	0x3ee7ca58	0.45271564
241	0x3dc4b88b	0.09605511
242	0xbebe28b7	-0.37140438
243	0x3e4fd8bd	0.20297523
244	0xbe4d5ac4	-0.20054156
245	0x3f16bc77	0.58881325
246	0xbf109ce9	-0.56489426
247	0xbe4d483c	-0.20047086
248	0xbf1e5125	-0.61842567
249	0xbe5ba75d	-0.21450563
250	0x3e5aebdc	0.21379036
251	0x3f1f4e3b	0.62228745
252	0x3e199387	0.14997683
253	0x3f2d8771	0.6778479
254	0x3e0d701a	0.13812295
255	0x3ec4c7d1	0.38433698

hidden_layers.1.bias f4 [20]
0	0xbc84690e	-0.016163375
1	0xbbf3cc37	-0.007440116
2	0xbc473ff0	-0.01216124
3	0xbc15b22d	-0.009136719
4	0xbaaad689	-0.0013033907
5	0xbc8697bf	-0.01642978
6	0x3beee2d9	0.007290226
7	0x3bdaef41	0.0066813533
8	0x3c5b9b80	0.013403773
9	0xb9a18dc6	-0.00030813942
10	0xbc29e8e0	-0.010370463
11	0x3c539c52	0.012915688
12	0xbb531e6c	-0.0032214178
13	0xbb73ff4d	-0.0037231029
14	0xbb601ded	-0.0034197525
15	0x3aedcb7a	0.0018142306
16	0xbd241dd0	-0.040067494
17	0xbb07179d	-0.002061344
18	0xbc48de25	-0.012259995
19	0x3d1620bc	0.03665231

hidden_layers.2.weight f4 [20, 20]
0	0x3e43e336	0.19129643
1	0xbf2582b6	-0.64652574
2	0xbee46b56	-0.4461314
3	0xbf141304	-0.57841516
4	0xbe45bd3d	-0.1931047
5	0xbe6c725c	-0.230905
6	0x3df2f942	0.118639484
7	0xbdff4b32	-0.12465514
8	0x3ea5ee59	0.32408407
9	0x3f162e47	0.58664364
10	0x3e48444a	0.195573
11	0xbe8ee486	-0.27908725
12	0xbf1fbf02	-0.6240083
13	0x3e66f54a	0.22554508
14	0xbea6bd02	-0.32566077
15	0x3ea5b226	0.3236248
16	0x3ed8fa4e	0.42378467
17	0x3e6b8e23	0.2300344
18	0x3f1ccb47	0.61247677
19	0x3f19c743	0.60069674
20	0x3e139a0f	0.14414237
21	0xbeeda9d7	-0.4641864
22	0x3f11d570	0.56966305
23	0xbea740cb	-0.3266662
24	0xbe989cf0	-0.29807234
25	0x3f0b8b3b	0.54509324
26	0x3f035ee3	0.5131666
27	0x3e4132be	0.18867013
28	0x3d5c2d1c	0.053753957
29	0xbf0cb86c	-0.54968905
30	0xbd87b1f4	-0.06625739
31	0x3f250525	0.64460975
32	0x3e1bd965	0.15219648
33	0x3d44e277	0.048067536
34	0xbe01e8bb	-0.12686436
35	0xbe8758a8	-0.26434827
36	0x3ec11ee1	0.3771887
37	0x3cca9944	0.024731286
38	0x3ed9d07b	0.4254187
39	0xbdfd05b8	-0.123546064
40	0x3e856bac	0.2605871
41	0x3e829ed7	0.2551181
42	0x3dd0b77e	0.10191248
43	0x3ee14e0a	0.44004852
44	0x3ec7811f	0.389657
45	0x3f15579c	0.58336806
46	0x3efe5751	0.49675992
47	0xbe25c4ea	-0.16188398
48	0xbf1175bf	-0.5682029
49	0x3e0f41d7	0.1398996
50	0xbbc89c04	-0.006122114
51	0xbe365ad3	-0.17808084
52	0xbdd00b4e	-0.10158406
53	0x3d57539e	0.052569978
54	0x3eede729	0.46465424
55	0x3e6d4405	0.23170479
56	0xbe54b64b	-0.20772664
57	0xbe7b5d75	-0.2454737
58	0xbe384c1d	-0.17997785
59	0xbe679f88	-0.2261945
60	0x3f11b868	0.56922007
61	0x3ea7b73a	0.32756978
62	0x3f17a604	0.59237695
63	0x3c899c9c	0.01679831
64	0x3df40021	0.11914087
65	0x3e5b4e5a	0.21416607
66	0xbf205135	-0.6262391
67	0x3d969fee	0.07354723
68	0xbd6bad18	-0.057538122
69	0xbeb3909e	-0.35071272
70	0xbefdbca2	-0.49557978
71	0x3f16b844	0.5887492
72	0x3f0a0413	0.53912467
73	0x3e9f2a56	0.31086987
74	0x3f1a6793	0.6031429
75	0xbe90c1d9	-0.28272894
76	0xbdcf90bf	-0.1013503
77	0x3e84df66	0.2595169
78	0xbdf04997	-0.11732786
79	0xbdedcfbb	-0.11611887
80	0xbf064d00	-0.5246124
81	0x3e3c5e04	0.18395239
82	0xbecd5842	-0.40106398
83	0x3c41aaac	0.0118204765
84	0x3f2356e7	0.6380448
85	0xbe433a67	-0.19065247
86	0xbe45250c	-0.19252414
87	0x3ec2fc77	0.3808324
88	0xbe69e288	-0.22840321
89	0xbd83aa79	-0.064289995
90	0x3f194b3d	0.5988043
91	0xbe856c65	-0.2605926
92	0xbeec9813	-0.46209773
93	0xbebd902d	-0.3702406
94	0xbe2f1b17	-0.17100178
95	0xbea14d92	-0.31504494
96	0xbeafc93f	-0.34333226
97	0x3e80c661	0.2515135
98	0x3df1bb1a	0.11803265
99	0xbe5b109b	-0.21393053
100	0xbefe147a	-0.49624997
101	0xbe4c1af7	-0.19932161
102	0xbe900694	-0.2813002
103	0xbe68583a	-0.22689906
104	0xbf13c58f	-0.57723325
105	0x3e11c9f1	0.14237191
106	0xbeea8a19	-0.45808485
107	0xbf03715d	-0.51344854
108	0xbf053e30	-0.52048016
109	0x3e877b5f	0.26461312
110	0xbec91a70	-0.39277983
111	0xbe68ab4a	-0.22721592
112	0x3f034ab9	0.5128589
113	0x3eacd829	0.33758667
114	0x3ec0d6f1	0.37663987
115	0xbf2cb0db	-0.6745736
116	0xbeefd4ff	-0.4684219
117	0xbe83807c	-0.25683963
118	0x3f0999bd	0.5375021
119	0x3d793aa3	0.060846936
120	0xbefdbd52	-0.49558502
121	0xbc952d0f	-0.018209962
122	0xbef90aed	-0.48641148
123	0xbde21270	-0.11038673
124	0xbe4150d4	-0.1887849
125	0x3f0ce123	0.5503103
126	0x3e47d69a	0.19515458
127	0xbdc34bfd	-0.09535978
128	0x3dc93712	0.09824957
129	0xbe32a57c	-0.1744594
130	0x3e7905de	0.24318644
131	0x3e7e6ac0	0.2484541
132	0x3e2f1327	0.1709715
133	0xbe75fb55	-0.24021657
134	0x3f098225	0.5371421
135	0xbdd00cd1	-0.101586945
136	0xbe77a84a	-0.24185291
137	0x3ed615e3	0.41813573
138	0x3f046a03	0.5172426
139	0x3f2669b0	0.65005016
140	0x3e4a00ab	0.19726817
141	0xbe5ee6d4	-0.21767741
142	0x3ea517c4	0.32244694
143	0x3f0b439a	0.54400027
144	0xbf20bf0b	-0.6279151
145	0xbd9abc18	-0.07555407
146	0xbed742ec	-0.42043245
147	0x3de255f8	0.110515535
148	0x3e8e1f10	0.27758074
149	0xbe0e72b1	-0.13910939
150	0xbd8eac1c	-0.06966421
151	0x3e9b5940	0.3034153
152	0xbdcc2e63	-0.09969785
153	0xbf0c6e2c	-0.5485561
154	0x3f059fc1	0.5219689
155	0xbec69dfc	-0.38792408
156	0xbd9ea0ca	-0.07745512
157	0x3d3f1d0e	0.046658568
158	0xbd0802e9	-0.0332059
159	0xbf1d0194	-0.61330533
160	0x3e91b4cf	0.28458259
161	0xbe9fd72a	-0.31218845
162	0xbea7eaa2	-0.32796198
163	0x3e345144	0.17609125
164	0xbeb34261	-0.3501158
165	0xbe9df41f	-0.30850312
166	0xbe64651a	-0.22304192
167	0xbe622e20	-0.22087908
168	0xbe90a7ef	-0.28253123
169	0xbe297ac2	-0.16550735
170	0x3e37ffcf	0.17968677
171	0xbf079b5e	-0.52971447
172	0xbecdc7c5	-0.40191475
173	0x3c9fc611	0.019503625
174	0x3d9b587f	0.07585239
175	0x3e9c8c6e	0.3057589
176	0xbee4e0dd	-0.44702807
177	0x3e4cef60	0.2001319
178	0x3eb88bf5	0.3604428
179	0x3ebdf58a	0.37101394
180	0xbf1bac67	-0.6080994
181	0xbe7f80c6	-0.24951467
182	0xbf0dbb45	-0.55363876
183	0xbec1c8fd	-0.37848654
184	0x3eb591f5	0.3546292
185	0xbdcc26b0	-0.099683166
186	0x3e88cc33	0.26718292
187	0xbec2b3d5	-0.38027826
188	0x3db049e3	0.08607843
189	0xbec4dead	-0.38451138
190	0x3ea4e277	0.3220403
191	0xbea49137	-0.3214204
192	0xbe2ca7f4	-0.16860944
193	0xbf0de085	-0.55420715
194	0x3ab3ab25	0.0013707621
195	0x3f280e4b	0.6564681
196	0x3ea434e7	0.3207161
197	0xbea97624	-0.33097947
198	0x3b9b4241	0.0047381227
199	0xbd779418	-0.060443968
200	0xbf044d67	-0.51680607
201	0x3efef45e	0.49795812
202	0x3c5645d9	0.013078176
203	0x3e041c33	0.12901382
204	0xbe84cbdd	-0.25936785
205	0xbe99dc54	-0.3005091
206	0x3df7d2d3	0.121007584
207	0x3e73bc94	0.23802406
208	0x3e19b060	0.15008688
209	0xbea0b042	-0.31384474
210	0x3f1ceeaf	0.613017
211	0xbdbf183b	-0.093307935
212	0xbed08c92	-0.40732247
213	0xbe9c87e4	-0.30572426
214	0x3f2188c5	0.6309932
215	0xbd2d1669	-0.0422577
216	0xbdbaa495	-0.09113423
217	0xbe8d37aa	-0.2758153
218	0xbe2a36b3	-0.16622429
219	0xbf0be903	-0.5465242
220	0xbef4f2d2	-0.47841507
221	0x3ec84c3f	0.3912067
222	0x3f0e7f54	0.5566304
223	0x3f116cab	0.5680644
224	0xbee0291b	-0.4378136
225	0x3ec31fd2	0.38110214
226	0xbed62c67	-0.4183075
227	0x3ecb562e	0.39714187
228	0x3f02771b	0.5096299
229	0x3eec768c	0.46184194
230	0x3ef5d5a4	0.48014557
231	0x3ed4effd	0.41589347
232	0xbc9a780c	-0.018856071
233	0x3e848b23	0.25887403
234	0xbe657c2c	-0.22410649
235	0x3e619885	0.22030838
236	0xbe7f7b2d	-0.24949332
237	0xbd2746c8	-0.040838987
238	0xbf058fba	-0.52172434
239	0xbe576208	-0.2103349
240	0xbeb37ed1	-0.3505769
241	0xbe6c1258	-0.23053873
242	0xbeccfd0e	-0.40036815
243	0xbf0f543d	-0.5598791
244	0x3d04e6a3	0.032446515
245	0x3ed2c40f	0.41165206
246	0x3f128618	0.5723586
247	0x3eca2dd2	0.39488083
248	0xbeb0da2b	-0.3454145
249	0xbf209a51	-0.6273547
250	0x3e78aa56	0.24283728
251	0x3eb89de1	0.36057952
252	0xbf0b5706	-0.5442966
253	0x3e782ddf	0.24236248
254	0x3f088424	0.5332663
255	0x3d5e2739	0.054236624

hidden_layers.2.bias f4 [20]
0	0xbb712d45	-0.0036800664
1	0xbbce496c	-0.0062953737
2	0x3c6a1765	0.014287804
3	0x3c2ab4c5	0.010419075
4	0xbc0d2a93	-0.0086161075
5	0xbb947586	-0.0045306114
6	0x3c251dcd	0.010077906
7	0xbba492bc	-0.005022375
8	0x3c4d306f	0.0125237545
9	0x3b916b39	0.0044378308
10	0xbb058da5	-0.0020378616
11	0xbcf890b6	-0.030342441
12	0x3c0dc8be	0.008653818
13	0x3c15e88c	0.009149682
14	0x3c19bf58	0.009383999
15	0xbbe0e3dd	-0.006863101
16	0xbc540519	-0.0129406685
17	0xbb52c8d7	-0.0032163167
18	0xbadaabee	-0.0016683319
19	0xbbdc2b3b	-0.0067190207

output_layer.weight f4 [3, 20]
0	0xbee4e42f	-0.4470534
1	0xbd722fdf	-0.059127685
2	0x3e291f92	0.1651595
3	0xbe619130	-0.22028041
4	0x3f150120	0.5820484
5	0x3da5d0ba	0.08096452
6	0xbf460385	-0.7734912
7	0xbdc57d1d	-0.09643004
8	0xbebd4b7e	-0.36971658
9	0x3dbb7598	0.091532886
10	0xbdaeedcb	-0.08541449
11	0xbf57e21d	-0.84329396
12	0xbe12db63	-0.14341502
13	0xbd9a4773	-0.07533159
14	0xbe820572	-0.2539478
15	0x3f481b6f	0.7816686
16	0xbe23d1f7	-0.15998064
17	0x3f033ea4	0.51267457
18	0x3e5635fb	0.2091903
19	0xbf399f7b	-0.7250897
20	0x3e45d777	0.19320475
21	0x3f396f29	0.7243524
22	0xbf0d1a26	-0.55118024
23	0xbf0b679f	-0.5445499
24	0x3f56031e	0.83598506
25	0x3f2debeb	0.6793811
26	0xbef0294d	-0.4690651
27	0x3f051b3c	0.5199468
28	0xbe14e15f	-0.14539097
29	0xbf54d294	-0.83133817
30	0x3d8ed73c	0.069746464
31	0x3e898636	0.26860207
32	0xbe7c28f0	-0.24624991
33	0x3e904181	0.28174976
34	0xbf33e085	-0.70264465
35	0x3f152a1c	0.5826738
36	0x3f337cfe	0.701126
37	0x3ef86c74	0.48520243
38	0x3e0c2152	0.13684586
39	0x3e92c75e	0.2866773
40	0xbf377d9b	-0.71676034
41	0xbdd1cb9e	-0.10243915
42	0xbb7dc9ee	-0.0038725096
43	0xbebd4dea	-0.36973506
44	0xbf08413d	-0.53224546
45	0x3eed0f45	0.46300712
46	0x3f252558	0.6451011
47	0xbf2dae1b	-0.6784379
48	0x3e47439b	0.19459383
49	0x3e757d2b	0.23973529
50	0x3f50dcb5	0.8158677
51	0x3ef24894	0.47320998
52	0x3f59d8d4	0.8509648
53	0xbebfca40	-0.37458992
54	0x3f0349d3	0.5128452
55	0x3f1809e2	0.5939008
56	0xbf330b54	-0.6993916
57	0xbf1846cc	-0.5948303
58	0x3d94c720	0.072645426
59	0x3ed14193	0.40870342

output_layer.bias f4 [3]
0	0xba6434b1	-0.00087053614
1	0xbbe033c9	-0.006842111
2	0xbdc99be9	-0.098441906
