results/LBFGS_sqloss.pt (torch, 9155 bytes, 10 tensors)

input_layer.weight f4 [20, 3]
0	0x3f34de79	0.70651966
1	0x3ec11e56	0.37718457
2	0x3eead3a8	0.45864606
3	0x3f5a7d86	0.85347784
4	0x3f53d6a6	0.827494
5	0x3efb3579	0.49064234
6	0xbea1e88d	-0.31622735
7	0x3f178041	0.59180075
8	0x3f419b14	0.75627255
9	0xbec4ffb9	-0.3847635
10	0x3f419f2b	0.75633496
11	0x3eeacdf3	0.45860252
12	0x3f30472b	0.68858594
13	0x3ebc3c2d	0.3676466
14	0x3ee7649d	0.4519395
15	0xbcde6edd	-0.027152473
16	0x3f3483a0	0.70513344
17	0x3f15fba9	0.5858713
18	0xbebff48d	-0.37491265
19	0xbf80bd72	-1.0057814
20	0xbf146d03	-0.5797884
21	0xbe1e4711	-0.15456797
22	0x3eef049e	0.4668321
23	0x3e88a0f5	0.266853
24	0xbf2d37dc	-0.6766336
25	0xbea4ca17	-0.32185432
26	0xbe80f9b8	-0.2519052
27	0xbe57c843	-0.21072488
28	0xb6d16e38	-6.2415165e-06
29	0xb6b49760	-5.3820404e-06
30	0x3e999dcc	0.30003202
31	0xbe7f72f9	-0.24946202
32	0xbe798eae	-0.24370834
33	0x3e5d47f8	0.21609485
34	0x3ee0b468	0.4388764
35	0x3efae1f4	0.49000514
36	0x3e7b4abb	0.24540226
37	0x3f256b88	0.64617205
38	0x3ee17d40	0.4404087
39	0xbca5c66e	-0.02023622
40	0x3f034382	0.51274884
41	0x3f2eb06e	0.6823796
42	0x3eba3fb2	0.3637672
43	0x3f405b68	0.75139475
44	0x3eeef37c	0.4667014
45	0xbe6de952	-0.23233536
46	0x3f1b720f	0.60720915
47	0x3f130736	0.5743288
48	0x3eaab52b	0.33341345
49	0xbf425f98	-0.75927114
50	0xbf58eab6	-0.8473314
51	0xbeddd10b	-0.4332355
52	0x3edc0dcd	0.4297928
53	0x3e96b924	0.29438126
54	0x3e91edfb	0.28501877
55	0x3f00286d	0.50061685
56	0x3eae8ebc	0.34093273
57	0xbe4880c0	-0.19580364
58	0x3e91a76c	0.28448045
59	0x3ef3a721	0.47588447

input_layer.bias f4 [20]
0	0x3dd7f0aa	0.1054395
1	0x3e9e82d0	0.30959177
2	0x3c80bfad	0.015716398
3	0x3eced509	0.40396908
4	0x3e29aa99	0.16568984
5	0x3e19cf46	0.15020475
6	0xbe65b8db	-0.22433798
7	0xbc850f45	-0.016242633
8	0xbdcc1b08	-0.09966093
9	0x3dd42a4a	0.103596285
10	0xbe9ade81	-0.30247882
11	0x3e31009f	0.17285393
12	0x3e70af69	0.23504414
13	0x3e83ced6	0.2574374
14	0x3ab4c769	0.0013792339
15	0x3e9e579d	0.3092622
16	0xbe3843fe	-0.17994687
17	0xbcfd351e	-0.030909117
18	0x3de271d1	0.11056865
19	0x3e943d71	0.28953126

hidden_layers.0.weight f4 [20, 20]
0	0x3d094856	0.03351625
1	0xbf0af84e	-0.5428513
2	0x3e47a20d	0.19495411
3	0xbe12df20	-0.14342928
4	0x3e6c4c6c	0.23076028
5	0xbdaa3625	-0.083111085
6	0x3e9c5843	0.30536088
7	0xbea37a20	-0.3192911
8	0xbed3636a	-0.41286784
9	0xbf3ac751	-0.7296038
10	0x3e7a90b7	0.24469267
11	0x3ac63c60	0.0015124194
12	0x3f276a7d	0.65396863
13	0xbef2fa6c	-0.47456682
14	0xbf195440	-0.5989418
15	0xbedfec79	-0.43735102
16	0xbee26c33	-0.44223174
17	0x3e149d93	0.14513235
18	0x3e9364a0	0.28787708
19	0x3e814801	0.25250247
20	0xbea581a7	-0.3232548
21	0xbf48e31d	-0.7847155
22	0x3e969186	0.294079
23	0xbe9a5ee4	-0.3015052
24	0x3ee9e4c9	0.45682362
25	0xbe3b5ae0	-0.18296385
26	0x3f1a2a70	0.60221004
27	0xbf2f4e02	-0.68478405
28	0xbea4132a	-0.3204587
29	0xbe08486b	-0.13308875
30	0xbd209087	-0.039200332
31	0xbf01601d	-0.5053728
32	0x3eaa6eac	0.3328756
33	0x3edcc05c	0.4311551
34	0xbf01cecf	-0.5070619
35	0xbebb24e3	-0.3655158
36	0x3f21e899	0.6324554
37	0xbebd3d2b	-0.3696073
38	0xbe6ea284	-0.23304182
39	0xbee56f8f	-0.44811675
40	0xbeab70db	-0.3348454
41	0x3d218bd5	0.039439995
42	0xbe4d13f2	-0.2002714
43	0xbeffb7b6	-0.49944848
44	0xbdfeb1c7	-0.12436252
45	0xbf043915	-0.516496
46	0xbed83e0c	-0.42234838
47	0xbee2d5b4	-0.44303668
48	0xbed34e1e	-0.41270536
49	0xbe8925f0	-0.26786757
50	0x3f07e428	0.53082514
51	0x3ccd31ac	0.0250481
52	0x3d9b75a0	0.075907946
53	0xbf22583f	-0.634159
54	0xbf163417	-0.5867323
55	0xbe8f39c7	-0.27973768
56	0x3e6eed8c	0.23332804
57	0xbf22ea86	-0.63639104
58	0xbecdc98d	-0.40192834
59	0xbeac3c06	-0.33639544
60	0xbda3a333	-0.07990112
61	0xbe960c1a	-0.29306108
62	0xbdb5d613	-0.08878722
63	0xbf02eddc	-0.51144195
64	0xbee19c85	-0.44064727
65	0xbee13ded	-0.43992558
66	0xbd6ecfea	-0.05830375
67	0xbeb301cb	-0.34962305
68	0x3f11d945	0.5697215
69	0x3d34c039	0.04412863
70	0x3f1dd059	0.6164604
71	0x3e7c4b0e	0.24638006
72	0xbf1bf5f2	-0.6092216
73	0x3eb3056f	0.34965083
74	0xbe533c9d	-0.20628591
75	0xbe9f98ef	-0.31171367
76	0xbef9ea26	-0.48811454
77	0xbee6f9bd	-0.4511241
78	0x3e1594bd	0.1460752
79	0xbe64bab1	-0.22336842
80	0xbe14ef64	-0.14544445
81	0xbf1c6190	-0.6108637
82	0x3e021cbd	0.12706275
83	0xbf287ebe	-0.65818393
84	0xbee38edc	-0.4444493
85	0xbdc5ec94	-0.09664264
86	0x3ed567f2	0.41680866
87	0x3efb7bf6	0.49118012
88	0x3f657035	0.8962434
89	0xbd96d490	-0.07364762
90	0xbe7982d4	-0.24366313
91	0xbeb03393	-0.34414348
92	0xbea11461	-0.3146086
93	0xbf0e4b24	-0.55583405
94	0x3e866c78	0.2625463
95	0xbf303230	-0.6882658
96	0x3f3435ae	0.7039441
97	0x3e39f5e7	0.1816021
98	0xbdaccebc	-0.08437869
99	0xbcd1c77a	-0.025607813
100	0x3f3272c5	0.69706374
101	0x3df72af3	0.12068739
102	0x3e569953	0.20956926
103	0xbee13904	-0.43988812
104	0x3e96e0fc	0.29468524
105	0x3ce285c2	0.027651671
106	0xbe1d1865	-0.15341337
107	0x3ee855ba	0.45377904
108	0x3d22cd50	0.039746583
109	0xbc31706f	-0.010830029
110	0xbee20b96	-0.44149464
111	0xbc86033c	-0.016358964
112	0x3ef9d34d	0.48794022
113	0xbd81b585	-0.0633345
114	0xbe70d24c	-0.23517722
115	0xbde21fe7	-0.11041241
116	0xbf197f9d	-0.5996035
117	0x3e07ea08	0.1327287
118	0x3f17b2af	0.59257025
119	0xbef93ae5	-0.48677745
120	0x3eb9fa4e	0.3632378
121	0x3ee28c63	0.44247732
122	0x3e89dae0	0.269248
123	0xbe56fd61	-0.20995094
124	0x3ef08eab	0.46983847
125	0x3ecfe6bf	0.40605733
126	0x3e0b9c35	0.13633807
127	0xbcc70dc5	-0.024298558
128	0xbe988cab	-0.2979482
129	0xbdb270f2	-0.08712949
130	0xbd1c9a31	-0.038232986
131	0xbd9fbfc2	-0.07800247
132	0x3ef171e0	0.47157192
133	0x3ee03ca2	0.4379626
134	0x3da72e92	0.081631795
135	0xbdd1acdc	-0.102380484
136	0xbe18adc8	-0.14910042
137	0x3c95ce23	0.01828677
138	0x3e858ac8	0.26082444
139	0x3e1ec173	0.15503483
140	0xbf135242	-0.5754739
141	0xbe2fda7b	-0.17173187
142	0x3ec90dee	0.3926844
143	0x3d9e4441	0.07727862
144	0xbe814e8c	-0.2525524
145	0xbf0b0353	-0.5430195
146	0xbe954656	-0.29155225
147	0xbf126a93	-0.5719387
148	0xbd843c8d	-0.06456862
149	0x3ebd4561	0.36966994
150	0x3e805f1e	0.2507257
151	0x3e36c284	0.1784764
152	0xbf37baab	-0.7176921
153	0xbf0b922e	-0.5451993
154	0xbe6d0ad8	-0.23148668
155	0x3ee3b884	0.44476712
156	0x3e7b255c	0.2452597
157	0xbe44cde6	-0.19219169
158	0x3dd71dae	0.10503708
159	0x3a5aea26	0.0008350931
160	0xbc8114da	-0.015757013
161	0x3edeeb31	0.43538812
162	0x3d8b8f26	0.06814413
163	0x3e8ddb19	0.2770622
164	0xbea29f35	-0.3176209
165	0x3f566680	0.8375015
166	0x3f41e991	0.7574702
167	0x3db9a412	0.09064497
168	0xbf568b9c	-0.83806777
169	0xbec94847	-0.39312956
170	0xbf3b568a	-0.73178923
171	0x3edbd9b5	0.42939535
172	0x3f393655	0.7234853
173	0x3f6dc57a	0.9287945
174	0x3f3dcffb	0.7414548
175	0x3f0b3e3c	0.5439184
176	0xbebddafa	-0.37081128
177	0xbf4bd8cb	-0.79627675
178	0xbe3b5c1e	-0.18296859
179	0xbde12ca3	-0.10994842
180	0x3d77cee2	0.060500033
181	0xbe5e3f88	-0.21703923
182	0xbeaeebfb	-0.34164414
183	0xbf139424	-0.5764792
184	0xbeb07150	-0.3446145
185	0xbf29dbb0	-0.6635084
186	0xbeab8aca	-0.33504325
187	0x3e93ef69	0.28893593
188	0x3ce515cf	0.0279645
189	0x3ed9a9e7	0.42512438
190	0xbc94f467	-0.018182946
191	0xbec50720	-0.38481998
192	0xbea58287	-0.32326147
193	0xbf031d81	-0.51216894
194	0xbed48b13	-0.41512355
195	0xbf531a4e	-0.8246201
196	0x3f14a041	0.5805703
197	0xbe871eb2	-0.26390606
198	0x3dd3f8eb	0.10350212
199	0x3dd86b26	0.10567312
200	0x3ee8d31d	0.45473567
201	0xbf01cdfe	-0.50704944
202	0x3eee3e20	0.46531773
203	0xbe9b27d0	-0.30303812
204	0x3e6f9e2c	0.23400182
205	0x3f1a67cd	0.6031464
206	0xbda06601	-0.07831956
207	0xbc0d4714	-0.008622903
208	0xbe103cb7	-0.14085661
209	0xbf0c7e81	-0.5488053
210	0x3e9f68d4	0.31134665
211	0xbf267ace	-0.65031135
212	0x3ecb2074	0.39673197
213	0x3ef5d8b8	0.48016906
214	0x3f1aa9a8	0.60415125
215	0xbe1c9d77	-0.15294443
216	0xbf0799c4	-0.52969
217	0x3e0b0a66	0.13578185
218	0x3eb3205c	0.34985626
219	0xbf248bb0	-0.64275646
220	0xbdbc1978	-0.09184545
221	0xbec03a77	-0.37544605
222	0xbceb9bc9	-0.028760808
223	0xbe556d9e	-0.20842597
224	0xbe847bd7	-0.25875732
225	0xbe1e0eb7	-0.15435301
226	0xbf27f9b7	-0.6561541
227	0x3f08d593	0.5345089
228	0x3f078b13	0.52946585
229	0xbe535403	-0.20637517
230	0xbdba9ceb	-0.09111961
231	0xbe703b8e	-0.23460218
232	0xbf0c18b7	-0.5472521
233	0xbf229481	-0.6350785
234	0x3e81f540	0.25382423
235	0xbe9bc220	-0.30421543
236	0xbede2693	-0.43388805
237	0xbd39386a	-0.045219816
238	0xbe404d73	-0.18779545
239	0xbe77f4cb	-0.24214475
240	0xbd845430	-0.0646137
241	0xbe370d20	-0.178761
242	0xbe651e70	-0.22374892
243	0xbe9e37fc	-0.30902088
244	0xbf0444bd	-0.51667386
245	0x3f019f0a	0.506333
246	0xbe2b4431	-0.16725232
247	0x3dffaf1b	0.124845706
248	0xbe45b18f	-0.19306014
249	0x3e79b8f9	0.24386968
250	0xbdcf4aaa	-0.10121663
251	0x3e8c2817	0.27374336
252	0xbf0e79ff	-0.556549
253	0x3ebf9295	0.3741652
254	0x3f0e56ae	0.5560101
255	0x3e2d3140	0.16913319

hidden_layers.0.bias f4 [20]
0	0x3db8544f	0.090004556
1	0xbe2aa0c1	-0.16662885
2	0xbe271557	-0.16316734
3	0xbe160227	-0.14649259
4	0xbecf7635	-0.40519872
5	0x3def82d4	0.11694875
6	0x3e22bfc2	0.15893462
7	0xbe026aeb	-0.12736098
8	0x3ec55c78	0.3854711
9	0xbe5ac932	-0.21365812
10	0xbca43d9d	-0.02004891
11	0xbd0dfba3	-0.034663808
12	0xbd8a5ac8	-0.067555964
13	0xbe5de17f	-0.21668051
14	0xbe19c1c7	-0.15015326
15	0xbe7e0962	-0.24808267
16	0x3dc4cb88	0.09609133
17	0x3e9a690f	0.30158278
18	0x3ee596b7	0.4484155
19	0xbdca69ea	-0.09883483

hidden_layers.1.weight f4 [20, 20]
0	0xbe50a1a5	-0.20374162
1	0x3ea4ede5	0.3221275
2	0x3e39bed0	0.18139195
3	0xbe8d2044	-0.2756368
4	0x3deb3835	0.1148533
5	0xbf02f7d4	-0.51159406
6	0xbf296d27	-0.6618218
7	0xbe8d2d35	-0.27573553
8	0x3f047de7	0.5175461
9	0x3f4b4e98	0.794168
10	0x3ea370f9	0.3192213
11	0x3ecd99c0	0.40156364
12	0x3ec24286	0.37941378
13	0x3d06ee31	0.032942
14	0xbdc69a49	-0.09697396
15	0x3ea90c28	0.33017087
16	0xbf090d59	-0.5353599
17	0xbf1d5a7e	-0.61466205
18	0xbeab88e3	-0.33502874
19	0x3d12bf63	0.03582705
20	0x3ec2cab4	0.38045275
21	0xbeb4cd12	-0.35312706
22	0xbedae5d5	-0.42753473
23	0x3cc91a1e	0.024548586
24	0xbee44690	-0.44585085
25	0xbe8cd287	-0.2750437
26	0x3ee61113	0.44934902
27	0xbd037a1e	-0.032098882
28	0x3f58e2f9	0.8472133
29	0x3ef46aa8	0.47737622
30	0x3e920ddc	0.285262
31	0x3dc2c6e9	0.09510595
32	0x3e258693	0.16164617
33	0xbad75b43	-0.0016430396
34	0xbe2cac47	-0.16862594
35	0x3e0584f9	0.13039006
36	0x3ead2c01	0.33822635
37	0x3f1fed94	0.6247189
38	0x3b102fb5	0.0022001092
39	0xbe4cbd51	-0.19994093
40	0xbee1615f	-0.440196
41	0xbdb2541c	-0.08707449
42	0x3e65ebd0	0.22453237
43	0x3f11e893	0.56995505
44	0x3f08b652	0.534032
45	0x3e3cffef	0.18457006
46	0xbf1b7697	-0.6072783
47	0xbda5a60e	-0.08088313
48	0xbdbdfb0b	-0.09276398
49	0x3c923d2c	0.017851435
50	0xbe0bf98e	-0.13669416
51	0xbeeb76ee	-0.45989174
52	0x3d2dfb91	0.04247624
53	0xbec31457	-0.38101456
54	0xbe8ab867	-0.27093813
55	0xbe9b984d	-0.30389634
56	0x3ebcc59c	0.36869514
57	0xbf2e3019	-0.6804214
58	0x3ee6c4c9	0.4507201
59	0xbe5c7da4	-0.21532303
60	0xbdb28ee3	-0.0871866
61	0x3ef0be65	0.4702026
62	0xbdb6a371	-0.08917893
63	0x3ee35006	0.4439699
64	0x3edbd657	0.42936966
65	0xbf21b212	-0.6316234
66	0x3e7638f5	0.24045165
67	0x3e031d21	0.1280408
68	0x3dea668c	0.114453405
69	0x3e142af0	0.14469504
70	0x3e041d4f	0.12901805
71	0xbea3101a	-0.31848222
72	0xbdff267e	-0.12458514
73	0x3f15daf6	0.5853723
74	0x3ef85e5a	0.48509485
75	0xbcac16cd	-0.021006966
76	0xbf247660	-0.64243126
77	0xbc8aee9f	-0.016959487
78	0xbec31f75	-0.38109937
79	0x3eebc83f	0.46051213
80	0xbe3876ef	-0.1801412
81	0xbe9b2862	-0.30304247
82	0xbedfd906	-0.43720263
83	0xbe0a3649	-0.1349727
84	0x3ea0fe62	0.3144408
85	0x3e60b6e9	0.21944775
86	0x3f27b827	0.6551537
87	0x3e9113ed	0.28335515
88	0x3f323022	0.69604695
89	0xbeff577b	-0.4987143
90	0x3e179a55	0.14804967
91	0x3c9ca561	0.019121828
92	0xbd8827ae	-0.06648193
93	0x3d193cc3	0.037411463
94	0xbecef37d	-0.40420142
95	0xbf388775	-0.7208169
96	0x3f0c7050	0.54858875
97	0x3ea3282b	0.31866583
98	0x3ee50a43	0.44734392
99	0x3efd5d31	0.49485162
100	0x3eacce29	0.33751038
101	0x3f2e3cf9	0.68061787
102	0x3e64ea20	0.22354937
103	0xbec0f076	-0.37683457
104	0xbe83595e	-0.2565412
105	0xbe83dcc1	-0.2575436
106	0xbf387a53	-0.7206165
107	0xbe5c0deb	-0.21489684
108	0xbf2fef15	-0.68724185
109	0xbee776a9	-0.45207718
110	0xbf0c2356	-0.5474142
111	0xbee7c753	-0.4526926
112	0xbeb30da7	-0.34971353
113	0x3ec4f930	0.38471365
114	0x3f25d941	0.6478463
115	0xbcb61395	-0.022226134
116	0xbeafbffd	-0.34326163
117	0x3ebd4187	0.36964056
118	0xbeb84414	-0.3598944
119	0xbd7cd223	-0.06172384
120	0x3ea70e99	0.32628325
121	0xbef10c38	-0.47079635
122	0x3db10806	0.086441085
123	0x3eebadc4	0.4603101
124	0x3d69b5b9	0.05705807
125	0x3d7699eb	0.06020538
126	0xbea581b7	-0.32325527
127	0x3e330cbd	0.17485328
128	0xbebe248e	-0.37137264
129	0x3e77d492	0.24202183
130	0x3ebd8323	0.37014112
131	0x3ee4d16c	0.44691026
132	0xbe072acc	-0.1319992
133	0x3d8981d1	0.06714214
134	0xbea1817c	-0.315441
135	0xbef4f45b	-0.47842678
136	0x3d5bdac0	0.053675413
137	0xbe860fb6	-0.26183861
138	0x3f002f1a	0.5007187
139	0x3e1dd793	0.15414266
140	0xbdcd2d0c	-0.10018358
141	0x3f225186	0.63405645
142	0xbebb874a	-0.36626655
143	0xbcd0230c	-0.025407337
144	0x3dfe5f3d	0.12420509
145	0xbf5a2790	-0.8521662
146	0xbf20f2af	-0.62870306
147	0x3e1f8fc0	0.1558218
148	0x3e7a2f22	0.24432042
149	0x3f572f93	0.8405697
150	0x3e47a226	0.19495448
151	0xbe3747d6	-0.17898497
152	0xbecb5c66	-0.39718932
153	0x3f4ab488	0.7918172
154	0x3ee88611	0.45414785
155	0x3ed314ad	0.41226712
156	0xbe12eea0	-0.1434884
157	0xbf27a32c	-0.65483356
158	0xbe15b982	-0.14621547
159	0x3ee4150c	0.44547307
160	0xbe3dc906	-0.18533716
161	0xbd91144d	-0.0708395
162	0xbea64274	-0.32472575
163	0xbdd00f89	-0.10159213
164	0x3e267703	0.16256337
165	0xbea0152e	-0.3126616
166	0xbe9b2dd5	-0.30308405
167	0x3eb9e644	0.3630849
168	0xbef3aef3	-0.47594413
169	0x3ea41a8b	0.320515
170	0xbf32d278	-0.698524
171	0xbdac94b4	-0.084268
172	0x3ea8c2be	0.32961076
173	0x3f371ab6	0.7152513
174	0xbc47e0b6	-0.012199571
175	0xbd5bec27	-0.05369201
176	0xbf596c6b	-0.8493106
177	0xbec007f6	-0.37506074
178	0xbf2926ef	-0.6607503
179	0xbdacd89b	-0.08439752
180	0xbda2eecb	-0.079557024
181	0xbf44125a	-0.765905
182	0x3ed007e3	0.40631017
183	0x3ea2e953	0.31818637
184	0xbf46427f	-0.77445215
185	0xbe04f36d	-0.12983485
186	0x3ebcc75a	0.36870843
187	0xbe74db2a	-0.2391173
188	0xbc2538e0	-0.010084361
189	0xbec435f9	-0.38322428
190	0x3f28086f	0.6563787
191	0xbf01a5ed	-0.5064381
192	0x3d9b3676	0.07578747
193	0xbe06408a	-0.13110557
194	0xbc845076	-0.016151648
195	0x3ea3ea5f	0.32014748
196	0x3d3a333b	0.045459013
197	0xbe195d01	-0.14976884
198	0xbd18cacf	-0.03730279
199	0x3e1bfe07	0.15233622
200	0xbedf7432	-0.43643337
201	0x3eb73161	0.3577986
202	0xbe9dfce4	-0.30857003
203	0x3f122058	0.570806
204	0x3ef7297b	0.48273835
205	0xbe6288d8	-0.22122514
206	0x3d3e2b10	0.046427786
207	0x3e08b864	0.1335159
208	0x3d9ca2e2	0.07648255
209	0xbe8679a7	-0.26264688
210	0xbea9a216	-0.33131474
211	0x3f0c6791	0.5484553
212	0x3e679eac	0.22619122
213	0x3ecdbaf1	0.40181687
214	0xbe67416a	-0.22583547
215	0x3f2ca945	0.67445785
216	0xbec75011	-0.38928273
217	0xbec4ca0c	-0.384354
218	0xbf445bd3	-0.7670261
219	0xbe2bd227	-0.16779386
220	0x3e612f31	0.21990658
221	0x3e9bbc7a	0.30417234
222	0xbe0ee043	-0.13952737
223	0x3ee1589a	0.4401291
224	0x3d104fd0	0.035232365
225	0x3eb75749	0.3580878
226	0xbf4c1133	-0.79713744
227	0xbd87ddfc	-0.06634137
228	0xbf471492	-0.7776576
229	0xbbd6677e	-0.006543099
230	0xbd61c5cd	-0.05512028
231	0x3f5c4859	0.86047894
232	0xbea4a710	-0.3215871
233	0x3f3c9f35	0.7368043
234	0x3ebf41ed	0.37354985
235	0x3f287c3d	0.6581457
236	0x3e85be04	0.26121533
237	0x3ea140e2	0.31494814
238	0xbf119317	-0.56865066
239	0x3e30c396	0.1726211
240	0x3e0845f3	0.13307934
241	0xbeb080d4	-0.34473288
242	0xbe54fcdb	-0.20799582
243	0xbee3925a	-0.44447595
244	0x3e7fcb86	0.24979982
245	0xbebdcbf0	-0.37069654
246	0x3e122720	0.14272738
247	0x3e1cc515	0.15309556
248	0xbf243fbb	-0.64159745
249	0x3ea3f581	0.32023242
250	0xbe4b2d48	-0.19841492
251	0x3ee141b7	0.4399545
252	0x3f076d2f	0.52900976
253	0xbf0dda24	-0.5541098
254	0x3f34ade0	0.7057781
255	0x3f0452f8	0.516891

hidden_layers.1.bias f4 [20]
0	0xbe747a38	-0.23874748
1	0x3dd45f43	0.10369732
2	0xbe43ce01	-0.19121553
3	0xbd3e6238	-0.046480387
4	0x3e8d7593	0.27628765
5	0xbde39324	-0.11112049
6	0x3db035cb	0.0860401
7	0xbe923391	-0.28554967
8	0xbe883ee1	-0.26610473
9	0x3e46f83d	0.19430633
10	0xbe89cc94	-0.26913893
11	0xbe765329	-0.2405516
12	0xbe11d72b	-0.14242236
13	0xbe1ab99e	-0.1510987
14	0xbe9c7a70	-0.30562162
15	0x3e71437f	0.23560904
16	0xbe5d4dc7	-0.21611701
17	0x3e5686d2	0.20949867
18	0x3e3a54c5	0.181964
19	0x3e2b4d8d	0.16728802

hidden_layers.2.weight f4 [20, 20]
0	0x3e3b9134	0.1831711
1	0xbf09fdbd	-0.539028
2	0x3ef46d3c	0.4773959
3	0xbe568b8a	-0.20951667
4	0xbe985c43	-0.2975789
5	0x3eee8eda	0.46593362
6	0x3ec583ec	0.3857721
7	0x3e3e20cc	0.18567199
8	0x3e3e0d48	0.18559754
9	0xbf11497e	-0.56752765
10	0xbc953dfc	-0.018218033
11	0x3f284832	0.6573516
12	0x3e3313c4	0.17488009
13	0x3deff71d	0.11717055
14	0x3c6e5bd2	0.014548259
15	0xbe3cf36f	-0.18452238
16	0x3f0072f4	0.50175405
17	0x3da49918	0.08037013
18	0x3ea5fbbf	0.3241863
19	0xbe57817e	-0.21045491
20	0x3ed99dce	0.42503208
21	0x3e44dd70	0.19225097
22	0xbd80f38b	-0.06296452
23	0x3eec12fb	0.4610823
24	0x3ee7bf54	0.4526316
25	0x3ef254fb	0.4733046
26	0x3e0c2e65	0.13689573
27	0xbe52f9b2	-0.20603064
28	0xbeb63c3e	-0.35592836
29	0xbd4b50a1	-0.04963744
30	0x3e1a5c27	0.15074216
31	0x3ca38f3c	0.01996576
32	0xbd3cb533	-0.046071243
33	0x3e191cab	0.14952342
34	0x3f2017b4	0.6253617
35	0x3e30ef23	0.17278723
36	0xbe0e95ca	-0.13924327
37	0xbe6246dc	-0.22097343
38	0xbea64886	-0.32477206
39	0xbe94a6dc	-0.29033554
40	0x3f09be91	0.53806406
41	0x3ec056af	0.37566134
42	0x3f1c12c4	0.60966134
43	0x3c8e9c67	0.017408563
44	0xbc9d53cf	-0.019205002
45	0x3eca5ee2	0.39525515
46	0xbee2d2aa	-0.4430135
47	0x3dc5e141	0.096621044
48	0xbdba25a5	-0.090892114
49	0xbec99dba	-0.39378148
50	0xbf01eb4d	-0.50749665
51	0x3f1ea21b	0.61966103
52	0x3f181c34	0.59418035
53	0x3eb3350d	0.35001412
54	0x3f13a9ad	0.5768078
55	0xbea077c9	-0.3134139
56	0xbdd7b470	-0.105324626
57	0x3e442d31	0.19157864
58	0xbd5f8738	-0.054572314
59	0xbe113453	-0.14180116
60	0xbf2a74c6	-0.6658443
61	0x3e962d9b	0.2933167
62	0xbe92d458	-0.2867763
63	0xbdc67418	-0.09690112
64	0x3f10d211	0.56570536
65	0xbe01f6bc	-0.12691778
66	0xbe35daaa	-0.17759195
67	0x3ebc94d3	0.36832294
68	0xbead5f72	-0.33861881
69	0xbd80db7d	-0.06291864
70	0x3efe6160	0.49683666
71	0xbec299e6	-0.3800804
72	0xbeedefbd	-0.46471968
73	0xbeda413c	-0.42627895
74	0xbe7e3f1a	-0.24828759
75	0xbe1f0897	-0.1553062
76	0xbee148b4	-0.4400078
77	0x3e7374f1	0.23775078
78	0x3e7a88d5	0.2446626
79	0xbdbd51b9	-0.09244103
80	0xbef9ed43	-0.4881383
81	0xbdb900ea	-0.090333775
82	0x3cbac080	0.02279687
83	0xbeaf560e	-0.34245342
84	0xbed2318f	-0.41053435
85	0xbcc23444	-0.023706563
86	0xbef01ce7	-0.4689705
87	0xbf1e8a0e	-0.61929405
88	0xbf20d59d	-0.6282595
89	0x3de36b81	0.11104489
90	0xbe9bfc4d	-0.30465928
91	0xbe8ce12e	-0.27515548
92	0x3e7ae444	0.24501139
93	0x3e012190	0.1261046
94	0x3e984f9a	0.2974823
95	0xbe8615c8	-0.26188493
96	0xbf0e99e2	-0.55703557
97	0xbe584d85	-0.21123321
98	0x3f0a2672	0.5396491
99	0x3e6e79b7	0.23288618
100	0xbeaad9a6	-0.33369178
101	0x3c75b263	0.014996144
102	0xbee82f72	-0.45348698
103	0xbe8c99dc	-0.27461135
104	0x3e7229f0	0.2364881
105	0x3e2c94e2	0.1685367
106	0xbb4d8839	-0.0031361713
107	0xbec878f2	-0.39154774
108	0xbd9f6369	-0.07782633
109	0x3c51b2f5	0.012799014
110	0x3e961cdc	0.29318893
111	0x3e75be3f	0.23998354
112	0xbd7ba9b5	-0.061441142
113	0xbeddb273	-0.43300208
114	0x3ea64003	0.32470712
115	0xbe31bfc3	-0.17358308
116	0xbee89f9e	-0.45434278
117	0x3ed22d1e	0.41050047
118	0x3ee5aca7	0.44858286
119	0x3f496576	0.7867044
120	0x3e43ce4e	0.19121668
121	0xbe54c867	-0.20779572
122	0x3e922224	0.28541672
123	0x3f128a60	0.57242393
124	0xbf1b5b06	-0.60685766
125	0xbddfaf0a	-0.10922058
126	0xbee1061f	-0.43949983
127	0x3d9db0bd	0.07699726
128	0x3e8305d6	0.2559039
129	0xbdee58b4	-0.116380125
130	0xbd973355	-0.07382838
131	0x3e95f4a2	0.29288203
132	0xbe0a76ed	-0.13521929
133	0xbf0e8e02	-0.55685437
134	0x3efe4321	0.4966059
135	0xbeb51978	-0.35370994
136	0xbd6ffc11	-0.05859
137	0x3dd834e5	0.10556964
138	0xbcdcafba	-0.026939262
139	0xbf246401	-0.64215094
140	0x3e83043c	0.25589168
141	0xbe95bcaf	-0.29245517
142	0xbe79a638	-0.24379814
143	0x3e27dec6	0.16393575
144	0xbecc12a7	-0.3985798
145	0xbe871712	-0.2638479
146	0xbe8b8a85	-0.2725412
147	0xbe80fc84	-0.25192654
148	0xbde2a015	-0.110656895
149	0xbe97a9c2	-0.29621702
150	0x3acf10a4	0.0015797806
151	0xbf2bab42	-0.67058194
152	0xbeb4c68d	-0.35307732
153	0x3d63d891	0.055626456
154	0x3e5a2a2e	0.21305153
155	0x3f1f5d57	0.622518
156	0xbecda64d	-0.4016594
157	0x3e65ca97	0.22440563
158	0x3ea77a7e	0.32710642
159	0x3ec3bf81	0.38232043
160	0xbf03610c	-0.51319957
161	0xbea979ed	-0.33100834
162	0xbf2091d4	-0.62722516
163	0xbead0051	-0.33789304
164	0x3eb52972	0.35383183
165	0xbdb6361a	-0.08897038
166	0x3ed944ca	0.42435294
167	0xbeac0619	-0.33598402
168	0x3ddb86cc	0.1071907
169	0xbebe432c	-0.37160623
170	0x3ed5d97b	0.41767487
171	0xbe260eeb	-0.16216628
172	0xbe09cf7d	-0.13458057
173	0xbf00e428	-0.5034814
174	0xbb536443	-0.0032255806
175	0x3ed6b339	0.4193361
176	0x3eb16b14	0.34652007
177	0xbec7dcdb	-0.39035687
178	0xbd83c836	-0.064346716
179	0xbe0b5ee6	-0.1361042
180	0xbece1a1c	-0.40254295
181	0x3ea6e6c5	0.32597938
182	0xbe415343	-0.18879418
183	0x3eb5c361	0.35500625
184	0xbef166bc	-0.47148693
185	0xbcb8b337	-0.022546394
186	0x3ed86885	0.42267242
187	0x3eb33cb5	0.35007253
188	0x3e61a008	0.22033703
189	0xbe92853c	-0.28617275
190	0x3ee28c70	0.4424777
191	0xbe4042f8	-0.18775547
192	0xbe412cff	-0.18864821
193	0xbe131354	-0.14362842
194	0x3f25a784	0.64708734
195	0xbed72fce	-0.4202866
196	0x3d1710a3	0.0368811
197	0xbee23e50	-0.44188166
198	0xbea994dc	-0.33121383
199	0xbf435ece	-0.76316535
200	0xbe972600	-0.2952118
201	0x3e25cd21	0.16191532
202	0x3eb26451	0.3484216
203	0x3f557ffa	0.833984
204	0xbef570e8	-0.47937703
205	0x3eb9054b	0.3613685
206	0xbe1ff0b8	-0.1561917
207	0x3eb2493e	0.34821504
208	0x3f11601a	0.56787264
209	0x3edd33c3	0.43203554
210	0x3ee08a32	0.43855435
211	0x3ed4eb7b	0.41585907
212	0x3dc31cd8	0.09526986
213	0x3eccbf5a	0.3998974
214	0xbe566a2d	-0.2093894
215	0xbdea89af	-0.11452042
216	0xbd95cbfb	-0.07314297
217	0xbe1f641b	-0.15565531
218	0xbf468ba9	-0.77556854
219	0xbec319b0	-0.38105536
220	0xbecbdbad	-0.39816037
221	0xbda3c08d	-0.079957105
222	0xbe84326c	-0.2581972
223	0xbf4a50c3	-0.7902948
224	0x3e9fdc24	0.3122264
225	0x3dfd0be2	0.12355782
226	0x3ed6908b	0.41907153
227	0x3dbbcd12	0.091699734
228	0xbf12b3d6	-0.5730566
229	0xbed1df03	-0.40990457
230	0x3e2bca54	0.16776401
231	0x3e69d7cf	0.2283623
232	0xbf45449f	-0.7705783
233	0x3b9b24fd	0.004734634
234	0x3e905b30	0.2819457
235	0x3dcf9f1d	0.1013777
236	0xbf24696f	-0.6422338
237	0x3f0ef549	0.55843025
238	0x3ec8dd51	0.3923135
239	0x3f267c45	0.6503337
240	0xbefaf0ad	-0.49011746
241	0x3ecd7fd6	0.40136594
242	0xbf024c9f	-0.50898165
243	0x3f1514f2	0.58235085
244	0xbe30ee2a	-0.17278352
245	0x3e90bd7f	0.28269574
246	0xbd112e5d	-0.035444606
247	0xbe65598e	-0.22397444
248	0xbe59abee	-0.21256992
249	0x3e9eb893	0.31000194
250	0xbefa060c	-0.48832738
251	0xbf165054	-0.5871632
252	0xbe8f70fa	-0.28015882
253	0x3ec193fe	0.37808222
254	0xbec2f5a1	-0.38078025
255	0x3d17e883	0.037086975

hidden_layers.2.bias f4 [20]
0	0xbdcfde33	-0.10149803
1	0xbca4c492	-0.020113263
2	0xbd2e97bb	-0.04262517
3	0x3debc0fb	0.115114175
4	0x3e147e5a	0.14501324
5	0x3e5adf14	0.2137416
6	0xbcbab86c	-0.022793017
7	0xbcd4f73a	-0.025996793
8	0xbd82cdc5	-0.06386904
9	0xbe6b9a2c	-0.2300803
10	0xbe5b18c0	-0.2139616
11	0x3e7cf73e	0.2470369
12	0x3da18304	0.07886317
13	0xbe67836c	-0.22608727
14	0xbaa553b1	-0.0012613443
15	0xbe2ba5e3	-0.167625
16	0x3ec327d1	0.38116315
17	0xbc28f277	-0.010311714
18	0x3e457313	0.19282179
19	0x3d02c0be	0.031922095

output_layer.weight f4 [5, 20]
0	0x3c9a3aab	0.018826803
1	0x3eab4040	0.33447456
2	0xbe5d8899	-0.21634139
3	0xbefffb66	-0.4999649
4	0x3e236899	0.1595787
5	0x3e3d6c47	0.18498336
6	0xbeae1ac4	-0.34004796
7	0x3f036a50	0.51334095
8	0xbca67c0d	-0.020322824
9	0xbf021dcd	-0.5082672
10	0x3f04201b	0.5161149
11	0x3d9b6fd6	0.075896904
12	0xbdbe888c	-0.09303388
13	0x3e1939a1	0.1496339
14	0xbe5518bc	-0.20810217
15	0x3e5835fa	0.2111434
16	0x3f11194a	0.56679213
17	0x3ee50861	0.44732955
18	0xbd77efda	-0.060531475
19	0x3d02260b	0.03177456
20	0xbf0c72c1	-0.548626
21	0xbd841d63	-0.064509176
22	0xbe1cc049	-0.15307726
23	0xbe96c56d	-0.294475
24	0xbe5402fd	-0.20704265
25	0x3e50a2e1	0.20374633
26	0x3f036346	0.51323354
27	0xbf2a1afe	-0.66447437
28	0x3caf7a6d	0.021420682
29	0x3d84c9e9	0.06483824
30	0x3ebbdd51	0.3669229
31	0xbd486c83	-0.04893161
32	0x3ed0c8ed	0.40778294
33	0xbcbca0b8	-0.023025855
34	0x3eccca31	0.3999801
35	0x3e320598	0.17384946
36	0xbeaf4fda	-0.3424061
37	0xbf3c2525	-0.7349418
38	0xbe9535d5	-0.29142633
39	0x3eb6e2e6	0.35719985
40	0xbec6ac27	-0.38803217
41	0x3df5f277	0.12009137
42	0x3d6608c8	0.05616072
43	0x3e445b62	0.19175485
44	0xbed17663	-0.40910634
45	0x3ec27b8c	0.37984884
46	0x3f0fbe1f	0.56149477
47	0xbf132d18	-0.5749068
48	0x3a5d7168	0.000844738
49	0x3d5ca85c	0.053871498
50	0x3e8ae58a	0.2712825
51	0x3f3601a7	0.7109627
52	0x3e6ecf59	0.23321284
53	0xbe8bcbb0	-0.2730384
54	0x3f1a13df	0.6018657
55	0xbe07fbc9	-0.13279642
56	0xbe850cf1	-0.25986436
57	0x3d9478b8	0.07249588
58	0xbf20d9d9	-0.6283241
59	0x3da3249e	0.079659685
60	0xbf1668a3	-0.5875341
61	0x3d54f10d	0.051987696
62	0x3d979f77	0.074034624
63	0x3e2145f5	0.15749343
64	0xbf131f6e	-0.5746983
65	0xbf3aa58a	-0.7290884
66	0x3ea2933c	0.31752956
67	0x3f44294e	0.76625526
68	0xbf387c43	-0.7206461
69	0x3e643703	0.2228661
70	0xbf297213	-0.6618969
71	0x3db82e72	0.08993234
72	0x3f4be7f5	0.79650813
73	0x3ef0b51c	0.47013175
74	0xbf15e2b2	-0.58549035
75	0x3f1991c5	0.5998805
76	0x3eecdbae	0.46261352
77	0xbdb57276	-0.08859722
78	0x3f3ea464	0.7446959
79	0xbe85d880	-0.2614174
80	0xbe2f5d2c	-0.17125386
81	0xbebad218	-0.36488414
82	0x3e02237e	0.12708852
83	0x3e5dba1e	0.2165303
84	0x3de6a4c7	0.112618975
85	0xbeda362b	-0.42619452
86	0xbeca63e9	-0.3952935
87	0x3e9b417a	0.30323392
88	0xbf3675b6	-0.7127336
89	0xbe11460f	-0.14186881
90	0xbd081345	-0.0332215
91	0xbe96d9bb	-0.2946299
92	0x3ea54e36	0.32286233
93	0xbd2b4ecf	-0.041823205
94	0x3efc0ffa	0.4923094
95	0x3c38d2f1	0.011280761
96	0xbf13dce1	-0.5775891
97	0x3f0b8e3a	0.54513896
98	0x3df581cb	0.11987647
99	0xbe4fafd8	-0.20281923

output_layer.bias f4 [5]
0	0xbd5f26d4	-0.05448039
1	0x3d5c8348	0.053836137
2	0xbc1e12cc	-0.009648036
3	0x3d858359	0.06519193
4	0x3d00148e	0.031269602
